{"format": "layers-model", "generatedBy": "keras v2.7.0", "convertedBy": "TensorFlow.js Converter v3.11.0", "modelTopology": {"keras_version": "2.7.0", "backend": "tensorflow", "model_config": {"class_name": "Functional", "config": {"name": "model", "layers": [{"class_name": "InputLayer", "config": {"batch_input_shape": [null, 224, 224, 3], "dtype": "float32", "sparse": false, "ragged": false, "name": "input_2"}, "name": "input_2", "inbound_nodes": []}, {"class_name": "TFOpLambda", "config": {"name": "tf.compat.v1.pad", "trainable": true, "dtype": "float32", "function": "compat.v1.pad"}, "name": "tf.compat.v1.pad", "inbound_nodes": [["input_2", 0, 0, {"paddings": [[0, 0], [1, 1], [1, 1], [0, 0]], "mode": "CONSTANT", "name": null, "constant_values": 0}]]}, {"class_name": "Conv2D", "config": {"name": "vargface_head_conv1", "trainable": true, "dtype": "float32", "filters": 40, "kernel_size": [3, 3], "strides": [2, 2], "padding": "valid", "data_format": "channels_last", "dilation_rate": [1, 1], "groups": 1, "activation": "linear", "use_bias": false, "kernel_initializer": {"class_name": "GlorotUniform", "config": {"seed": null}}, "bias_initializer": {"class_name": "Zeros", "config": {}}, "kernel_regularizer": null, "bias_regularizer": null, "activity_regularizer": null, "kernel_constraint": null, "bias_constraint": null}, "name": "vargface_head_conv1", "inbound_nodes": [[["tf.compat.v1.pad", 0, 0, {}]]]}, {"class_name": "BatchNormalization", "config": {"name": "vargface_head_conv1_bn", "trainable": true, "dtype": "float32", "axis": [3], "momentum": 0.9, "epsilon": 2e-05, "center": true, "scale": false, "beta_initializer": {"class_name": "Zeros", "config": {}}, "gamma_initializer": {"class_name": "Ones", "config": {}}, "moving_mean_initializer": {"class_name": "Zeros", "config": {}}, "moving_variance_initializer": {"class_name": "Ones", "config": {}}, "beta_regularizer": null, "gamma_regularizer": null, "beta_constraint": null, "gamma_constraint": null}, "name": "vargface_head_conv1_bn", "inbound_nodes": [[["vargface_head_conv1", 0, 0, {}]]]}, {"class_name": "LeakyReLU", "config": {"name": "leaky_re_lu", "trainable": true, "dtype": "float32", "alpha": 0.1}, "name": "leaky_re_lu", "inbound_nodes": [[["vargface_head_conv1_bn", 0, 0, {}]]]}, {"class_name": "TFOpLambda", "config": {"name": "tf.compat.v1.pad_2", "trainable": true, "dtype": "float32", "function": "compat.v1.pad"}, "name": "tf.compat.v1.pad_2", "inbound_nodes": [["leaky_re_lu", 0, 0, {"paddings": [[0, 0], [1, 1], [1, 1], [0, 0]], "mode": "CONSTANT", "name": null, "constant_values": 0}]]}, {"class_name": "SeparableConv2D", "config": {"name": "vargface_head_head_pooling_sep1_data", "trainable": true, "dtype": "float32", "filters": 40, "kernel_size": [3, 3], "strides": [2, 2], "padding": "valid", "data_format": "channels_last", "dilation_rate": [1, 1], "groups": 1, "activation": {"class_name": "LeakyReLU", "config": {"name": "leaky_re_lu_2", "trainable": true, "dtype": "float32", "alpha": 0.1}, "shared_object_id": 12}, "use_bias": false, "kernel_initializer": {"class_name": "GlorotUniform", "config": {"seed": null}}, "bias_initializer": {"class_name": "Zeros", "config": {}, "shared_object_id": 15}, "kernel_regularizer": null, "bias_regularizer": null, "activity_regularizer": null, "kernel_constraint": null, "bias_constraint": null, "depth_multiplier": 1, "depthwise_initializer": {"class_name": "GlorotUniform", "config": {"seed": null}}, "pointwise_initializer": {"class_name": "GlorotUniform", "config": {"seed": null}}, "depthwise_regularizer": null, "pointwise_regularizer": null, "depthwise_constraint": null, "pointwise_constraint": null}, "name": "vargface_head_head_pooling_sep1_data", "inbound_nodes": [[["tf.compat.v1.pad_2", 0, 0, {}]]]}, {"class_name": "TFOpLambda", "config": {"name": "tf.compat.v1.pad_3", "trainable": true, "dtype": "float32", "function": "compat.v1.pad"}, "name": "tf.compat.v1.pad_3", "inbound_nodes": [["vargface_head_head_pooling_sep1_data", 0, 0, {"paddings": [[0, 0], [1, 1], [1, 1], [0, 0]], "mode": "CONSTANT", "name": null, "constant_values": 0}]]}, {"class_name": "SeparableConv2D", "config": {"name": "vargface_head_head_pooling_sep2_data", "trainable": true, "dtype": "float32", "filters": 40, "kernel_size": [3, 3], "strides": [1, 1], "padding": "valid", "data_format": "channels_last", "dilation_rate": [1, 1], "groups": 1, "activation": {"class_name": "LeakyReLU", "config": {"name": "leaky_re_lu_3", "trainable": true, "dtype": "float32", "alpha": 0.1}, "shared_object_id": 19}, "use_bias": false, "kernel_initializer": {"class_name": "GlorotUniform", "config": {"seed": null}}, "bias_initializer": {"class_name": "Zeros", "config": {}, "shared_object_id": 22}, "kernel_regularizer": null, "bias_regularizer": null, "activity_regularizer": null, "kernel_constraint": null, "bias_constraint": null, "depth_multiplier": 1, "depthwise_initializer": {"class_name": "GlorotUniform", "config": {"seed": null}}, "pointwise_initializer": {"class_name": "GlorotUniform", "config": {"seed": null}}, "depthwise_regularizer": null, "pointwise_regularizer": null, "depthwise_constraint": null, "pointwise_constraint": null}, "name": "vargface_head_head_pooling_sep2_data", "inbound_nodes": [[["tf.compat.v1.pad_3", 0, 0, {}]]]}, {"class_name": "GlobalAveragePooling2D", "config": {"name": "vargface_head_head_pooling_se_pool1", "trainable": true, "dtype": "float32", "data_format": "channels_last", "keepdims": true}, "name": "vargface_head_head_pooling_se_pool1", "inbound_nodes": [[["vargface_head_head_pooling_sep2_data", 0, 0, {}]]]}, {"class_name": "Conv2D", "config": {"name": "vargface_head_head_pooling_se_conv1", "trainable": true, "dtype": "float32", "filters": 10, "kernel_size": [1, 1], "strides": [1, 1], "padding": "same", "data_format": "channels_last", "dilation_rate": [1, 1], "groups": 1, "activation": "linear", "use_bias": true, "kernel_initializer": {"class_name": "GlorotUniform", "config": {"seed": null}}, "bias_initializer": {"class_name": "Zeros", "config": {}}, "kernel_regularizer": null, "bias_regularizer": null, "activity_regularizer": null, "kernel_constraint": null, "bias_constraint": null}, "name": "vargface_head_head_pooling_se_conv1", "inbound_nodes": [[["vargface_head_head_pooling_se_pool1", 0, 0, {}]]]}, {"class_name": "LeakyReLU", "config": {"name": "leaky_re_lu_4", "trainable": true, "dtype": "float32", "alpha": 0.1}, "name": "leaky_re_lu_4", "inbound_nodes": [[["vargface_head_head_pooling_se_conv1", 0, 0, {}]]]}, {"class_name": "Conv2D", "config": {"name": "vargface_head_head_pooling_se_conv2", "trainable": true, "dtype": "float32", "filters": 40, "kernel_size": [1, 1], "strides": [1, 1], "padding": "valid", "data_format": "channels_last", "dilation_rate": [1, 1], "groups": 1, "activation": "linear", "use_bias": true, "kernel_initializer": {"class_name": "GlorotUniform", "config": {"seed": null}}, "bias_initializer": {"class_name": "Zeros", "config": {}}, "kernel_regularizer": null, "bias_regularizer": null, "activity_regularizer": null, "kernel_constraint": null, "bias_constraint": null}, "name": "vargface_head_head_pooling_se_conv2", "inbound_nodes": [[["leaky_re_lu_4", 0, 0, {}]]]}, {"class_name": "Activation", "config": {"name": "vargface_head_head_pooling_se_sigmoid", "trainable": true, "dtype": "float32", "activation": "sigmoid"}, "name": "vargface_head_head_pooling_se_sigmoid", "inbound_nodes": [[["vargface_head_head_pooling_se_conv2", 0, 0, {}]]]}, {"class_name": "TFOpLambda", "config": {"name": "tf.compat.v1.pad_1", "trainable": true, "dtype": "float32", "function": "compat.v1.pad"}, "name": "tf.compat.v1.pad_1", "inbound_nodes": [["leaky_re_lu", 0, 0, {"paddings": [[0, 0], [1, 1], [1, 1], [0, 0]], "mode": "CONSTANT", "name": null, "constant_values": 0}]]}, {"class_name": "Multiply", "config": {"name": "multiply", "trainable": true, "dtype": "float32"}, "name": "multiply", "inbound_nodes": [[["vargface_head_head_pooling_sep2_data", 0, 0, {}], ["vargface_head_head_pooling_se_sigmoid", 0, 0, {}]]]}, {"class_name": "SeparableConv2D", "config": {"name": "vargface_head_head_pooling_shortcut", "trainable": true, "dtype": "float32", "filters": 40, "kernel_size": [3, 3], "strides": [2, 2], "padding": "valid", "data_format": "channels_last", "dilation_rate": [1, 1], "groups": 1, "activation": {"class_name": "LeakyReLU", "config": {"name": "leaky_re_lu_1", "trainable": true, "dtype": "float32", "alpha": 0.1}, "shared_object_id": 36}, "use_bias": false, "kernel_initializer": {"class_name": "GlorotUniform", "config": {"seed": null}}, "bias_initializer": {"class_name": "Zeros", "config": {}, "shared_object_id": 39}, "kernel_regularizer": null, "bias_regularizer": null, "activity_regularizer": null, "kernel_constraint": null, "bias_constraint": null, "depth_multiplier": 1, "depthwise_initializer": {"class_name": "GlorotUniform", "config": {"seed": null}}, "pointwise_initializer": {"class_name": "GlorotUniform", "config": {"seed": null}}, "depthwise_regularizer": null, "pointwise_regularizer": null, "depthwise_constraint": null, "pointwise_constraint": null}, "name": "vargface_head_head_pooling_shortcut", "inbound_nodes": [[["tf.compat.v1.pad_1", 0, 0, {}]]]}, {"class_name": "Add", "config": {"name": "add", "trainable": true, "dtype": "float32"}, "name": "add", "inbound_nodes": [[["multiply", 0, 0, {}], ["vargface_head_head_pooling_shortcut", 0, 0, {}]]]}, {"class_name": "LeakyReLU", "config": {"name": "leaky_re_lu_5", "trainable": true, "dtype": "float32", "alpha": 0.1}, "name": "leaky_re_lu_5", "inbound_nodes": [[["add", 0, 0, {}]]]}, {"class_name": "TFOpLambda", "config": {"name": "tf.compat.v1.pad_5", "trainable": true, "dtype": "float32", "function": "compat.v1.pad"}, "name": "tf.compat.v1.pad_5", "inbound_nodes": [["leaky_re_lu_5", 0, 0, {"paddings": [[0, 0], [1, 1], [1, 1], [0, 0]], "mode": "CONSTANT", "name": null, "constant_values": 0}]]}, {"class_name": "TFOpLambda", "config": {"name": "tf.compat.v1.pad_6", "trainable": true, "dtype": "float32", "function": "compat.v1.pad"}, "name": "tf.compat.v1.pad_6", "inbound_nodes": [["leaky_re_lu_5", 0, 0, {"paddings": [[0, 0], [1, 1], [1, 1], [0, 0]], "mode": "CONSTANT", "name": null, "constant_values": 0}]]}, {"class_name": "SeparableConv2D", "config": {"name": "vargface_stage_2_unit_1_step1_data_branch", "trainable": true, "dtype": "float32", "filters": 80, "kernel_size": [3, 3], "strides": [2, 2], "padding": "valid", "data_format": "channels_last", "dilation_rate": [1, 1], "groups": 1, "activation": {"class_name": "LeakyReLU", "config": {"name": "leaky_re_lu_7", "trainable": true, "dtype": "float32", "alpha": 0.1}, "shared_object_id": 46}, "use_bias": false, "kernel_initializer": {"class_name": "GlorotUniform", "config": {"seed": null}}, "bias_initializer": {"class_name": "Zeros", "config": {}, "shared_object_id": 49}, "kernel_regularizer": null, "bias_regularizer": null, "activity_regularizer": null, "kernel_constraint": null, "bias_constraint": null, "depth_multiplier": 2, "depthwise_initializer": {"class_name": "GlorotUniform", "config": {"seed": null}}, "pointwise_initializer": {"class_name": "GlorotUniform", "config": {"seed": null}}, "depthwise_regularizer": null, "pointwise_regularizer": null, "depthwise_constraint": null, "pointwise_constraint": null}, "name": "vargface_stage_2_unit_1_step1_data_branch", "inbound_nodes": [[["tf.compat.v1.pad_5", 0, 0, {}]]]}, {"class_name": "SeparableConv2D", "config": {"name": "vargface_stage_2_unit_1_step2_data_branch", "trainable": true, "dtype": "float32", "filters": 80, "kernel_size": [3, 3], "strides": [2, 2], "padding": "valid", "data_format": "channels_last", "dilation_rate": [1, 1], "groups": 1, "activation": {"class_name": "LeakyReLU", "config": {"name": "leaky_re_lu_8", "trainable": true, "dtype": "float32", "alpha": 0.1}, "shared_object_id": 52}, "use_bias": false, "kernel_initializer": {"class_name": "GlorotUniform", "config": {"seed": null}}, "bias_initializer": {"class_name": "Zeros", "config": {}, "shared_object_id": 55}, "kernel_regularizer": null, "bias_regularizer": null, "activity_regularizer": null, "kernel_constraint": null, "bias_constraint": null, "depth_multiplier": 2, "depthwise_initializer": {"class_name": "GlorotUniform", "config": {"seed": null}}, "pointwise_initializer": {"class_name": "GlorotUniform", "config": {"seed": null}}, "depthwise_regularizer": null, "pointwise_regularizer": null, "depthwise_constraint": null, "pointwise_constraint": null}, "name": "vargface_stage_2_unit_1_step2_data_branch", "inbound_nodes": [[["tf.compat.v1.pad_6", 0, 0, {}]]]}, {"class_name": "Add", "config": {"name": "add_1", "trainable": true, "dtype": "float32"}, "name": "add_1", "inbound_nodes": [[["vargface_stage_2_unit_1_step1_data_branch", 0, 0, {}], ["vargface_stage_2_unit_1_step2_data_branch", 0, 0, {}]]]}, {"class_name": "LeakyReLU", "config": {"name": "leaky_re_lu_9", "trainable": true, "dtype": "float32", "alpha": 0.1}, "name": "leaky_re_lu_9", "inbound_nodes": [[["add_1", 0, 0, {}]]]}, {"class_name": "TFOpLambda", "config": {"name": "tf.compat.v1.pad_7", "trainable": true, "dtype": "float32", "function": "compat.v1.pad"}, "name": "tf.compat.v1.pad_7", "inbound_nodes": [["leaky_re_lu_9", 0, 0, {"paddings": [[0, 0], [1, 1], [1, 1], [0, 0]], "mode": "CONSTANT", "name": null, "constant_values": 0}]]}, {"class_name": "TFOpLambda", "config": {"name": "tf.compat.v1.pad_4", "trainable": true, "dtype": "float32", "function": "compat.v1.pad"}, "name": "tf.compat.v1.pad_4", "inbound_nodes": [["leaky_re_lu_5", 0, 0, {"paddings": [[0, 0], [1, 1], [1, 1], [0, 0]], "mode": "CONSTANT", "name": null, "constant_values": 0}]]}, {"class_name": "SeparableConv2D", "config": {"name": "vargface_stage_2_unit_1_step2_data", "trainable": true, "dtype": "float32", "filters": 80, "kernel_size": [3, 3], "strides": [1, 1], "padding": "valid", "data_format": "channels_last", "dilation_rate": [1, 1], "groups": 1, "activation": {"class_name": "LeakyReLU", "config": {"name": "leaky_re_lu_10", "trainable": true, "dtype": "float32", "alpha": 0.1}, "shared_object_id": 62}, "use_bias": false, "kernel_initializer": {"class_name": "GlorotUniform", "config": {"seed": null}}, "bias_initializer": {"class_name": "Zeros", "config": {}, "shared_object_id": 65}, "kernel_regularizer": null, "bias_regularizer": null, "activity_regularizer": null, "kernel_constraint": null, "bias_constraint": null, "depth_multiplier": 2, "depthwise_initializer": {"class_name": "GlorotUniform", "config": {"seed": null}}, "pointwise_initializer": {"class_name": "GlorotUniform", "config": {"seed": null}}, "depthwise_regularizer": null, "pointwise_regularizer": null, "depthwise_constraint": null, "pointwise_constraint": null}, "name": "vargface_stage_2_unit_1_step2_data", "inbound_nodes": [[["tf.compat.v1.pad_7", 0, 0, {}]]]}, {"class_name": "SeparableConv2D", "config": {"name": "vargface_stage_2_unit_1_shortcut", "trainable": true, "dtype": "float32", "filters": 80, "kernel_size": [3, 3], "strides": [2, 2], "padding": "valid", "data_format": "channels_last", "dilation_rate": [1, 1], "groups": 1, "activation": {"class_name": "LeakyReLU", "config": {"name": "leaky_re_lu_6", "trainable": true, "dtype": "float32", "alpha": 0.1}, "shared_object_id": 68}, "use_bias": false, "kernel_initializer": {"class_name": "GlorotUniform", "config": {"seed": null}}, "bias_initializer": {"class_name": "Zeros", "config": {}, "shared_object_id": 71}, "kernel_regularizer": null, "bias_regularizer": null, "activity_regularizer": null, "kernel_constraint": null, "bias_constraint": null, "depth_multiplier": 2, "depthwise_initializer": {"class_name": "GlorotUniform", "config": {"seed": null}}, "pointwise_initializer": {"class_name": "GlorotUniform", "config": {"seed": null}}, "depthwise_regularizer": null, "pointwise_regularizer": null, "depthwise_constraint": null, "pointwise_constraint": null}, "name": "vargface_stage_2_unit_1_shortcut", "inbound_nodes": [[["tf.compat.v1.pad_4", 0, 0, {}]]]}, {"class_name": "Add", "config": {"name": "add_2", "trainable": true, "dtype": "float32"}, "name": "add_2", "inbound_nodes": [[["vargface_stage_2_unit_1_step2_data", 0, 0, {}], ["vargface_stage_2_unit_1_shortcut", 0, 0, {}]]]}, {"class_name": "LeakyReLU", "config": {"name": "leaky_re_lu_11", "trainable": true, "dtype": "float32", "alpha": 0.1}, "name": "leaky_re_lu_11", "inbound_nodes": [[["add_2", 0, 0, {}]]]}, {"class_name": "TFOpLambda", "config": {"name": "tf.compat.v1.pad_8", "trainable": true, "dtype": "float32", "function": "compat.v1.pad"}, "name": "tf.compat.v1.pad_8", "inbound_nodes": [["leaky_re_lu_11", 0, 0, {"paddings": [[0, 0], [1, 1], [1, 1], [0, 0]], "mode": "CONSTANT", "name": null, "constant_values": 0}]]}, {"class_name": "SeparableConv2D", "config": {"name": "vargface_stage_2_unit_2_sep1_data", "trainable": true, "dtype": "float32", "filters": 80, "kernel_size": [3, 3], "strides": [1, 1], "padding": "valid", "data_format": "channels_last", "dilation_rate": [1, 1], "groups": 1, "activation": {"class_name": "LeakyReLU", "config": {"name": "leaky_re_lu_12", "trainable": true, "dtype": "float32", "alpha": 0.1}, "shared_object_id": 77}, "use_bias": false, "kernel_initializer": {"class_name": "GlorotUniform", "config": {"seed": null}}, "bias_initializer": {"class_name": "Zeros", "config": {}, "shared_object_id": 80}, "kernel_regularizer": null, "bias_regularizer": null, "activity_regularizer": null, "kernel_constraint": null, "bias_constraint": null, "depth_multiplier": 2, "depthwise_initializer": {"class_name": "GlorotUniform", "config": {"seed": null}}, "pointwise_initializer": {"class_name": "GlorotUniform", "config": {"seed": null}}, "depthwise_regularizer": null, "pointwise_regularizer": null, "depthwise_constraint": null, "pointwise_constraint": null}, "name": "vargface_stage_2_unit_2_sep1_data", "inbound_nodes": [[["tf.compat.v1.pad_8", 0, 0, {}]]]}, {"class_name": "TFOpLambda", "config": {"name": "tf.compat.v1.pad_9", "trainable": true, "dtype": "float32", "function": "compat.v1.pad"}, "name": "tf.compat.v1.pad_9", "inbound_nodes": [["vargface_stage_2_unit_2_sep1_data", 0, 0, {"paddings": [[0, 0], [1, 1], [1, 1], [0, 0]], "mode": "CONSTANT", "name": null, "constant_values": 0}]]}, {"class_name": "SeparableConv2D", "config": {"name": "vargface_stage_2_unit_2_sep2_data", "trainable": true, "dtype": "float32", "filters": 80, "kernel_size": [3, 3], "strides": [1, 1], "padding": "valid", "data_format": "channels_last", "dilation_rate": [1, 1], "groups": 1, "activation": {"class_name": "LeakyReLU", "config": {"name": "leaky_re_lu_13", "trainable": true, "dtype": "float32", "alpha": 0.1}, "shared_object_id": 84}, "use_bias": false, "kernel_initializer": {"class_name": "GlorotUniform", "config": {"seed": null}}, "bias_initializer": {"class_name": "Zeros", "config": {}, "shared_object_id": 87}, "kernel_regularizer": null, "bias_regularizer": null, "activity_regularizer": null, "kernel_constraint": null, "bias_constraint": null, "depth_multiplier": 2, "depthwise_initializer": {"class_name": "GlorotUniform", "config": {"seed": null}}, "pointwise_initializer": {"class_name": "GlorotUniform", "config": {"seed": null}}, "depthwise_regularizer": null, "pointwise_regularizer": null, "depthwise_constraint": null, "pointwise_constraint": null}, "name": "vargface_stage_2_unit_2_sep2_data", "inbound_nodes": [[["tf.compat.v1.pad_9", 0, 0, {}]]]}, {"class_name": "GlobalAveragePooling2D", "config": {"name": "vargface_stage_2_unit_2_se_pool1", "trainable": true, "dtype": "float32", "data_format": "channels_last", "keepdims": true}, "name": "vargface_stage_2_unit_2_se_pool1", "inbound_nodes": [[["vargface_stage_2_unit_2_sep2_data", 0, 0, {}]]]}, {"class_name": "Conv2D", "config": {"name": "vargface_stage_2_unit_2_se_conv1", "trainable": true, "dtype": "float32", "filters": 20, "kernel_size": [1, 1], "strides": [1, 1], "padding": "same", "data_format": "channels_last", "dilation_rate": [1, 1], "groups": 1, "activation": "linear", "use_bias": true, "kernel_initializer": {"class_name": "GlorotUniform", "config": {"seed": null}}, "bias_initializer": {"class_name": "Zeros", "config": {}}, "kernel_regularizer": null, "bias_regularizer": null, "activity_regularizer": null, "kernel_constraint": null, "bias_constraint": null}, "name": "vargface_stage_2_unit_2_se_conv1", "inbound_nodes": [[["vargface_stage_2_unit_2_se_pool1", 0, 0, {}]]]}, {"class_name": "LeakyReLU", "config": {"name": "leaky_re_lu_14", "trainable": true, "dtype": "float32", "alpha": 0.1}, "name": "leaky_re_lu_14", "inbound_nodes": [[["vargface_stage_2_unit_2_se_conv1", 0, 0, {}]]]}, {"class_name": "Conv2D", "config": {"name": "vargface_stage_2_unit_2_se_conv2", "trainable": true, "dtype": "float32", "filters": 80, "kernel_size": [1, 1], "strides": [1, 1], "padding": "valid", "data_format": "channels_last", "dilation_rate": [1, 1], "groups": 1, "activation": "linear", "use_bias": true, "kernel_initializer": {"class_name": "GlorotUniform", "config": {"seed": null}}, "bias_initializer": {"class_name": "Zeros", "config": {}}, "kernel_regularizer": null, "bias_regularizer": null, "activity_regularizer": null, "kernel_constraint": null, "bias_constraint": null}, "name": "vargface_stage_2_unit_2_se_conv2", "inbound_nodes": [[["leaky_re_lu_14", 0, 0, {}]]]}, {"class_name": "Activation", "config": {"name": "vargface_stage_2_unit_2_se_sigmoid", "trainable": true, "dtype": "float32", "activation": "sigmoid"}, "name": "vargface_stage_2_unit_2_se_sigmoid", "inbound_nodes": [[["vargface_stage_2_unit_2_se_conv2", 0, 0, {}]]]}, {"class_name": "Multiply", "config": {"name": "multiply_1", "trainable": true, "dtype": "float32"}, "name": "multiply_1", "inbound_nodes": [[["vargface_stage_2_unit_2_sep2_data", 0, 0, {}], ["vargface_stage_2_unit_2_se_sigmoid", 0, 0, {}]]]}, {"class_name": "Add", "config": {"name": "add_3", "trainable": true, "dtype": "float32"}, "name": "add_3", "inbound_nodes": [[["multiply_1", 0, 0, {}], ["leaky_re_lu_11", 0, 0, {}]]]}, {"class_name": "LeakyReLU", "config": {"name": "leaky_re_lu_15", "trainable": true, "dtype": "float32", "alpha": 0.1}, "name": "leaky_re_lu_15", "inbound_nodes": [[["add_3", 0, 0, {}]]]}, {"class_name": "TFOpLambda", "config": {"name": "tf.compat.v1.pad_10", "trainable": true, "dtype": "float32", "function": "compat.v1.pad"}, "name": "tf.compat.v1.pad_10", "inbound_nodes": [["leaky_re_lu_15", 0, 0, {"paddings": [[0, 0], [1, 1], [1, 1], [0, 0]], "mode": "CONSTANT", "name": null, "constant_values": 0}]]}, {"class_name": "SeparableConv2D", "config": {"name": "vargface_stage_2_unit_3_sep1_data", "trainable": true, "dtype": "float32", "filters": 80, "kernel_size": [3, 3], "strides": [1, 1], "padding": "valid", "data_format": "channels_last", "dilation_rate": [1, 1], "groups": 1, "activation": {"class_name": "LeakyReLU", "config": {"name": "leaky_re_lu_16", "trainable": true, "dtype": "float32", "alpha": 0.1}, "shared_object_id": 103}, "use_bias": false, "kernel_initializer": {"class_name": "GlorotUniform", "config": {"seed": null}}, "bias_initializer": {"class_name": "Zeros", "config": {}, "shared_object_id": 106}, "kernel_regularizer": null, "bias_regularizer": null, "activity_regularizer": null, "kernel_constraint": null, "bias_constraint": null, "depth_multiplier": 2, "depthwise_initializer": {"class_name": "GlorotUniform", "config": {"seed": null}}, "pointwise_initializer": {"class_name": "GlorotUniform", "config": {"seed": null}}, "depthwise_regularizer": null, "pointwise_regularizer": null, "depthwise_constraint": null, "pointwise_constraint": null}, "name": "vargface_stage_2_unit_3_sep1_data", "inbound_nodes": [[["tf.compat.v1.pad_10", 0, 0, {}]]]}, {"class_name": "TFOpLambda", "config": {"name": "tf.compat.v1.pad_11", "trainable": true, "dtype": "float32", "function": "compat.v1.pad"}, "name": "tf.compat.v1.pad_11", "inbound_nodes": [["vargface_stage_2_unit_3_sep1_data", 0, 0, {"paddings": [[0, 0], [1, 1], [1, 1], [0, 0]], "mode": "CONSTANT", "name": null, "constant_values": 0}]]}, {"class_name": "SeparableConv2D", "config": {"name": "vargface_stage_2_unit_3_sep2_data", "trainable": true, "dtype": "float32", "filters": 80, "kernel_size": [3, 3], "strides": [1, 1], "padding": "valid", "data_format": "channels_last", "dilation_rate": [1, 1], "groups": 1, "activation": {"class_name": "LeakyReLU", "config": {"name": "leaky_re_lu_17", "trainable": true, "dtype": "float32", "alpha": 0.1}, "shared_object_id": 110}, "use_bias": false, "kernel_initializer": {"class_name": "GlorotUniform", "config": {"seed": null}}, "bias_initializer": {"class_name": "Zeros", "config": {}, "shared_object_id": 113}, "kernel_regularizer": null, "bias_regularizer": null, "activity_regularizer": null, "kernel_constraint": null, "bias_constraint": null, "depth_multiplier": 2, "depthwise_initializer": {"class_name": "GlorotUniform", "config": {"seed": null}}, "pointwise_initializer": {"class_name": "GlorotUniform", "config": {"seed": null}}, "depthwise_regularizer": null, "pointwise_regularizer": null, "depthwise_constraint": null, "pointwise_constraint": null}, "name": "vargface_stage_2_unit_3_sep2_data", "inbound_nodes": [[["tf.compat.v1.pad_11", 0, 0, {}]]]}, {"class_name": "GlobalAveragePooling2D", "config": {"name": "vargface_stage_2_unit_3_se_pool1", "trainable": true, "dtype": "float32", "data_format": "channels_last", "keepdims": true}, "name": "vargface_stage_2_unit_3_se_pool1", "inbound_nodes": [[["vargface_stage_2_unit_3_sep2_data", 0, 0, {}]]]}, {"class_name": "Conv2D", "config": {"name": "vargface_stage_2_unit_3_se_conv1", "trainable": true, "dtype": "float32", "filters": 20, "kernel_size": [1, 1], "strides": [1, 1], "padding": "same", "data_format": "channels_last", "dilation_rate": [1, 1], "groups": 1, "activation": "linear", "use_bias": true, "kernel_initializer": {"class_name": "GlorotUniform", "config": {"seed": null}}, "bias_initializer": {"class_name": "Zeros", "config": {}}, "kernel_regularizer": null, "bias_regularizer": null, "activity_regularizer": null, "kernel_constraint": null, "bias_constraint": null}, "name": "vargface_stage_2_unit_3_se_conv1", "inbound_nodes": [[["vargface_stage_2_unit_3_se_pool1", 0, 0, {}]]]}, {"class_name": "LeakyReLU", "config": {"name": "leaky_re_lu_18", "trainable": true, "dtype": "float32", "alpha": 0.1}, "name": "leaky_re_lu_18", "inbound_nodes": [[["vargface_stage_2_unit_3_se_conv1", 0, 0, {}]]]}, {"class_name": "Conv2D", "config": {"name": "vargface_stage_2_unit_3_se_conv2", "trainable": true, "dtype": "float32", "filters": 80, "kernel_size": [1, 1], "strides": [1, 1], "padding": "valid", "data_format": "channels_last", "dilation_rate": [1, 1], "groups": 1, "activation": "linear", "use_bias": true, "kernel_initializer": {"class_name": "GlorotUniform", "config": {"seed": null}}, "bias_initializer": {"class_name": "Zeros", "config": {}}, "kernel_regularizer": null, "bias_regularizer": null, "activity_regularizer": null, "kernel_constraint": null, "bias_constraint": null}, "name": "vargface_stage_2_unit_3_se_conv2", "inbound_nodes": [[["leaky_re_lu_18", 0, 0, {}]]]}, {"class_name": "Activation", "config": {"name": "vargface_stage_2_unit_3_se_sigmoid", "trainable": true, "dtype": "float32", "activation": "sigmoid"}, "name": "vargface_stage_2_unit_3_se_sigmoid", "inbound_nodes": [[["vargface_stage_2_unit_3_se_conv2", 0, 0, {}]]]}, {"class_name": "Multiply", "config": {"name": "multiply_2", "trainable": true, "dtype": "float32"}, "name": "multiply_2", "inbound_nodes": [[["vargface_stage_2_unit_3_sep2_data", 0, 0, {}], ["vargface_stage_2_unit_3_se_sigmoid", 0, 0, {}]]]}, {"class_name": "Add", "config": {"name": "add_4", "trainable": true, "dtype": "float32"}, "name": "add_4", "inbound_nodes": [[["multiply_2", 0, 0, {}], ["leaky_re_lu_15", 0, 0, {}]]]}, {"class_name": "LeakyReLU", "config": {"name": "leaky_re_lu_19", "trainable": true, "dtype": "float32", "alpha": 0.1}, "name": "leaky_re_lu_19", "inbound_nodes": [[["add_4", 0, 0, {}]]]}, {"class_name": "TFOpLambda", "config": {"name": "tf.compat.v1.pad_13", "trainable": true, "dtype": "float32", "function": "compat.v1.pad"}, "name": "tf.compat.v1.pad_13", "inbound_nodes": [["leaky_re_lu_19", 0, 0, {"paddings": [[0, 0], [1, 1], [1, 1], [0, 0]], "mode": "CONSTANT", "name": null, "constant_values": 0}]]}, {"class_name": "TFOpLambda", "config": {"name": "tf.compat.v1.pad_14", "trainable": true, "dtype": "float32", "function": "compat.v1.pad"}, "name": "tf.compat.v1.pad_14", "inbound_nodes": [["leaky_re_lu_19", 0, 0, {"paddings": [[0, 0], [1, 1], [1, 1], [0, 0]], "mode": "CONSTANT", "name": null, "constant_values": 0}]]}, {"class_name": "SeparableConv2D", "config": {"name": "vargface_stage_3_unit_1_step1_data_branch", "trainable": true, "dtype": "float32", "filters": 160, "kernel_size": [3, 3], "strides": [2, 2], "padding": "valid", "data_format": "channels_last", "dilation_rate": [1, 1], "groups": 1, "activation": {"class_name": "LeakyReLU", "config": {"name": "leaky_re_lu_21", "trainable": true, "dtype": "float32", "alpha": 0.1}, "shared_object_id": 130}, "use_bias": false, "kernel_initializer": {"class_name": "GlorotUniform", "config": {"seed": null}}, "bias_initializer": {"class_name": "Zeros", "config": {}, "shared_object_id": 133}, "kernel_regularizer": null, "bias_regularizer": null, "activity_regularizer": null, "kernel_constraint": null, "bias_constraint": null, "depth_multiplier": 2, "depthwise_initializer": {"class_name": "GlorotUniform", "config": {"seed": null}}, "pointwise_initializer": {"class_name": "GlorotUniform", "config": {"seed": null}}, "depthwise_regularizer": null, "pointwise_regularizer": null, "depthwise_constraint": null, "pointwise_constraint": null}, "name": "vargface_stage_3_unit_1_step1_data_branch", "inbound_nodes": [[["tf.compat.v1.pad_13", 0, 0, {}]]]}, {"class_name": "SeparableConv2D", "config": {"name": "vargface_stage_3_unit_1_step2_data_branch", "trainable": true, "dtype": "float32", "filters": 160, "kernel_size": [3, 3], "strides": [2, 2], "padding": "valid", "data_format": "channels_last", "dilation_rate": [1, 1], "groups": 1, "activation": {"class_name": "LeakyReLU", "config": {"name": "leaky_re_lu_22", "trainable": true, "dtype": "float32", "alpha": 0.1}, "shared_object_id": 136}, "use_bias": false, "kernel_initializer": {"class_name": "GlorotUniform", "config": {"seed": null}}, "bias_initializer": {"class_name": "Zeros", "config": {}, "shared_object_id": 139}, "kernel_regularizer": null, "bias_regularizer": null, "activity_regularizer": null, "kernel_constraint": null, "bias_constraint": null, "depth_multiplier": 2, "depthwise_initializer": {"class_name": "GlorotUniform", "config": {"seed": null}}, "pointwise_initializer": {"class_name": "GlorotUniform", "config": {"seed": null}}, "depthwise_regularizer": null, "pointwise_regularizer": null, "depthwise_constraint": null, "pointwise_constraint": null}, "name": "vargface_stage_3_unit_1_step2_data_branch", "inbound_nodes": [[["tf.compat.v1.pad_14", 0, 0, {}]]]}, {"class_name": "Add", "config": {"name": "add_5", "trainable": true, "dtype": "float32"}, "name": "add_5", "inbound_nodes": [[["vargface_stage_3_unit_1_step1_data_branch", 0, 0, {}], ["vargface_stage_3_unit_1_step2_data_branch", 0, 0, {}]]]}, {"class_name": "LeakyReLU", "config": {"name": "leaky_re_lu_23", "trainable": true, "dtype": "float32", "alpha": 0.1}, "name": "leaky_re_lu_23", "inbound_nodes": [[["add_5", 0, 0, {}]]]}, {"class_name": "TFOpLambda", "config": {"name": "tf.compat.v1.pad_15", "trainable": true, "dtype": "float32", "function": "compat.v1.pad"}, "name": "tf.compat.v1.pad_15", "inbound_nodes": [["leaky_re_lu_23", 0, 0, {"paddings": [[0, 0], [1, 1], [1, 1], [0, 0]], "mode": "CONSTANT", "name": null, "constant_values": 0}]]}, {"class_name": "TFOpLambda", "config": {"name": "tf.compat.v1.pad_12", "trainable": true, "dtype": "float32", "function": "compat.v1.pad"}, "name": "tf.compat.v1.pad_12", "inbound_nodes": [["leaky_re_lu_19", 0, 0, {"paddings": [[0, 0], [1, 1], [1, 1], [0, 0]], "mode": "CONSTANT", "name": null, "constant_values": 0}]]}, {"class_name": "SeparableConv2D", "config": {"name": "vargface_stage_3_unit_1_step2_data", "trainable": true, "dtype": "float32", "filters": 160, "kernel_size": [3, 3], "strides": [1, 1], "padding": "valid", "data_format": "channels_last", "dilation_rate": [1, 1], "groups": 1, "activation": {"class_name": "LeakyReLU", "config": {"name": "leaky_re_lu_24", "trainable": true, "dtype": "float32", "alpha": 0.1}, "shared_object_id": 146}, "use_bias": false, "kernel_initializer": {"class_name": "GlorotUniform", "config": {"seed": null}}, "bias_initializer": {"class_name": "Zeros", "config": {}, "shared_object_id": 149}, "kernel_regularizer": null, "bias_regularizer": null, "activity_regularizer": null, "kernel_constraint": null, "bias_constraint": null, "depth_multiplier": 2, "depthwise_initializer": {"class_name": "GlorotUniform", "config": {"seed": null}}, "pointwise_initializer": {"class_name": "GlorotUniform", "config": {"seed": null}}, "depthwise_regularizer": null, "pointwise_regularizer": null, "depthwise_constraint": null, "pointwise_constraint": null}, "name": "vargface_stage_3_unit_1_step2_data", "inbound_nodes": [[["tf.compat.v1.pad_15", 0, 0, {}]]]}, {"class_name": "SeparableConv2D", "config": {"name": "vargface_stage_3_unit_1_shortcut", "trainable": true, "dtype": "float32", "filters": 160, "kernel_size": [3, 3], "strides": [2, 2], "padding": "valid", "data_format": "channels_last", "dilation_rate": [1, 1], "groups": 1, "activation": {"class_name": "LeakyReLU", "config": {"name": "leaky_re_lu_20", "trainable": true, "dtype": "float32", "alpha": 0.1}, "shared_object_id": 152}, "use_bias": false, "kernel_initializer": {"class_name": "GlorotUniform", "config": {"seed": null}}, "bias_initializer": {"class_name": "Zeros", "config": {}, "shared_object_id": 155}, "kernel_regularizer": null, "bias_regularizer": null, "activity_regularizer": null, "kernel_constraint": null, "bias_constraint": null, "depth_multiplier": 2, "depthwise_initializer": {"class_name": "GlorotUniform", "config": {"seed": null}}, "pointwise_initializer": {"class_name": "GlorotUniform", "config": {"seed": null}}, "depthwise_regularizer": null, "pointwise_regularizer": null, "depthwise_constraint": null, "pointwise_constraint": null}, "name": "vargface_stage_3_unit_1_shortcut", "inbound_nodes": [[["tf.compat.v1.pad_12", 0, 0, {}]]]}, {"class_name": "Add", "config": {"name": "add_6", "trainable": true, "dtype": "float32"}, "name": "add_6", "inbound_nodes": [[["vargface_stage_3_unit_1_step2_data", 0, 0, {}], ["vargface_stage_3_unit_1_shortcut", 0, 0, {}]]]}, {"class_name": "LeakyReLU", "config": {"name": "leaky_re_lu_25", "trainable": true, "dtype": "float32", "alpha": 0.1}, "name": "leaky_re_lu_25", "inbound_nodes": [[["add_6", 0, 0, {}]]]}, {"class_name": "TFOpLambda", "config": {"name": "tf.compat.v1.pad_16", "trainable": true, "dtype": "float32", "function": "compat.v1.pad"}, "name": "tf.compat.v1.pad_16", "inbound_nodes": [["leaky_re_lu_25", 0, 0, {"paddings": [[0, 0], [1, 1], [1, 1], [0, 0]], "mode": "CONSTANT", "name": null, "constant_values": 0}]]}, {"class_name": "SeparableConv2D", "config": {"name": "vargface_stage_3_unit_2_sep1_data", "trainable": true, "dtype": "float32", "filters": 160, "kernel_size": [3, 3], "strides": [1, 1], "padding": "valid", "data_format": "channels_last", "dilation_rate": [1, 1], "groups": 1, "activation": {"class_name": "LeakyReLU", "config": {"name": "leaky_re_lu_26", "trainable": true, "dtype": "float32", "alpha": 0.1}, "shared_object_id": 161}, "use_bias": false, "kernel_initializer": {"class_name": "GlorotUniform", "config": {"seed": null}}, "bias_initializer": {"class_name": "Zeros", "config": {}, "shared_object_id": 164}, "kernel_regularizer": null, "bias_regularizer": null, "activity_regularizer": null, "kernel_constraint": null, "bias_constraint": null, "depth_multiplier": 2, "depthwise_initializer": {"class_name": "GlorotUniform", "config": {"seed": null}}, "pointwise_initializer": {"class_name": "GlorotUniform", "config": {"seed": null}}, "depthwise_regularizer": null, "pointwise_regularizer": null, "depthwise_constraint": null, "pointwise_constraint": null}, "name": "vargface_stage_3_unit_2_sep1_data", "inbound_nodes": [[["tf.compat.v1.pad_16", 0, 0, {}]]]}, {"class_name": "TFOpLambda", "config": {"name": "tf.compat.v1.pad_17", "trainable": true, "dtype": "float32", "function": "compat.v1.pad"}, "name": "tf.compat.v1.pad_17", "inbound_nodes": [["vargface_stage_3_unit_2_sep1_data", 0, 0, {"paddings": [[0, 0], [1, 1], [1, 1], [0, 0]], "mode": "CONSTANT", "name": null, "constant_values": 0}]]}, {"class_name": "SeparableConv2D", "config": {"name": "vargface_stage_3_unit_2_sep2_data", "trainable": true, "dtype": "float32", "filters": 160, "kernel_size": [3, 3], "strides": [1, 1], "padding": "valid", "data_format": "channels_last", "dilation_rate": [1, 1], "groups": 1, "activation": {"class_name": "LeakyReLU", "config": {"name": "leaky_re_lu_27", "trainable": true, "dtype": "float32", "alpha": 0.1}, "shared_object_id": 168}, "use_bias": false, "kernel_initializer": {"class_name": "GlorotUniform", "config": {"seed": null}}, "bias_initializer": {"class_name": "Zeros", "config": {}, "shared_object_id": 171}, "kernel_regularizer": null, "bias_regularizer": null, "activity_regularizer": null, "kernel_constraint": null, "bias_constraint": null, "depth_multiplier": 2, "depthwise_initializer": {"class_name": "GlorotUniform", "config": {"seed": null}}, "pointwise_initializer": {"class_name": "GlorotUniform", "config": {"seed": null}}, "depthwise_regularizer": null, "pointwise_regularizer": null, "depthwise_constraint": null, "pointwise_constraint": null}, "name": "vargface_stage_3_unit_2_sep2_data", "inbound_nodes": [[["tf.compat.v1.pad_17", 0, 0, {}]]]}, {"class_name": "GlobalAveragePooling2D", "config": {"name": "vargface_stage_3_unit_2_se_pool1", "trainable": true, "dtype": "float32", "data_format": "channels_last", "keepdims": true}, "name": "vargface_stage_3_unit_2_se_pool1", "inbound_nodes": [[["vargface_stage_3_unit_2_sep2_data", 0, 0, {}]]]}, {"class_name": "Conv2D", "config": {"name": "vargface_stage_3_unit_2_se_conv1", "trainable": true, "dtype": "float32", "filters": 40, "kernel_size": [1, 1], "strides": [1, 1], "padding": "same", "data_format": "channels_last", "dilation_rate": [1, 1], "groups": 1, "activation": "linear", "use_bias": true, "kernel_initializer": {"class_name": "GlorotUniform", "config": {"seed": null}}, "bias_initializer": {"class_name": "Zeros", "config": {}}, "kernel_regularizer": null, "bias_regularizer": null, "activity_regularizer": null, "kernel_constraint": null, "bias_constraint": null}, "name": "vargface_stage_3_unit_2_se_conv1", "inbound_nodes": [[["vargface_stage_3_unit_2_se_pool1", 0, 0, {}]]]}, {"class_name": "LeakyReLU", "config": {"name": "leaky_re_lu_28", "trainable": true, "dtype": "float32", "alpha": 0.1}, "name": "leaky_re_lu_28", "inbound_nodes": [[["vargface_stage_3_unit_2_se_conv1", 0, 0, {}]]]}, {"class_name": "Conv2D", "config": {"name": "vargface_stage_3_unit_2_se_conv2", "trainable": true, "dtype": "float32", "filters": 160, "kernel_size": [1, 1], "strides": [1, 1], "padding": "valid", "data_format": "channels_last", "dilation_rate": [1, 1], "groups": 1, "activation": "linear", "use_bias": true, "kernel_initializer": {"class_name": "GlorotUniform", "config": {"seed": null}}, "bias_initializer": {"class_name": "Zeros", "config": {}}, "kernel_regularizer": null, "bias_regularizer": null, "activity_regularizer": null, "kernel_constraint": null, "bias_constraint": null}, "name": "vargface_stage_3_unit_2_se_conv2", "inbound_nodes": [[["leaky_re_lu_28", 0, 0, {}]]]}, {"class_name": "Activation", "config": {"name": "vargface_stage_3_unit_2_se_sigmoid", "trainable": true, "dtype": "float32", "activation": "sigmoid"}, "name": "vargface_stage_3_unit_2_se_sigmoid", "inbound_nodes": [[["vargface_stage_3_unit_2_se_conv2", 0, 0, {}]]]}, {"class_name": "Multiply", "config": {"name": "multiply_3", "trainable": true, "dtype": "float32"}, "name": "multiply_3", "inbound_nodes": [[["vargface_stage_3_unit_2_sep2_data", 0, 0, {}], ["vargface_stage_3_unit_2_se_sigmoid", 0, 0, {}]]]}, {"class_name": "Add", "config": {"name": "add_7", "trainable": true, "dtype": "float32"}, "name": "add_7", "inbound_nodes": [[["multiply_3", 0, 0, {}], ["leaky_re_lu_25", 0, 0, {}]]]}, {"class_name": "LeakyReLU", "config": {"name": "leaky_re_lu_29", "trainable": true, "dtype": "float32", "alpha": 0.1}, "name": "leaky_re_lu_29", "inbound_nodes": [[["add_7", 0, 0, {}]]]}, {"class_name": "TFOpLambda", "config": {"name": "tf.compat.v1.pad_18", "trainable": true, "dtype": "float32", "function": "compat.v1.pad"}, "name": "tf.compat.v1.pad_18", "inbound_nodes": [["leaky_re_lu_29", 0, 0, {"paddings": [[0, 0], [1, 1], [1, 1], [0, 0]], "mode": "CONSTANT", "name": null, "constant_values": 0}]]}, {"class_name": "SeparableConv2D", "config": {"name": "vargface_stage_3_unit_3_sep1_data", "trainable": true, "dtype": "float32", "filters": 160, "kernel_size": [3, 3], "strides": [1, 1], "padding": "valid", "data_format": "channels_last", "dilation_rate": [1, 1], "groups": 1, "activation": {"class_name": "LeakyReLU", "config": {"name": "leaky_re_lu_30", "trainable": true, "dtype": "float32", "alpha": 0.1}, "shared_object_id": 187}, "use_bias": false, "kernel_initializer": {"class_name": "GlorotUniform", "config": {"seed": null}}, "bias_initializer": {"class_name": "Zeros", "config": {}, "shared_object_id": 190}, "kernel_regularizer": null, "bias_regularizer": null, "activity_regularizer": null, "kernel_constraint": null, "bias_constraint": null, "depth_multiplier": 2, "depthwise_initializer": {"class_name": "GlorotUniform", "config": {"seed": null}}, "pointwise_initializer": {"class_name": "GlorotUniform", "config": {"seed": null}}, "depthwise_regularizer": null, "pointwise_regularizer": null, "depthwise_constraint": null, "pointwise_constraint": null}, "name": "vargface_stage_3_unit_3_sep1_data", "inbound_nodes": [[["tf.compat.v1.pad_18", 0, 0, {}]]]}, {"class_name": "TFOpLambda", "config": {"name": "tf.compat.v1.pad_19", "trainable": true, "dtype": "float32", "function": "compat.v1.pad"}, "name": "tf.compat.v1.pad_19", "inbound_nodes": [["vargface_stage_3_unit_3_sep1_data", 0, 0, {"paddings": [[0, 0], [1, 1], [1, 1], [0, 0]], "mode": "CONSTANT", "name": null, "constant_values": 0}]]}, {"class_name": "SeparableConv2D", "config": {"name": "vargface_stage_3_unit_3_sep2_data", "trainable": true, "dtype": "float32", "filters": 160, "kernel_size": [3, 3], "strides": [1, 1], "padding": "valid", "data_format": "channels_last", "dilation_rate": [1, 1], "groups": 1, "activation": {"class_name": "LeakyReLU", "config": {"name": "leaky_re_lu_31", "trainable": true, "dtype": "float32", "alpha": 0.1}, "shared_object_id": 194}, "use_bias": false, "kernel_initializer": {"class_name": "GlorotUniform", "config": {"seed": null}}, "bias_initializer": {"class_name": "Zeros", "config": {}, "shared_object_id": 197}, "kernel_regularizer": null, "bias_regularizer": null, "activity_regularizer": null, "kernel_constraint": null, "bias_constraint": null, "depth_multiplier": 2, "depthwise_initializer": {"class_name": "GlorotUniform", "config": {"seed": null}}, "pointwise_initializer": {"class_name": "GlorotUniform", "config": {"seed": null}}, "depthwise_regularizer": null, "pointwise_regularizer": null, "depthwise_constraint": null, "pointwise_constraint": null}, "name": "vargface_stage_3_unit_3_sep2_data", "inbound_nodes": [[["tf.compat.v1.pad_19", 0, 0, {}]]]}, {"class_name": "GlobalAveragePooling2D", "config": {"name": "vargface_stage_3_unit_3_se_pool1", "trainable": true, "dtype": "float32", "data_format": "channels_last", "keepdims": true}, "name": "vargface_stage_3_unit_3_se_pool1", "inbound_nodes": [[["vargface_stage_3_unit_3_sep2_data", 0, 0, {}]]]}, {"class_name": "Conv2D", "config": {"name": "vargface_stage_3_unit_3_se_conv1", "trainable": true, "dtype": "float32", "filters": 40, "kernel_size": [1, 1], "strides": [1, 1], "padding": "same", "data_format": "channels_last", "dilation_rate": [1, 1], "groups": 1, "activation": "linear", "use_bias": true, "kernel_initializer": {"class_name": "GlorotUniform", "config": {"seed": null}}, "bias_initializer": {"class_name": "Zeros", "config": {}}, "kernel_regularizer": null, "bias_regularizer": null, "activity_regularizer": null, "kernel_constraint": null, "bias_constraint": null}, "name": "vargface_stage_3_unit_3_se_conv1", "inbound_nodes": [[["vargface_stage_3_unit_3_se_pool1", 0, 0, {}]]]}, {"class_name": "LeakyReLU", "config": {"name": "leaky_re_lu_32", "trainable": true, "dtype": "float32", "alpha": 0.1}, "name": "leaky_re_lu_32", "inbound_nodes": [[["vargface_stage_3_unit_3_se_conv1", 0, 0, {}]]]}, {"class_name": "Conv2D", "config": {"name": "vargface_stage_3_unit_3_se_conv2", "trainable": true, "dtype": "float32", "filters": 160, "kernel_size": [1, 1], "strides": [1, 1], "padding": "valid", "data_format": "channels_last", "dilation_rate": [1, 1], "groups": 1, "activation": "linear", "use_bias": true, "kernel_initializer": {"class_name": "GlorotUniform", "config": {"seed": null}}, "bias_initializer": {"class_name": "Zeros", "config": {}}, "kernel_regularizer": null, "bias_regularizer": null, "activity_regularizer": null, "kernel_constraint": null, "bias_constraint": null}, "name": "vargface_stage_3_unit_3_se_conv2", "inbound_nodes": [[["leaky_re_lu_32", 0, 0, {}]]]}, {"class_name": "Activation", "config": {"name": "vargface_stage_3_unit_3_se_sigmoid", "trainable": true, "dtype": "float32", "activation": "sigmoid"}, "name": "vargface_stage_3_unit_3_se_sigmoid", "inbound_nodes": [[["vargface_stage_3_unit_3_se_conv2", 0, 0, {}]]]}, {"class_name": "Multiply", "config": {"name": "multiply_4", "trainable": true, "dtype": "float32"}, "name": "multiply_4", "inbound_nodes": [[["vargface_stage_3_unit_3_sep2_data", 0, 0, {}], ["vargface_stage_3_unit_3_se_sigmoid", 0, 0, {}]]]}, {"class_name": "Add", "config": {"name": "add_8", "trainable": true, "dtype": "float32"}, "name": "add_8", "inbound_nodes": [[["multiply_4", 0, 0, {}], ["leaky_re_lu_29", 0, 0, {}]]]}, {"class_name": "LeakyReLU", "config": {"name": "leaky_re_lu_33", "trainable": true, "dtype": "float32", "alpha": 0.1}, "name": "leaky_re_lu_33", "inbound_nodes": [[["add_8", 0, 0, {}]]]}, {"class_name": "TFOpLambda", "config": {"name": "tf.compat.v1.pad_20", "trainable": true, "dtype": "float32", "function": "compat.v1.pad"}, "name": "tf.compat.v1.pad_20", "inbound_nodes": [["leaky_re_lu_33", 0, 0, {"paddings": [[0, 0], [1, 1], [1, 1], [0, 0]], "mode": "CONSTANT", "name": null, "constant_values": 0}]]}, {"class_name": "SeparableConv2D", "config": {"name": "vargface_stage_3_unit_4_sep1_data", "trainable": true, "dtype": "float32", "filters": 160, "kernel_size": [3, 3], "strides": [1, 1], "padding": "valid", "data_format": "channels_last", "dilation_rate": [1, 1], "groups": 1, "activation": {"class_name": "LeakyReLU", "config": {"name": "leaky_re_lu_34", "trainable": true, "dtype": "float32", "alpha": 0.1}, "shared_object_id": 213}, "use_bias": false, "kernel_initializer": {"class_name": "GlorotUniform", "config": {"seed": null}}, "bias_initializer": {"class_name": "Zeros", "config": {}, "shared_object_id": 216}, "kernel_regularizer": null, "bias_regularizer": null, "activity_regularizer": null, "kernel_constraint": null, "bias_constraint": null, "depth_multiplier": 2, "depthwise_initializer": {"class_name": "GlorotUniform", "config": {"seed": null}}, "pointwise_initializer": {"class_name": "GlorotUniform", "config": {"seed": null}}, "depthwise_regularizer": null, "pointwise_regularizer": null, "depthwise_constraint": null, "pointwise_constraint": null}, "name": "vargface_stage_3_unit_4_sep1_data", "inbound_nodes": [[["tf.compat.v1.pad_20", 0, 0, {}]]]}, {"class_name": "TFOpLambda", "config": {"name": "tf.compat.v1.pad_21", "trainable": true, "dtype": "float32", "function": "compat.v1.pad"}, "name": "tf.compat.v1.pad_21", "inbound_nodes": [["vargface_stage_3_unit_4_sep1_data", 0, 0, {"paddings": [[0, 0], [1, 1], [1, 1], [0, 0]], "mode": "CONSTANT", "name": null, "constant_values": 0}]]}, {"class_name": "SeparableConv2D", "config": {"name": "vargface_stage_3_unit_4_sep2_data", "trainable": true, "dtype": "float32", "filters": 160, "kernel_size": [3, 3], "strides": [1, 1], "padding": "valid", "data_format": "channels_last", "dilation_rate": [1, 1], "groups": 1, "activation": {"class_name": "LeakyReLU", "config": {"name": "leaky_re_lu_35", "trainable": true, "dtype": "float32", "alpha": 0.1}, "shared_object_id": 220}, "use_bias": false, "kernel_initializer": {"class_name": "GlorotUniform", "config": {"seed": null}}, "bias_initializer": {"class_name": "Zeros", "config": {}, "shared_object_id": 223}, "kernel_regularizer": null, "bias_regularizer": null, "activity_regularizer": null, "kernel_constraint": null, "bias_constraint": null, "depth_multiplier": 2, "depthwise_initializer": {"class_name": "GlorotUniform", "config": {"seed": null}}, "pointwise_initializer": {"class_name": "GlorotUniform", "config": {"seed": null}}, "depthwise_regularizer": null, "pointwise_regularizer": null, "depthwise_constraint": null, "pointwise_constraint": null}, "name": "vargface_stage_3_unit_4_sep2_data", "inbound_nodes": [[["tf.compat.v1.pad_21", 0, 0, {}]]]}, {"class_name": "GlobalAveragePooling2D", "config": {"name": "vargface_stage_3_unit_4_se_pool1", "trainable": true, "dtype": "float32", "data_format": "channels_last", "keepdims": true}, "name": "vargface_stage_3_unit_4_se_pool1", "inbound_nodes": [[["vargface_stage_3_unit_4_sep2_data", 0, 0, {}]]]}, {"class_name": "Conv2D", "config": {"name": "vargface_stage_3_unit_4_se_conv1", "trainable": true, "dtype": "float32", "filters": 40, "kernel_size": [1, 1], "strides": [1, 1], "padding": "same", "data_format": "channels_last", "dilation_rate": [1, 1], "groups": 1, "activation": "linear", "use_bias": true, "kernel_initializer": {"class_name": "GlorotUniform", "config": {"seed": null}}, "bias_initializer": {"class_name": "Zeros", "config": {}}, "kernel_regularizer": null, "bias_regularizer": null, "activity_regularizer": null, "kernel_constraint": null, "bias_constraint": null}, "name": "vargface_stage_3_unit_4_se_conv1", "inbound_nodes": [[["vargface_stage_3_unit_4_se_pool1", 0, 0, {}]]]}, {"class_name": "LeakyReLU", "config": {"name": "leaky_re_lu_36", "trainable": true, "dtype": "float32", "alpha": 0.1}, "name": "leaky_re_lu_36", "inbound_nodes": [[["vargface_stage_3_unit_4_se_conv1", 0, 0, {}]]]}, {"class_name": "Conv2D", "config": {"name": "vargface_stage_3_unit_4_se_conv2", "trainable": true, "dtype": "float32", "filters": 160, "kernel_size": [1, 1], "strides": [1, 1], "padding": "valid", "data_format": "channels_last", "dilation_rate": [1, 1], "groups": 1, "activation": "linear", "use_bias": true, "kernel_initializer": {"class_name": "GlorotUniform", "config": {"seed": null}}, "bias_initializer": {"class_name": "Zeros", "config": {}}, "kernel_regularizer": null, "bias_regularizer": null, "activity_regularizer": null, "kernel_constraint": null, "bias_constraint": null}, "name": "vargface_stage_3_unit_4_se_conv2", "inbound_nodes": [[["leaky_re_lu_36", 0, 0, {}]]]}, {"class_name": "Activation", "config": {"name": "vargface_stage_3_unit_4_se_sigmoid", "trainable": true, "dtype": "float32", "activation": "sigmoid"}, "name": "vargface_stage_3_unit_4_se_sigmoid", "inbound_nodes": [[["vargface_stage_3_unit_4_se_conv2", 0, 0, {}]]]}, {"class_name": "Multiply", "config": {"name": "multiply_5", "trainable": true, "dtype": "float32"}, "name": "multiply_5", "inbound_nodes": [[["vargface_stage_3_unit_4_sep2_data", 0, 0, {}], ["vargface_stage_3_unit_4_se_sigmoid", 0, 0, {}]]]}, {"class_name": "Add", "config": {"name": "add_9", "trainable": true, "dtype": "float32"}, "name": "add_9", "inbound_nodes": [[["multiply_5", 0, 0, {}], ["leaky_re_lu_33", 0, 0, {}]]]}, {"class_name": "LeakyReLU", "config": {"name": "leaky_re_lu_37", "trainable": true, "dtype": "float32", "alpha": 0.1}, "name": "leaky_re_lu_37", "inbound_nodes": [[["add_9", 0, 0, {}]]]}, {"class_name": "TFOpLambda", "config": {"name": "tf.compat.v1.pad_22", "trainable": true, "dtype": "float32", "function": "compat.v1.pad"}, "name": "tf.compat.v1.pad_22", "inbound_nodes": [["leaky_re_lu_37", 0, 0, {"paddings": [[0, 0], [1, 1], [1, 1], [0, 0]], "mode": "CONSTANT", "name": null, "constant_values": 0}]]}, {"class_name": "SeparableConv2D", "config": {"name": "vargface_stage_3_unit_5_sep1_data", "trainable": true, "dtype": "float32", "filters": 160, "kernel_size": [3, 3], "strides": [1, 1], "padding": "valid", "data_format": "channels_last", "dilation_rate": [1, 1], "groups": 1, "activation": {"class_name": "LeakyReLU", "config": {"name": "leaky_re_lu_38", "trainable": true, "dtype": "float32", "alpha": 0.1}, "shared_object_id": 239}, "use_bias": false, "kernel_initializer": {"class_name": "GlorotUniform", "config": {"seed": null}}, "bias_initializer": {"class_name": "Zeros", "config": {}, "shared_object_id": 242}, "kernel_regularizer": null, "bias_regularizer": null, "activity_regularizer": null, "kernel_constraint": null, "bias_constraint": null, "depth_multiplier": 2, "depthwise_initializer": {"class_name": "GlorotUniform", "config": {"seed": null}}, "pointwise_initializer": {"class_name": "GlorotUniform", "config": {"seed": null}}, "depthwise_regularizer": null, "pointwise_regularizer": null, "depthwise_constraint": null, "pointwise_constraint": null}, "name": "vargface_stage_3_unit_5_sep1_data", "inbound_nodes": [[["tf.compat.v1.pad_22", 0, 0, {}]]]}, {"class_name": "TFOpLambda", "config": {"name": "tf.compat.v1.pad_23", "trainable": true, "dtype": "float32", "function": "compat.v1.pad"}, "name": "tf.compat.v1.pad_23", "inbound_nodes": [["vargface_stage_3_unit_5_sep1_data", 0, 0, {"paddings": [[0, 0], [1, 1], [1, 1], [0, 0]], "mode": "CONSTANT", "name": null, "constant_values": 0}]]}, {"class_name": "SeparableConv2D", "config": {"name": "vargface_stage_3_unit_5_sep2_data", "trainable": true, "dtype": "float32", "filters": 160, "kernel_size": [3, 3], "strides": [1, 1], "padding": "valid", "data_format": "channels_last", "dilation_rate": [1, 1], "groups": 1, "activation": {"class_name": "LeakyReLU", "config": {"name": "leaky_re_lu_39", "trainable": true, "dtype": "float32", "alpha": 0.1}, "shared_object_id": 246}, "use_bias": false, "kernel_initializer": {"class_name": "GlorotUniform", "config": {"seed": null}}, "bias_initializer": {"class_name": "Zeros", "config": {}, "shared_object_id": 249}, "kernel_regularizer": null, "bias_regularizer": null, "activity_regularizer": null, "kernel_constraint": null, "bias_constraint": null, "depth_multiplier": 2, "depthwise_initializer": {"class_name": "GlorotUniform", "config": {"seed": null}}, "pointwise_initializer": {"class_name": "GlorotUniform", "config": {"seed": null}}, "depthwise_regularizer": null, "pointwise_regularizer": null, "depthwise_constraint": null, "pointwise_constraint": null}, "name": "vargface_stage_3_unit_5_sep2_data", "inbound_nodes": [[["tf.compat.v1.pad_23", 0, 0, {}]]]}, {"class_name": "GlobalAveragePooling2D", "config": {"name": "vargface_stage_3_unit_5_se_pool1", "trainable": true, "dtype": "float32", "data_format": "channels_last", "keepdims": true}, "name": "vargface_stage_3_unit_5_se_pool1", "inbound_nodes": [[["vargface_stage_3_unit_5_sep2_data", 0, 0, {}]]]}, {"class_name": "Conv2D", "config": {"name": "vargface_stage_3_unit_5_se_conv1", "trainable": true, "dtype": "float32", "filters": 40, "kernel_size": [1, 1], "strides": [1, 1], "padding": "same", "data_format": "channels_last", "dilation_rate": [1, 1], "groups": 1, "activation": "linear", "use_bias": true, "kernel_initializer": {"class_name": "GlorotUniform", "config": {"seed": null}}, "bias_initializer": {"class_name": "Zeros", "config": {}}, "kernel_regularizer": null, "bias_regularizer": null, "activity_regularizer": null, "kernel_constraint": null, "bias_constraint": null}, "name": "vargface_stage_3_unit_5_se_conv1", "inbound_nodes": [[["vargface_stage_3_unit_5_se_pool1", 0, 0, {}]]]}, {"class_name": "LeakyReLU", "config": {"name": "leaky_re_lu_40", "trainable": true, "dtype": "float32", "alpha": 0.1}, "name": "leaky_re_lu_40", "inbound_nodes": [[["vargface_stage_3_unit_5_se_conv1", 0, 0, {}]]]}, {"class_name": "Conv2D", "config": {"name": "vargface_stage_3_unit_5_se_conv2", "trainable": true, "dtype": "float32", "filters": 160, "kernel_size": [1, 1], "strides": [1, 1], "padding": "valid", "data_format": "channels_last", "dilation_rate": [1, 1], "groups": 1, "activation": "linear", "use_bias": true, "kernel_initializer": {"class_name": "GlorotUniform", "config": {"seed": null}}, "bias_initializer": {"class_name": "Zeros", "config": {}}, "kernel_regularizer": null, "bias_regularizer": null, "activity_regularizer": null, "kernel_constraint": null, "bias_constraint": null}, "name": "vargface_stage_3_unit_5_se_conv2", "inbound_nodes": [[["leaky_re_lu_40", 0, 0, {}]]]}, {"class_name": "Activation", "config": {"name": "vargface_stage_3_unit_5_se_sigmoid", "trainable": true, "dtype": "float32", "activation": "sigmoid"}, "name": "vargface_stage_3_unit_5_se_sigmoid", "inbound_nodes": [[["vargface_stage_3_unit_5_se_conv2", 0, 0, {}]]]}, {"class_name": "Multiply", "config": {"name": "multiply_6", "trainable": true, "dtype": "float32"}, "name": "multiply_6", "inbound_nodes": [[["vargface_stage_3_unit_5_sep2_data", 0, 0, {}], ["vargface_stage_3_unit_5_se_sigmoid", 0, 0, {}]]]}, {"class_name": "Add", "config": {"name": "add_10", "trainable": true, "dtype": "float32"}, "name": "add_10", "inbound_nodes": [[["multiply_6", 0, 0, {}], ["leaky_re_lu_37", 0, 0, {}]]]}, {"class_name": "LeakyReLU", "config": {"name": "leaky_re_lu_41", "trainable": true, "dtype": "float32", "alpha": 0.1}, "name": "leaky_re_lu_41", "inbound_nodes": [[["add_10", 0, 0, {}]]]}, {"class_name": "TFOpLambda", "config": {"name": "tf.compat.v1.pad_24", "trainable": true, "dtype": "float32", "function": "compat.v1.pad"}, "name": "tf.compat.v1.pad_24", "inbound_nodes": [["leaky_re_lu_41", 0, 0, {"paddings": [[0, 0], [1, 1], [1, 1], [0, 0]], "mode": "CONSTANT", "name": null, "constant_values": 0}]]}, {"class_name": "SeparableConv2D", "config": {"name": "vargface_stage_3_unit_6_sep1_data", "trainable": true, "dtype": "float32", "filters": 160, "kernel_size": [3, 3], "strides": [1, 1], "padding": "valid", "data_format": "channels_last", "dilation_rate": [1, 1], "groups": 1, "activation": {"class_name": "LeakyReLU", "config": {"name": "leaky_re_lu_42", "trainable": true, "dtype": "float32", "alpha": 0.1}, "shared_object_id": 265}, "use_bias": false, "kernel_initializer": {"class_name": "GlorotUniform", "config": {"seed": null}}, "bias_initializer": {"class_name": "Zeros", "config": {}, "shared_object_id": 268}, "kernel_regularizer": null, "bias_regularizer": null, "activity_regularizer": null, "kernel_constraint": null, "bias_constraint": null, "depth_multiplier": 2, "depthwise_initializer": {"class_name": "GlorotUniform", "config": {"seed": null}}, "pointwise_initializer": {"class_name": "GlorotUniform", "config": {"seed": null}}, "depthwise_regularizer": null, "pointwise_regularizer": null, "depthwise_constraint": null, "pointwise_constraint": null}, "name": "vargface_stage_3_unit_6_sep1_data", "inbound_nodes": [[["tf.compat.v1.pad_24", 0, 0, {}]]]}, {"class_name": "TFOpLambda", "config": {"name": "tf.compat.v1.pad_25", "trainable": true, "dtype": "float32", "function": "compat.v1.pad"}, "name": "tf.compat.v1.pad_25", "inbound_nodes": [["vargface_stage_3_unit_6_sep1_data", 0, 0, {"paddings": [[0, 0], [1, 1], [1, 1], [0, 0]], "mode": "CONSTANT", "name": null, "constant_values": 0}]]}, {"class_name": "SeparableConv2D", "config": {"name": "vargface_stage_3_unit_6_sep2_data", "trainable": true, "dtype": "float32", "filters": 160, "kernel_size": [3, 3], "strides": [1, 1], "padding": "valid", "data_format": "channels_last", "dilation_rate": [1, 1], "groups": 1, "activation": {"class_name": "LeakyReLU", "config": {"name": "leaky_re_lu_43", "trainable": true, "dtype": "float32", "alpha": 0.1}, "shared_object_id": 272}, "use_bias": false, "kernel_initializer": {"class_name": "GlorotUniform", "config": {"seed": null}}, "bias_initializer": {"class_name": "Zeros", "config": {}, "shared_object_id": 275}, "kernel_regularizer": null, "bias_regularizer": null, "activity_regularizer": null, "kernel_constraint": null, "bias_constraint": null, "depth_multiplier": 2, "depthwise_initializer": {"class_name": "GlorotUniform", "config": {"seed": null}}, "pointwise_initializer": {"class_name": "GlorotUniform", "config": {"seed": null}}, "depthwise_regularizer": null, "pointwise_regularizer": null, "depthwise_constraint": null, "pointwise_constraint": null}, "name": "vargface_stage_3_unit_6_sep2_data", "inbound_nodes": [[["tf.compat.v1.pad_25", 0, 0, {}]]]}, {"class_name": "GlobalAveragePooling2D", "config": {"name": "vargface_stage_3_unit_6_se_pool1", "trainable": true, "dtype": "float32", "data_format": "channels_last", "keepdims": true}, "name": "vargface_stage_3_unit_6_se_pool1", "inbound_nodes": [[["vargface_stage_3_unit_6_sep2_data", 0, 0, {}]]]}, {"class_name": "Conv2D", "config": {"name": "vargface_stage_3_unit_6_se_conv1", "trainable": true, "dtype": "float32", "filters": 40, "kernel_size": [1, 1], "strides": [1, 1], "padding": "same", "data_format": "channels_last", "dilation_rate": [1, 1], "groups": 1, "activation": "linear", "use_bias": true, "kernel_initializer": {"class_name": "GlorotUniform", "config": {"seed": null}}, "bias_initializer": {"class_name": "Zeros", "config": {}}, "kernel_regularizer": null, "bias_regularizer": null, "activity_regularizer": null, "kernel_constraint": null, "bias_constraint": null}, "name": "vargface_stage_3_unit_6_se_conv1", "inbound_nodes": [[["vargface_stage_3_unit_6_se_pool1", 0, 0, {}]]]}, {"class_name": "LeakyReLU", "config": {"name": "leaky_re_lu_44", "trainable": true, "dtype": "float32", "alpha": 0.1}, "name": "leaky_re_lu_44", "inbound_nodes": [[["vargface_stage_3_unit_6_se_conv1", 0, 0, {}]]]}, {"class_name": "Conv2D", "config": {"name": "vargface_stage_3_unit_6_se_conv2", "trainable": true, "dtype": "float32", "filters": 160, "kernel_size": [1, 1], "strides": [1, 1], "padding": "valid", "data_format": "channels_last", "dilation_rate": [1, 1], "groups": 1, "activation": "linear", "use_bias": true, "kernel_initializer": {"class_name": "GlorotUniform", "config": {"seed": null}}, "bias_initializer": {"class_name": "Zeros", "config": {}}, "kernel_regularizer": null, "bias_regularizer": null, "activity_regularizer": null, "kernel_constraint": null, "bias_constraint": null}, "name": "vargface_stage_3_unit_6_se_conv2", "inbound_nodes": [[["leaky_re_lu_44", 0, 0, {}]]]}, {"class_name": "Activation", "config": {"name": "vargface_stage_3_unit_6_se_sigmoid", "trainable": true, "dtype": "float32", "activation": "sigmoid"}, "name": "vargface_stage_3_unit_6_se_sigmoid", "inbound_nodes": [[["vargface_stage_3_unit_6_se_conv2", 0, 0, {}]]]}, {"class_name": "Multiply", "config": {"name": "multiply_7", "trainable": true, "dtype": "float32"}, "name": "multiply_7", "inbound_nodes": [[["vargface_stage_3_unit_6_sep2_data", 0, 0, {}], ["vargface_stage_3_unit_6_se_sigmoid", 0, 0, {}]]]}, {"class_name": "Add", "config": {"name": "add_11", "trainable": true, "dtype": "float32"}, "name": "add_11", "inbound_nodes": [[["multiply_7", 0, 0, {}], ["leaky_re_lu_41", 0, 0, {}]]]}, {"class_name": "LeakyReLU", "config": {"name": "leaky_re_lu_45", "trainable": true, "dtype": "float32", "alpha": 0.1}, "name": "leaky_re_lu_45", "inbound_nodes": [[["add_11", 0, 0, {}]]]}, {"class_name": "TFOpLambda", "config": {"name": "tf.compat.v1.pad_26", "trainable": true, "dtype": "float32", "function": "compat.v1.pad"}, "name": "tf.compat.v1.pad_26", "inbound_nodes": [["leaky_re_lu_45", 0, 0, {"paddings": [[0, 0], [1, 1], [1, 1], [0, 0]], "mode": "CONSTANT", "name": null, "constant_values": 0}]]}, {"class_name": "SeparableConv2D", "config": {"name": "vargface_stage_3_unit_7_sep1_data", "trainable": true, "dtype": "float32", "filters": 160, "kernel_size": [3, 3], "strides": [1, 1], "padding": "valid", "data_format": "channels_last", "dilation_rate": [1, 1], "groups": 1, "activation": {"class_name": "LeakyReLU", "config": {"name": "leaky_re_lu_46", "trainable": true, "dtype": "float32", "alpha": 0.1}, "shared_object_id": 291}, "use_bias": false, "kernel_initializer": {"class_name": "GlorotUniform", "config": {"seed": null}}, "bias_initializer": {"class_name": "Zeros", "config": {}, "shared_object_id": 294}, "kernel_regularizer": null, "bias_regularizer": null, "activity_regularizer": null, "kernel_constraint": null, "bias_constraint": null, "depth_multiplier": 2, "depthwise_initializer": {"class_name": "GlorotUniform", "config": {"seed": null}}, "pointwise_initializer": {"class_name": "GlorotUniform", "config": {"seed": null}}, "depthwise_regularizer": null, "pointwise_regularizer": null, "depthwise_constraint": null, "pointwise_constraint": null}, "name": "vargface_stage_3_unit_7_sep1_data", "inbound_nodes": [[["tf.compat.v1.pad_26", 0, 0, {}]]]}, {"class_name": "TFOpLambda", "config": {"name": "tf.compat.v1.pad_27", "trainable": true, "dtype": "float32", "function": "compat.v1.pad"}, "name": "tf.compat.v1.pad_27", "inbound_nodes": [["vargface_stage_3_unit_7_sep1_data", 0, 0, {"paddings": [[0, 0], [1, 1], [1, 1], [0, 0]], "mode": "CONSTANT", "name": null, "constant_values": 0}]]}, {"class_name": "SeparableConv2D", "config": {"name": "vargface_stage_3_unit_7_sep2_data", "trainable": true, "dtype": "float32", "filters": 160, "kernel_size": [3, 3], "strides": [1, 1], "padding": "valid", "data_format": "channels_last", "dilation_rate": [1, 1], "groups": 1, "activation": {"class_name": "LeakyReLU", "config": {"name": "leaky_re_lu_47", "trainable": true, "dtype": "float32", "alpha": 0.1}, "shared_object_id": 298}, "use_bias": false, "kernel_initializer": {"class_name": "GlorotUniform", "config": {"seed": null}}, "bias_initializer": {"class_name": "Zeros", "config": {}, "shared_object_id": 301}, "kernel_regularizer": null, "bias_regularizer": null, "activity_regularizer": null, "kernel_constraint": null, "bias_constraint": null, "depth_multiplier": 2, "depthwise_initializer": {"class_name": "GlorotUniform", "config": {"seed": null}}, "pointwise_initializer": {"class_name": "GlorotUniform", "config": {"seed": null}}, "depthwise_regularizer": null, "pointwise_regularizer": null, "depthwise_constraint": null, "pointwise_constraint": null}, "name": "vargface_stage_3_unit_7_sep2_data", "inbound_nodes": [[["tf.compat.v1.pad_27", 0, 0, {}]]]}, {"class_name": "GlobalAveragePooling2D", "config": {"name": "vargface_stage_3_unit_7_se_pool1", "trainable": true, "dtype": "float32", "data_format": "channels_last", "keepdims": true}, "name": "vargface_stage_3_unit_7_se_pool1", "inbound_nodes": [[["vargface_stage_3_unit_7_sep2_data", 0, 0, {}]]]}, {"class_name": "Conv2D", "config": {"name": "vargface_stage_3_unit_7_se_conv1", "trainable": true, "dtype": "float32", "filters": 40, "kernel_size": [1, 1], "strides": [1, 1], "padding": "same", "data_format": "channels_last", "dilation_rate": [1, 1], "groups": 1, "activation": "linear", "use_bias": true, "kernel_initializer": {"class_name": "GlorotUniform", "config": {"seed": null}}, "bias_initializer": {"class_name": "Zeros", "config": {}}, "kernel_regularizer": null, "bias_regularizer": null, "activity_regularizer": null, "kernel_constraint": null, "bias_constraint": null}, "name": "vargface_stage_3_unit_7_se_conv1", "inbound_nodes": [[["vargface_stage_3_unit_7_se_pool1", 0, 0, {}]]]}, {"class_name": "LeakyReLU", "config": {"name": "leaky_re_lu_48", "trainable": true, "dtype": "float32", "alpha": 0.1}, "name": "leaky_re_lu_48", "inbound_nodes": [[["vargface_stage_3_unit_7_se_conv1", 0, 0, {}]]]}, {"class_name": "Conv2D", "config": {"name": "vargface_stage_3_unit_7_se_conv2", "trainable": true, "dtype": "float32", "filters": 160, "kernel_size": [1, 1], "strides": [1, 1], "padding": "valid", "data_format": "channels_last", "dilation_rate": [1, 1], "groups": 1, "activation": "linear", "use_bias": true, "kernel_initializer": {"class_name": "GlorotUniform", "config": {"seed": null}}, "bias_initializer": {"class_name": "Zeros", "config": {}}, "kernel_regularizer": null, "bias_regularizer": null, "activity_regularizer": null, "kernel_constraint": null, "bias_constraint": null}, "name": "vargface_stage_3_unit_7_se_conv2", "inbound_nodes": [[["leaky_re_lu_48", 0, 0, {}]]]}, {"class_name": "Activation", "config": {"name": "vargface_stage_3_unit_7_se_sigmoid", "trainable": true, "dtype": "float32", "activation": "sigmoid"}, "name": "vargface_stage_3_unit_7_se_sigmoid", "inbound_nodes": [[["vargface_stage_3_unit_7_se_conv2", 0, 0, {}]]]}, {"class_name": "Multiply", "config": {"name": "multiply_8", "trainable": true, "dtype": "float32"}, "name": "multiply_8", "inbound_nodes": [[["vargface_stage_3_unit_7_sep2_data", 0, 0, {}], ["vargface_stage_3_unit_7_se_sigmoid", 0, 0, {}]]]}, {"class_name": "Add", "config": {"name": "add_12", "trainable": true, "dtype": "float32"}, "name": "add_12", "inbound_nodes": [[["multiply_8", 0, 0, {}], ["leaky_re_lu_45", 0, 0, {}]]]}, {"class_name": "LeakyReLU", "config": {"name": "leaky_re_lu_49", "trainable": true, "dtype": "float32", "alpha": 0.1}, "name": "leaky_re_lu_49", "inbound_nodes": [[["add_12", 0, 0, {}]]]}, {"class_name": "TFOpLambda", "config": {"name": "tf.compat.v1.pad_29", "trainable": true, "dtype": "float32", "function": "compat.v1.pad"}, "name": "tf.compat.v1.pad_29", "inbound_nodes": [["leaky_re_lu_49", 0, 0, {"paddings": [[0, 0], [1, 1], [1, 1], [0, 0]], "mode": "CONSTANT", "name": null, "constant_values": 0}]]}, {"class_name": "TFOpLambda", "config": {"name": "tf.compat.v1.pad_30", "trainable": true, "dtype": "float32", "function": "compat.v1.pad"}, "name": "tf.compat.v1.pad_30", "inbound_nodes": [["leaky_re_lu_49", 0, 0, {"paddings": [[0, 0], [1, 1], [1, 1], [0, 0]], "mode": "CONSTANT", "name": null, "constant_values": 0}]]}, {"class_name": "SeparableConv2D", "config": {"name": "vargface_stage_4_unit_1_step1_data_branch", "trainable": true, "dtype": "float32", "filters": 320, "kernel_size": [3, 3], "strides": [2, 2], "padding": "valid", "data_format": "channels_last", "dilation_rate": [1, 1], "groups": 1, "activation": {"class_name": "LeakyReLU", "config": {"name": "leaky_re_lu_51", "trainable": true, "dtype": "float32", "alpha": 0.1}, "shared_object_id": 318}, "use_bias": false, "kernel_initializer": {"class_name": "GlorotUniform", "config": {"seed": null}}, "bias_initializer": {"class_name": "Zeros", "config": {}, "shared_object_id": 321}, "kernel_regularizer": null, "bias_regularizer": null, "activity_regularizer": null, "kernel_constraint": null, "bias_constraint": null, "depth_multiplier": 2, "depthwise_initializer": {"class_name": "GlorotUniform", "config": {"seed": null}}, "pointwise_initializer": {"class_name": "GlorotUniform", "config": {"seed": null}}, "depthwise_regularizer": null, "pointwise_regularizer": null, "depthwise_constraint": null, "pointwise_constraint": null}, "name": "vargface_stage_4_unit_1_step1_data_branch", "inbound_nodes": [[["tf.compat.v1.pad_29", 0, 0, {}]]]}, {"class_name": "SeparableConv2D", "config": {"name": "vargface_stage_4_unit_1_step2_data_branch", "trainable": true, "dtype": "float32", "filters": 320, "kernel_size": [3, 3], "strides": [2, 2], "padding": "valid", "data_format": "channels_last", "dilation_rate": [1, 1], "groups": 1, "activation": {"class_name": "LeakyReLU", "config": {"name": "leaky_re_lu_52", "trainable": true, "dtype": "float32", "alpha": 0.1}, "shared_object_id": 324}, "use_bias": false, "kernel_initializer": {"class_name": "GlorotUniform", "config": {"seed": null}}, "bias_initializer": {"class_name": "Zeros", "config": {}, "shared_object_id": 327}, "kernel_regularizer": null, "bias_regularizer": null, "activity_regularizer": null, "kernel_constraint": null, "bias_constraint": null, "depth_multiplier": 2, "depthwise_initializer": {"class_name": "GlorotUniform", "config": {"seed": null}}, "pointwise_initializer": {"class_name": "GlorotUniform", "config": {"seed": null}}, "depthwise_regularizer": null, "pointwise_regularizer": null, "depthwise_constraint": null, "pointwise_constraint": null}, "name": "vargface_stage_4_unit_1_step2_data_branch", "inbound_nodes": [[["tf.compat.v1.pad_30", 0, 0, {}]]]}, {"class_name": "Add", "config": {"name": "add_13", "trainable": true, "dtype": "float32"}, "name": "add_13", "inbound_nodes": [[["vargface_stage_4_unit_1_step1_data_branch", 0, 0, {}], ["vargface_stage_4_unit_1_step2_data_branch", 0, 0, {}]]]}, {"class_name": "LeakyReLU", "config": {"name": "leaky_re_lu_53", "trainable": true, "dtype": "float32", "alpha": 0.1}, "name": "leaky_re_lu_53", "inbound_nodes": [[["add_13", 0, 0, {}]]]}, {"class_name": "TFOpLambda", "config": {"name": "tf.compat.v1.pad_31", "trainable": true, "dtype": "float32", "function": "compat.v1.pad"}, "name": "tf.compat.v1.pad_31", "inbound_nodes": [["leaky_re_lu_53", 0, 0, {"paddings": [[0, 0], [1, 1], [1, 1], [0, 0]], "mode": "CONSTANT", "name": null, "constant_values": 0}]]}, {"class_name": "TFOpLambda", "config": {"name": "tf.compat.v1.pad_28", "trainable": true, "dtype": "float32", "function": "compat.v1.pad"}, "name": "tf.compat.v1.pad_28", "inbound_nodes": [["leaky_re_lu_49", 0, 0, {"paddings": [[0, 0], [1, 1], [1, 1], [0, 0]], "mode": "CONSTANT", "name": null, "constant_values": 0}]]}, {"class_name": "SeparableConv2D", "config": {"name": "vargface_stage_4_unit_1_step2_data", "trainable": true, "dtype": "float32", "filters": 320, "kernel_size": [3, 3], "strides": [1, 1], "padding": "valid", "data_format": "channels_last", "dilation_rate": [1, 1], "groups": 1, "activation": {"class_name": "LeakyReLU", "config": {"name": "leaky_re_lu_54", "trainable": true, "dtype": "float32", "alpha": 0.1}, "shared_object_id": 334}, "use_bias": false, "kernel_initializer": {"class_name": "GlorotUniform", "config": {"seed": null}}, "bias_initializer": {"class_name": "Zeros", "config": {}, "shared_object_id": 337}, "kernel_regularizer": null, "bias_regularizer": null, "activity_regularizer": null, "kernel_constraint": null, "bias_constraint": null, "depth_multiplier": 2, "depthwise_initializer": {"class_name": "GlorotUniform", "config": {"seed": null}}, "pointwise_initializer": {"class_name": "GlorotUniform", "config": {"seed": null}}, "depthwise_regularizer": null, "pointwise_regularizer": null, "depthwise_constraint": null, "pointwise_constraint": null}, "name": "vargface_stage_4_unit_1_step2_data", "inbound_nodes": [[["tf.compat.v1.pad_31", 0, 0, {}]]]}, {"class_name": "SeparableConv2D", "config": {"name": "vargface_stage_4_unit_1_shortcut", "trainable": true, "dtype": "float32", "filters": 320, "kernel_size": [3, 3], "strides": [2, 2], "padding": "valid", "data_format": "channels_last", "dilation_rate": [1, 1], "groups": 1, "activation": {"class_name": "LeakyReLU", "config": {"name": "leaky_re_lu_50", "trainable": true, "dtype": "float32", "alpha": 0.1}, "shared_object_id": 340}, "use_bias": false, "kernel_initializer": {"class_name": "GlorotUniform", "config": {"seed": null}}, "bias_initializer": {"class_name": "Zeros", "config": {}, "shared_object_id": 343}, "kernel_regularizer": null, "bias_regularizer": null, "activity_regularizer": null, "kernel_constraint": null, "bias_constraint": null, "depth_multiplier": 2, "depthwise_initializer": {"class_name": "GlorotUniform", "config": {"seed": null}}, "pointwise_initializer": {"class_name": "GlorotUniform", "config": {"seed": null}}, "depthwise_regularizer": null, "pointwise_regularizer": null, "depthwise_constraint": null, "pointwise_constraint": null}, "name": "vargface_stage_4_unit_1_shortcut", "inbound_nodes": [[["tf.compat.v1.pad_28", 0, 0, {}]]]}, {"class_name": "Add", "config": {"name": "add_14", "trainable": true, "dtype": "float32"}, "name": "add_14", "inbound_nodes": [[["vargface_stage_4_unit_1_step2_data", 0, 0, {}], ["vargface_stage_4_unit_1_shortcut", 0, 0, {}]]]}, {"class_name": "LeakyReLU", "config": {"name": "leaky_re_lu_55", "trainable": true, "dtype": "float32", "alpha": 0.1}, "name": "leaky_re_lu_55", "inbound_nodes": [[["add_14", 0, 0, {}]]]}, {"class_name": "TFOpLambda", "config": {"name": "tf.compat.v1.pad_32", "trainable": true, "dtype": "float32", "function": "compat.v1.pad"}, "name": "tf.compat.v1.pad_32", "inbound_nodes": [["leaky_re_lu_55", 0, 0, {"paddings": [[0, 0], [1, 1], [1, 1], [0, 0]], "mode": "CONSTANT", "name": null, "constant_values": 0}]]}, {"class_name": "SeparableConv2D", "config": {"name": "vargface_stage_4_unit_2_sep1_data", "trainable": true, "dtype": "float32", "filters": 320, "kernel_size": [3, 3], "strides": [1, 1], "padding": "valid", "data_format": "channels_last", "dilation_rate": [1, 1], "groups": 1, "activation": {"class_name": "LeakyReLU", "config": {"name": "leaky_re_lu_56", "trainable": true, "dtype": "float32", "alpha": 0.1}, "shared_object_id": 349}, "use_bias": false, "kernel_initializer": {"class_name": "GlorotUniform", "config": {"seed": null}}, "bias_initializer": {"class_name": "Zeros", "config": {}, "shared_object_id": 352}, "kernel_regularizer": null, "bias_regularizer": null, "activity_regularizer": null, "kernel_constraint": null, "bias_constraint": null, "depth_multiplier": 2, "depthwise_initializer": {"class_name": "GlorotUniform", "config": {"seed": null}}, "pointwise_initializer": {"class_name": "GlorotUniform", "config": {"seed": null}}, "depthwise_regularizer": null, "pointwise_regularizer": null, "depthwise_constraint": null, "pointwise_constraint": null}, "name": "vargface_stage_4_unit_2_sep1_data", "inbound_nodes": [[["tf.compat.v1.pad_32", 0, 0, {}]]]}, {"class_name": "TFOpLambda", "config": {"name": "tf.compat.v1.pad_33", "trainable": true, "dtype": "float32", "function": "compat.v1.pad"}, "name": "tf.compat.v1.pad_33", "inbound_nodes": [["vargface_stage_4_unit_2_sep1_data", 0, 0, {"paddings": [[0, 0], [1, 1], [1, 1], [0, 0]], "mode": "CONSTANT", "name": null, "constant_values": 0}]]}, {"class_name": "SeparableConv2D", "config": {"name": "vargface_stage_4_unit_2_sep2_data", "trainable": true, "dtype": "float32", "filters": 320, "kernel_size": [3, 3], "strides": [1, 1], "padding": "valid", "data_format": "channels_last", "dilation_rate": [1, 1], "groups": 1, "activation": {"class_name": "LeakyReLU", "config": {"name": "leaky_re_lu_57", "trainable": true, "dtype": "float32", "alpha": 0.1}, "shared_object_id": 356}, "use_bias": false, "kernel_initializer": {"class_name": "GlorotUniform", "config": {"seed": null}}, "bias_initializer": {"class_name": "Zeros", "config": {}, "shared_object_id": 359}, "kernel_regularizer": null, "bias_regularizer": null, "activity_regularizer": null, "kernel_constraint": null, "bias_constraint": null, "depth_multiplier": 2, "depthwise_initializer": {"class_name": "GlorotUniform", "config": {"seed": null}}, "pointwise_initializer": {"class_name": "GlorotUniform", "config": {"seed": null}}, "depthwise_regularizer": null, "pointwise_regularizer": null, "depthwise_constraint": null, "pointwise_constraint": null}, "name": "vargface_stage_4_unit_2_sep2_data", "inbound_nodes": [[["tf.compat.v1.pad_33", 0, 0, {}]]]}, {"class_name": "GlobalAveragePooling2D", "config": {"name": "vargface_stage_4_unit_2_se_pool1", "trainable": true, "dtype": "float32", "data_format": "channels_last", "keepdims": true}, "name": "vargface_stage_4_unit_2_se_pool1", "inbound_nodes": [[["vargface_stage_4_unit_2_sep2_data", 0, 0, {}]]]}, {"class_name": "Conv2D", "config": {"name": "vargface_stage_4_unit_2_se_conv1", "trainable": true, "dtype": "float32", "filters": 80, "kernel_size": [1, 1], "strides": [1, 1], "padding": "same", "data_format": "channels_last", "dilation_rate": [1, 1], "groups": 1, "activation": "linear", "use_bias": true, "kernel_initializer": {"class_name": "GlorotUniform", "config": {"seed": null}}, "bias_initializer": {"class_name": "Zeros", "config": {}}, "kernel_regularizer": null, "bias_regularizer": null, "activity_regularizer": null, "kernel_constraint": null, "bias_constraint": null}, "name": "vargface_stage_4_unit_2_se_conv1", "inbound_nodes": [[["vargface_stage_4_unit_2_se_pool1", 0, 0, {}]]]}, {"class_name": "LeakyReLU", "config": {"name": "leaky_re_lu_58", "trainable": true, "dtype": "float32", "alpha": 0.1}, "name": "leaky_re_lu_58", "inbound_nodes": [[["vargface_stage_4_unit_2_se_conv1", 0, 0, {}]]]}, {"class_name": "Conv2D", "config": {"name": "vargface_stage_4_unit_2_se_conv2", "trainable": true, "dtype": "float32", "filters": 320, "kernel_size": [1, 1], "strides": [1, 1], "padding": "valid", "data_format": "channels_last", "dilation_rate": [1, 1], "groups": 1, "activation": "linear", "use_bias": true, "kernel_initializer": {"class_name": "GlorotUniform", "config": {"seed": null}}, "bias_initializer": {"class_name": "Zeros", "config": {}}, "kernel_regularizer": null, "bias_regularizer": null, "activity_regularizer": null, "kernel_constraint": null, "bias_constraint": null}, "name": "vargface_stage_4_unit_2_se_conv2", "inbound_nodes": [[["leaky_re_lu_58", 0, 0, {}]]]}, {"class_name": "Activation", "config": {"name": "vargface_stage_4_unit_2_se_sigmoid", "trainable": true, "dtype": "float32", "activation": "sigmoid"}, "name": "vargface_stage_4_unit_2_se_sigmoid", "inbound_nodes": [[["vargface_stage_4_unit_2_se_conv2", 0, 0, {}]]]}, {"class_name": "Multiply", "config": {"name": "multiply_9", "trainable": true, "dtype": "float32"}, "name": "multiply_9", "inbound_nodes": [[["vargface_stage_4_unit_2_sep2_data", 0, 0, {}], ["vargface_stage_4_unit_2_se_sigmoid", 0, 0, {}]]]}, {"class_name": "Add", "config": {"name": "add_15", "trainable": true, "dtype": "float32"}, "name": "add_15", "inbound_nodes": [[["multiply_9", 0, 0, {}], ["leaky_re_lu_55", 0, 0, {}]]]}, {"class_name": "LeakyReLU", "config": {"name": "leaky_re_lu_59", "trainable": true, "dtype": "float32", "alpha": 0.1}, "name": "leaky_re_lu_59", "inbound_nodes": [[["add_15", 0, 0, {}]]]}, {"class_name": "TFOpLambda", "config": {"name": "tf.compat.v1.pad_34", "trainable": true, "dtype": "float32", "function": "compat.v1.pad"}, "name": "tf.compat.v1.pad_34", "inbound_nodes": [["leaky_re_lu_59", 0, 0, {"paddings": [[0, 0], [1, 1], [1, 1], [0, 0]], "mode": "CONSTANT", "name": null, "constant_values": 0}]]}, {"class_name": "SeparableConv2D", "config": {"name": "vargface_stage_4_unit_3_sep1_data", "trainable": true, "dtype": "float32", "filters": 320, "kernel_size": [3, 3], "strides": [1, 1], "padding": "valid", "data_format": "channels_last", "dilation_rate": [1, 1], "groups": 1, "activation": {"class_name": "LeakyReLU", "config": {"name": "leaky_re_lu_60", "trainable": true, "dtype": "float32", "alpha": 0.1}, "shared_object_id": 375}, "use_bias": false, "kernel_initializer": {"class_name": "GlorotUniform", "config": {"seed": null}}, "bias_initializer": {"class_name": "Zeros", "config": {}, "shared_object_id": 378}, "kernel_regularizer": null, "bias_regularizer": null, "activity_regularizer": null, "kernel_constraint": null, "bias_constraint": null, "depth_multiplier": 2, "depthwise_initializer": {"class_name": "GlorotUniform", "config": {"seed": null}}, "pointwise_initializer": {"class_name": "GlorotUniform", "config": {"seed": null}}, "depthwise_regularizer": null, "pointwise_regularizer": null, "depthwise_constraint": null, "pointwise_constraint": null}, "name": "vargface_stage_4_unit_3_sep1_data", "inbound_nodes": [[["tf.compat.v1.pad_34", 0, 0, {}]]]}, {"class_name": "TFOpLambda", "config": {"name": "tf.compat.v1.pad_35", "trainable": true, "dtype": "float32", "function": "compat.v1.pad"}, "name": "tf.compat.v1.pad_35", "inbound_nodes": [["vargface_stage_4_unit_3_sep1_data", 0, 0, {"paddings": [[0, 0], [1, 1], [1, 1], [0, 0]], "mode": "CONSTANT", "name": null, "constant_values": 0}]]}, {"class_name": "SeparableConv2D", "config": {"name": "vargface_stage_4_unit_3_sep2_data", "trainable": true, "dtype": "float32", "filters": 320, "kernel_size": [3, 3], "strides": [1, 1], "padding": "valid", "data_format": "channels_last", "dilation_rate": [1, 1], "groups": 1, "activation": {"class_name": "LeakyReLU", "config": {"name": "leaky_re_lu_61", "trainable": true, "dtype": "float32", "alpha": 0.1}, "shared_object_id": 382}, "use_bias": false, "kernel_initializer": {"class_name": "GlorotUniform", "config": {"seed": null}}, "bias_initializer": {"class_name": "Zeros", "config": {}, "shared_object_id": 385}, "kernel_regularizer": null, "bias_regularizer": null, "activity_regularizer": null, "kernel_constraint": null, "bias_constraint": null, "depth_multiplier": 2, "depthwise_initializer": {"class_name": "GlorotUniform", "config": {"seed": null}}, "pointwise_initializer": {"class_name": "GlorotUniform", "config": {"seed": null}}, "depthwise_regularizer": null, "pointwise_regularizer": null, "depthwise_constraint": null, "pointwise_constraint": null}, "name": "vargface_stage_4_unit_3_sep2_data", "inbound_nodes": [[["tf.compat.v1.pad_35", 0, 0, {}]]]}, {"class_name": "GlobalAveragePooling2D", "config": {"name": "vargface_stage_4_unit_3_se_pool1", "trainable": true, "dtype": "float32", "data_format": "channels_last", "keepdims": true}, "name": "vargface_stage_4_unit_3_se_pool1", "inbound_nodes": [[["vargface_stage_4_unit_3_sep2_data", 0, 0, {}]]]}, {"class_name": "Conv2D", "config": {"name": "vargface_stage_4_unit_3_se_conv1", "trainable": true, "dtype": "float32", "filters": 80, "kernel_size": [1, 1], "strides": [1, 1], "padding": "same", "data_format": "channels_last", "dilation_rate": [1, 1], "groups": 1, "activation": "linear", "use_bias": true, "kernel_initializer": {"class_name": "GlorotUniform", "config": {"seed": null}}, "bias_initializer": {"class_name": "Zeros", "config": {}}, "kernel_regularizer": null, "bias_regularizer": null, "activity_regularizer": null, "kernel_constraint": null, "bias_constraint": null}, "name": "vargface_stage_4_unit_3_se_conv1", "inbound_nodes": [[["vargface_stage_4_unit_3_se_pool1", 0, 0, {}]]]}, {"class_name": "LeakyReLU", "config": {"name": "leaky_re_lu_62", "trainable": true, "dtype": "float32", "alpha": 0.1}, "name": "leaky_re_lu_62", "inbound_nodes": [[["vargface_stage_4_unit_3_se_conv1", 0, 0, {}]]]}, {"class_name": "Conv2D", "config": {"name": "vargface_stage_4_unit_3_se_conv2", "trainable": true, "dtype": "float32", "filters": 320, "kernel_size": [1, 1], "strides": [1, 1], "padding": "valid", "data_format": "channels_last", "dilation_rate": [1, 1], "groups": 1, "activation": "linear", "use_bias": true, "kernel_initializer": {"class_name": "GlorotUniform", "config": {"seed": null}}, "bias_initializer": {"class_name": "Zeros", "config": {}}, "kernel_regularizer": null, "bias_regularizer": null, "activity_regularizer": null, "kernel_constraint": null, "bias_constraint": null}, "name": "vargface_stage_4_unit_3_se_conv2", "inbound_nodes": [[["leaky_re_lu_62", 0, 0, {}]]]}, {"class_name": "Activation", "config": {"name": "vargface_stage_4_unit_3_se_sigmoid", "trainable": true, "dtype": "float32", "activation": "sigmoid"}, "name": "vargface_stage_4_unit_3_se_sigmoid", "inbound_nodes": [[["vargface_stage_4_unit_3_se_conv2", 0, 0, {}]]]}, {"class_name": "Multiply", "config": {"name": "multiply_10", "trainable": true, "dtype": "float32"}, "name": "multiply_10", "inbound_nodes": [[["vargface_stage_4_unit_3_sep2_data", 0, 0, {}], ["vargface_stage_4_unit_3_se_sigmoid", 0, 0, {}]]]}, {"class_name": "Add", "config": {"name": "add_16", "trainable": true, "dtype": "float32"}, "name": "add_16", "inbound_nodes": [[["multiply_10", 0, 0, {}], ["leaky_re_lu_59", 0, 0, {}]]]}, {"class_name": "LeakyReLU", "config": {"name": "leaky_re_lu_63", "trainable": true, "dtype": "float32", "alpha": 0.1}, "name": "leaky_re_lu_63", "inbound_nodes": [[["add_16", 0, 0, {}]]]}, {"class_name": "TFOpLambda", "config": {"name": "tf.compat.v1.pad_36", "trainable": true, "dtype": "float32", "function": "compat.v1.pad"}, "name": "tf.compat.v1.pad_36", "inbound_nodes": [["leaky_re_lu_63", 0, 0, {"paddings": [[0, 0], [1, 1], [1, 1], [0, 0]], "mode": "CONSTANT", "name": null, "constant_values": 0}]]}, {"class_name": "SeparableConv2D", "config": {"name": "vargface_stage_4_unit_4_sep1_data", "trainable": true, "dtype": "float32", "filters": 320, "kernel_size": [3, 3], "strides": [1, 1], "padding": "valid", "data_format": "channels_last", "dilation_rate": [1, 1], "groups": 1, "activation": {"class_name": "LeakyReLU", "config": {"name": "leaky_re_lu_64", "trainable": true, "dtype": "float32", "alpha": 0.1}, "shared_object_id": 401}, "use_bias": false, "kernel_initializer": {"class_name": "GlorotUniform", "config": {"seed": null}}, "bias_initializer": {"class_name": "Zeros", "config": {}, "shared_object_id": 404}, "kernel_regularizer": null, "bias_regularizer": null, "activity_regularizer": null, "kernel_constraint": null, "bias_constraint": null, "depth_multiplier": 2, "depthwise_initializer": {"class_name": "GlorotUniform", "config": {"seed": null}}, "pointwise_initializer": {"class_name": "GlorotUniform", "config": {"seed": null}}, "depthwise_regularizer": null, "pointwise_regularizer": null, "depthwise_constraint": null, "pointwise_constraint": null}, "name": "vargface_stage_4_unit_4_sep1_data", "inbound_nodes": [[["tf.compat.v1.pad_36", 0, 0, {}]]]}, {"class_name": "TFOpLambda", "config": {"name": "tf.compat.v1.pad_37", "trainable": true, "dtype": "float32", "function": "compat.v1.pad"}, "name": "tf.compat.v1.pad_37", "inbound_nodes": [["vargface_stage_4_unit_4_sep1_data", 0, 0, {"paddings": [[0, 0], [1, 1], [1, 1], [0, 0]], "mode": "CONSTANT", "name": null, "constant_values": 0}]]}, {"class_name": "SeparableConv2D", "config": {"name": "vargface_stage_4_unit_4_sep2_data", "trainable": true, "dtype": "float32", "filters": 320, "kernel_size": [3, 3], "strides": [1, 1], "padding": "valid", "data_format": "channels_last", "dilation_rate": [1, 1], "groups": 1, "activation": {"class_name": "LeakyReLU", "config": {"name": "leaky_re_lu_65", "trainable": true, "dtype": "float32", "alpha": 0.1}, "shared_object_id": 408}, "use_bias": false, "kernel_initializer": {"class_name": "GlorotUniform", "config": {"seed": null}}, "bias_initializer": {"class_name": "Zeros", "config": {}, "shared_object_id": 411}, "kernel_regularizer": null, "bias_regularizer": null, "activity_regularizer": null, "kernel_constraint": null, "bias_constraint": null, "depth_multiplier": 2, "depthwise_initializer": {"class_name": "GlorotUniform", "config": {"seed": null}}, "pointwise_initializer": {"class_name": "GlorotUniform", "config": {"seed": null}}, "depthwise_regularizer": null, "pointwise_regularizer": null, "depthwise_constraint": null, "pointwise_constraint": null}, "name": "vargface_stage_4_unit_4_sep2_data", "inbound_nodes": [[["tf.compat.v1.pad_37", 0, 0, {}]]]}, {"class_name": "GlobalAveragePooling2D", "config": {"name": "vargface_stage_4_unit_4_se_pool1", "trainable": true, "dtype": "float32", "data_format": "channels_last", "keepdims": true}, "name": "vargface_stage_4_unit_4_se_pool1", "inbound_nodes": [[["vargface_stage_4_unit_4_sep2_data", 0, 0, {}]]]}, {"class_name": "Conv2D", "config": {"name": "vargface_stage_4_unit_4_se_conv1", "trainable": true, "dtype": "float32", "filters": 80, "kernel_size": [1, 1], "strides": [1, 1], "padding": "same", "data_format": "channels_last", "dilation_rate": [1, 1], "groups": 1, "activation": "linear", "use_bias": true, "kernel_initializer": {"class_name": "GlorotUniform", "config": {"seed": null}}, "bias_initializer": {"class_name": "Zeros", "config": {}}, "kernel_regularizer": null, "bias_regularizer": null, "activity_regularizer": null, "kernel_constraint": null, "bias_constraint": null}, "name": "vargface_stage_4_unit_4_se_conv1", "inbound_nodes": [[["vargface_stage_4_unit_4_se_pool1", 0, 0, {}]]]}, {"class_name": "LeakyReLU", "config": {"name": "leaky_re_lu_66", "trainable": true, "dtype": "float32", "alpha": 0.1}, "name": "leaky_re_lu_66", "inbound_nodes": [[["vargface_stage_4_unit_4_se_conv1", 0, 0, {}]]]}, {"class_name": "Conv2D", "config": {"name": "vargface_stage_4_unit_4_se_conv2", "trainable": true, "dtype": "float32", "filters": 320, "kernel_size": [1, 1], "strides": [1, 1], "padding": "valid", "data_format": "channels_last", "dilation_rate": [1, 1], "groups": 1, "activation": "linear", "use_bias": true, "kernel_initializer": {"class_name": "GlorotUniform", "config": {"seed": null}}, "bias_initializer": {"class_name": "Zeros", "config": {}}, "kernel_regularizer": null, "bias_regularizer": null, "activity_regularizer": null, "kernel_constraint": null, "bias_constraint": null}, "name": "vargface_stage_4_unit_4_se_conv2", "inbound_nodes": [[["leaky_re_lu_66", 0, 0, {}]]]}, {"class_name": "Activation", "config": {"name": "vargface_stage_4_unit_4_se_sigmoid", "trainable": true, "dtype": "float32", "activation": "sigmoid"}, "name": "vargface_stage_4_unit_4_se_sigmoid", "inbound_nodes": [[["vargface_stage_4_unit_4_se_conv2", 0, 0, {}]]]}, {"class_name": "Multiply", "config": {"name": "multiply_11", "trainable": true, "dtype": "float32"}, "name": "multiply_11", "inbound_nodes": [[["vargface_stage_4_unit_4_sep2_data", 0, 0, {}], ["vargface_stage_4_unit_4_se_sigmoid", 0, 0, {}]]]}, {"class_name": "Add", "config": {"name": "add_17", "trainable": true, "dtype": "float32"}, "name": "add_17", "inbound_nodes": [[["multiply_11", 0, 0, {}], ["leaky_re_lu_63", 0, 0, {}]]]}, {"class_name": "LeakyReLU", "config": {"name": "leaky_re_lu_67", "trainable": true, "dtype": "float32", "alpha": 0.1}, "name": "leaky_re_lu_67", "inbound_nodes": [[["add_17", 0, 0, {}]]]}, {"class_name": "Conv2D", "config": {"name": "vargnet_conv5", "trainable": true, "dtype": "float32", "filters": 1280, "kernel_size": [1, 1], "strides": [1, 1], "padding": "valid", "data_format": "channels_last", "dilation_rate": [1, 1], "groups": 1, "activation": "linear", "use_bias": false, "kernel_initializer": {"class_name": "GlorotUniform", "config": {"seed": null}}, "bias_initializer": {"class_name": "Zeros", "config": {}}, "kernel_regularizer": null, "bias_regularizer": null, "activity_regularizer": null, "kernel_constraint": null, "bias_constraint": null}, "name": "vargnet_conv5", "inbound_nodes": [[["leaky_re_lu_67", 0, 0, {}]]]}, {"class_name": "GlobalAveragePooling2D", "config": {"name": "global_average_pooling2d", "trainable": true, "dtype": "float32", "data_format": "channels_last", "keepdims": false}, "name": "global_average_pooling2d", "inbound_nodes": [[["vargnet_conv5", 0, 0, {}]]]}], "input_layers": [["input_2", 0, 0]], "output_layers": [["global_average_pooling2d", 0, 0]]}}}, "weightsManifest": [{"paths": ["group1-shard1of4.bin", "group1-shard2of4.bin", "group1-shard3of4.bin", "group1-shard4of4.bin"], "weights": [{"name": "vargface_head_conv1/kernel", "shape": [3, 3, 3, 40], "dtype": "float32"}, {"name": "vargface_head_conv1_bn/beta", "shape": [40], "dtype": "float32"}, {"name": "vargface_head_conv1_bn/moving_mean", "shape": [40], "dtype": "float32"}, {"name": "vargface_head_conv1_bn/moving_variance", "shape": [40], "dtype": "float32"}, {"name": "vargface_head_head_pooling_se_conv1/kernel", "shape": [1, 1, 40, 10], "dtype": "float32"}, {"name": "vargface_head_head_pooling_se_conv1/bias", "shape": [10], "dtype": "float32"}, {"name": "vargface_head_head_pooling_se_conv2/kernel", "shape": [1, 1, 10, 40], "dtype": "float32"}, {"name": "vargface_head_head_pooling_se_conv2/bias", "shape": [40], "dtype": "float32"}, {"name": "vargface_head_head_pooling_sep1_data/depthwise_kernel", "shape": [3, 3, 40, 1], "dtype": "float32"}, {"name": "vargface_head_head_pooling_sep1_data/pointwise_kernel", "shape": [1, 1, 40, 40], "dtype": "float32"}, {"name": "vargface_head_head_pooling_sep2_data/depthwise_kernel", "shape": [3, 3, 40, 1], "dtype": "float32"}, {"name": "vargface_head_head_pooling_sep2_data/pointwise_kernel", "shape": [1, 1, 40, 40], "dtype": "float32"}, {"name": "vargface_head_head_pooling_shortcut/depthwise_kernel", "shape": [3, 3, 40, 1], "dtype": "float32"}, {"name": "vargface_head_head_pooling_shortcut/pointwise_kernel", "shape": [1, 1, 40, 40], "dtype": "float32"}, {"name": "vargface_stage_2_unit_1_shortcut/depthwise_kernel", "shape": [3, 3, 40, 2], "dtype": "float32"}, {"name": "vargface_stage_2_unit_1_shortcut/pointwise_kernel", "shape": [1, 1, 80, 80], "dtype": "float32"}, {"name": "vargface_stage_2_unit_1_step1_data_branch/depthwise_kernel", "shape": [3, 3, 40, 2], "dtype": "float32"}, {"name": "vargface_stage_2_unit_1_step1_data_branch/pointwise_kernel", "shape": [1, 1, 80, 80], "dtype": "float32"}, {"name": "vargface_stage_2_unit_1_step2_data/depthwise_kernel", "shape": [3, 3, 80, 2], "dtype": "float32"}, {"name": "vargface_stage_2_unit_1_step2_data/pointwise_kernel", "shape": [1, 1, 160, 80], "dtype": "float32"}, {"name": "vargface_stage_2_unit_1_step2_data_branch/depthwise_kernel", "shape": [3, 3, 40, 2], "dtype": "float32"}, {"name": "vargface_stage_2_unit_1_step2_data_branch/pointwise_kernel", "shape": [1, 1, 80, 80], "dtype": "float32"}, {"name": "vargface_stage_2_unit_2_se_conv1/kernel", "shape": [1, 1, 80, 20], "dtype": "float32"}, {"name": "vargface_stage_2_unit_2_se_conv1/bias", "shape": [20], "dtype": "float32"}, {"name": "vargface_stage_2_unit_2_se_conv2/kernel", "shape": [1, 1, 20, 80], "dtype": "float32"}, {"name": "vargface_stage_2_unit_2_se_conv2/bias", "shape": [80], "dtype": "float32"}, {"name": "vargface_stage_2_unit_2_sep1_data/depthwise_kernel", "shape": [3, 3, 80, 2], "dtype": "float32"}, {"name": "vargface_stage_2_unit_2_sep1_data/pointwise_kernel", "shape": [1, 1, 160, 80], "dtype": "float32"}, {"name": "vargface_stage_2_unit_2_sep2_data/depthwise_kernel", "shape": [3, 3, 80, 2], "dtype": "float32"}, {"name": "vargface_stage_2_unit_2_sep2_data/pointwise_kernel", "shape": [1, 1, 160, 80], "dtype": "float32"}, {"name": "vargface_stage_2_unit_3_se_conv1/kernel", "shape": [1, 1, 80, 20], "dtype": "float32"}, {"name": "vargface_stage_2_unit_3_se_conv1/bias", "shape": [20], "dtype": "float32"}, {"name": "vargface_stage_2_unit_3_se_conv2/kernel", "shape": [1, 1, 20, 80], "dtype": "float32"}, {"name": "vargface_stage_2_unit_3_se_conv2/bias", "shape": [80], "dtype": "float32"}, {"name": "vargface_stage_2_unit_3_sep1_data/depthwise_kernel", "shape": [3, 3, 80, 2], "dtype": "float32"}, {"name": "vargface_stage_2_unit_3_sep1_data/pointwise_kernel", "shape": [1, 1, 160, 80], "dtype": "float32"}, {"name": "vargface_stage_2_unit_3_sep2_data/depthwise_kernel", "shape": [3, 3, 80, 2], "dtype": "float32"}, {"name": "vargface_stage_2_unit_3_sep2_data/pointwise_kernel", "shape": [1, 1, 160, 80], "dtype": "float32"}, {"name": "vargface_stage_3_unit_1_shortcut/depthwise_kernel", "shape": [3, 3, 80, 2], "dtype": "float32"}, {"name": "vargface_stage_3_unit_1_shortcut/pointwise_kernel", "shape": [1, 1, 160, 160], "dtype": "float32"}, {"name": "vargface_stage_3_unit_1_step1_data_branch/depthwise_kernel", "shape": [3, 3, 80, 2], "dtype": "float32"}, {"name": "vargface_stage_3_unit_1_step1_data_branch/pointwise_kernel", "shape": [1, 1, 160, 160], "dtype": "float32"}, {"name": "vargface_stage_3_unit_1_step2_data/depthwise_kernel", "shape": [3, 3, 160, 2], "dtype": "float32"}, {"name": "vargface_stage_3_unit_1_step2_data/pointwise_kernel", "shape": [1, 1, 320, 160], "dtype": "float32"}, {"name": "vargface_stage_3_unit_1_step2_data_branch/depthwise_kernel", "shape": [3, 3, 80, 2], "dtype": "float32"}, {"name": "vargface_stage_3_unit_1_step2_data_branch/pointwise_kernel", "shape": [1, 1, 160, 160], "dtype": "float32"}, {"name": "vargface_stage_3_unit_2_se_conv1/kernel", "shape": [1, 1, 160, 40], "dtype": "float32"}, {"name": "vargface_stage_3_unit_2_se_conv1/bias", "shape": [40], "dtype": "float32"}, {"name": "vargface_stage_3_unit_2_se_conv2/kernel", "shape": [1, 1, 40, 160], "dtype": "float32"}, {"name": "vargface_stage_3_unit_2_se_conv2/bias", "shape": [160], "dtype": "float32"}, {"name": "vargface_stage_3_unit_2_sep1_data/depthwise_kernel", "shape": [3, 3, 160, 2], "dtype": "float32"}, {"name": "vargface_stage_3_unit_2_sep1_data/pointwise_kernel", "shape": [1, 1, 320, 160], "dtype": "float32"}, {"name": "vargface_stage_3_unit_2_sep2_data/depthwise_kernel", "shape": [3, 3, 160, 2], "dtype": "float32"}, {"name": "vargface_stage_3_unit_2_sep2_data/pointwise_kernel", "shape": [1, 1, 320, 160], "dtype": "float32"}, {"name": "vargface_stage_3_unit_3_se_conv1/kernel", "shape": [1, 1, 160, 40], "dtype": "float32"}, {"name": "vargface_stage_3_unit_3_se_conv1/bias", "shape": [40], "dtype": "float32"}, {"name": "vargface_stage_3_unit_3_se_conv2/kernel", "shape": [1, 1, 40, 160], "dtype": "float32"}, {"name": "vargface_stage_3_unit_3_se_conv2/bias", "shape": [160], "dtype": "float32"}, {"name": "vargface_stage_3_unit_3_sep1_data/depthwise_kernel", "shape": [3, 3, 160, 2], "dtype": "float32"}, {"name": "vargface_stage_3_unit_3_sep1_data/pointwise_kernel", "shape": [1, 1, 320, 160], "dtype": "float32"}, {"name": "vargface_stage_3_unit_3_sep2_data/depthwise_kernel", "shape": [3, 3, 160, 2], "dtype": "float32"}, {"name": "vargface_stage_3_unit_3_sep2_data/pointwise_kernel", "shape": [1, 1, 320, 160], "dtype": "float32"}, {"name": "vargface_stage_3_unit_4_se_conv1/kernel", "shape": [1, 1, 160, 40], "dtype": "float32"}, {"name": "vargface_stage_3_unit_4_se_conv1/bias", "shape": [40], "dtype": "float32"}, {"name": "vargface_stage_3_unit_4_se_conv2/kernel", "shape": [1, 1, 40, 160], "dtype": "float32"}, {"name": "vargface_stage_3_unit_4_se_conv2/bias", "shape": [160], "dtype": "float32"}, {"name": "vargface_stage_3_unit_4_sep1_data/depthwise_kernel", "shape": [3, 3, 160, 2], "dtype": "float32"}, {"name": "vargface_stage_3_unit_4_sep1_data/pointwise_kernel", "shape": [1, 1, 320, 160], "dtype": "float32"}, {"name": "vargface_stage_3_unit_4_sep2_data/depthwise_kernel", "shape": [3, 3, 160, 2], "dtype": "float32"}, {"name": "vargface_stage_3_unit_4_sep2_data/pointwise_kernel", "shape": [1, 1, 320, 160], "dtype": "float32"}, {"name": "vargface_stage_3_unit_5_se_conv1/kernel", "shape": [1, 1, 160, 40], "dtype": "float32"}, {"name": "vargface_stage_3_unit_5_se_conv1/bias", "shape": [40], "dtype": "float32"}, {"name": "vargface_stage_3_unit_5_se_conv2/kernel", "shape": [1, 1, 40, 160], "dtype": "float32"}, {"name": "vargface_stage_3_unit_5_se_conv2/bias", "shape": [160], "dtype": "float32"}, {"name": "vargface_stage_3_unit_5_sep1_data/depthwise_kernel", "shape": [3, 3, 160, 2], "dtype": "float32"}, {"name": "vargface_stage_3_unit_5_sep1_data/pointwise_kernel", "shape": [1, 1, 320, 160], "dtype": "float32"}, {"name": "vargface_stage_3_unit_5_sep2_data/depthwise_kernel", "shape": [3, 3, 160, 2], "dtype": "float32"}, {"name": "vargface_stage_3_unit_5_sep2_data/pointwise_kernel", "shape": [1, 1, 320, 160], "dtype": "float32"}, {"name": "vargface_stage_3_unit_6_se_conv1/kernel", "shape": [1, 1, 160, 40], "dtype": "float32"}, {"name": "vargface_stage_3_unit_6_se_conv1/bias", "shape": [40], "dtype": "float32"}, {"name": "vargface_stage_3_unit_6_se_conv2/kernel", "shape": [1, 1, 40, 160], "dtype": "float32"}, {"name": "vargface_stage_3_unit_6_se_conv2/bias", "shape": [160], "dtype": "float32"}, {"name": "vargface_stage_3_unit_6_sep1_data/depthwise_kernel", "shape": [3, 3, 160, 2], "dtype": "float32"}, {"name": "vargface_stage_3_unit_6_sep1_data/pointwise_kernel", "shape": [1, 1, 320, 160], "dtype": "float32"}, {"name": "vargface_stage_3_unit_6_sep2_data/depthwise_kernel", "shape": [3, 3, 160, 2], "dtype": "float32"}, {"name": "vargface_stage_3_unit_6_sep2_data/pointwise_kernel", "shape": [1, 1, 320, 160], "dtype": "float32"}, {"name": "vargface_stage_3_unit_7_se_conv1/kernel", "shape": [1, 1, 160, 40], "dtype": "float32"}, {"name": "vargface_stage_3_unit_7_se_conv1/bias", "shape": [40], "dtype": "float32"}, {"name": "vargface_stage_3_unit_7_se_conv2/kernel", "shape": [1, 1, 40, 160], "dtype": "float32"}, {"name": "vargface_stage_3_unit_7_se_conv2/bias", "shape": [160], "dtype": "float32"}, {"name": "vargface_stage_3_unit_7_sep1_data/depthwise_kernel", "shape": [3, 3, 160, 2], "dtype": "float32"}, {"name": "vargface_stage_3_unit_7_sep1_data/pointwise_kernel", "shape": [1, 1, 320, 160], "dtype": "float32"}, {"name": "vargface_stage_3_unit_7_sep2_data/depthwise_kernel", "shape": [3, 3, 160, 2], "dtype": "float32"}, {"name": "vargface_stage_3_unit_7_sep2_data/pointwise_kernel", "shape": [1, 1, 320, 160], "dtype": "float32"}, {"name": "vargface_stage_4_unit_1_shortcut/depthwise_kernel", "shape": [3, 3, 160, 2], "dtype": "float32"}, {"name": "vargface_stage_4_unit_1_shortcut/pointwise_kernel", "shape": [1, 1, 320, 320], "dtype": "float32"}, {"name": "vargface_stage_4_unit_1_step1_data_branch/depthwise_kernel", "shape": [3, 3, 160, 2], "dtype": "float32"}, {"name": "vargface_stage_4_unit_1_step1_data_branch/pointwise_kernel", "shape": [1, 1, 320, 320], "dtype": "float32"}, {"name": "vargface_stage_4_unit_1_step2_data/depthwise_kernel", "shape": [3, 3, 320, 2], "dtype": "float32"}, {"name": "vargface_stage_4_unit_1_step2_data/pointwise_kernel", "shape": [1, 1, 640, 320], "dtype": "float32"}, {"name": "vargface_stage_4_unit_1_step2_data_branch/depthwise_kernel", "shape": [3, 3, 160, 2], "dtype": "float32"}, {"name": "vargface_stage_4_unit_1_step2_data_branch/pointwise_kernel", "shape": [1, 1, 320, 320], "dtype": "float32"}, {"name": "vargface_stage_4_unit_2_se_conv1/kernel", "shape": [1, 1, 320, 80], "dtype": "float32"}, {"name": "vargface_stage_4_unit_2_se_conv1/bias", "shape": [80], "dtype": "float32"}, {"name": "vargface_stage_4_unit_2_se_conv2/kernel", "shape": [1, 1, 80, 320], "dtype": "float32"}, {"name": "vargface_stage_4_unit_2_se_conv2/bias", "shape": [320], "dtype": "float32"}, {"name": "vargface_stage_4_unit_2_sep1_data/depthwise_kernel", "shape": [3, 3, 320, 2], "dtype": "float32"}, {"name": "vargface_stage_4_unit_2_sep1_data/pointwise_kernel", "shape": [1, 1, 640, 320], "dtype": "float32"}, {"name": "vargface_stage_4_unit_2_sep2_data/depthwise_kernel", "shape": [3, 3, 320, 2], "dtype": "float32"}, {"name": "vargface_stage_4_unit_2_sep2_data/pointwise_kernel", "shape": [1, 1, 640, 320], "dtype": "float32"}, {"name": "vargface_stage_4_unit_3_se_conv1/kernel", "shape": [1, 1, 320, 80], "dtype": "float32"}, {"name": "vargface_stage_4_unit_3_se_conv1/bias", "shape": [80], "dtype": "float32"}, {"name": "vargface_stage_4_unit_3_se_conv2/kernel", "shape": [1, 1, 80, 320], "dtype": "float32"}, {"name": "vargface_stage_4_unit_3_se_conv2/bias", "shape": [320], "dtype": "float32"}, {"name": "vargface_stage_4_unit_3_sep1_data/depthwise_kernel", "shape": [3, 3, 320, 2], "dtype": "float32"}, {"name": "vargface_stage_4_unit_3_sep1_data/pointwise_kernel", "shape": [1, 1, 640, 320], "dtype": "float32"}, {"name": "vargface_stage_4_unit_3_sep2_data/depthwise_kernel", "shape": [3, 3, 320, 2], "dtype": "float32"}, {"name": "vargface_stage_4_unit_3_sep2_data/pointwise_kernel", "shape": [1, 1, 640, 320], "dtype": "float32"}, {"name": "vargface_stage_4_unit_4_se_conv1/kernel", "shape": [1, 1, 320, 80], "dtype": "float32"}, {"name": "vargface_stage_4_unit_4_se_conv1/bias", "shape": [80], "dtype": "float32"}, {"name": "vargface_stage_4_unit_4_se_conv2/kernel", "shape": [1, 1, 80, 320], "dtype": "float32"}, {"name": "vargface_stage_4_unit_4_se_conv2/bias", "shape": [320], "dtype": "float32"}, {"name": "vargface_stage_4_unit_4_sep1_data/depthwise_kernel", "shape": [3, 3, 320, 2], "dtype": "float32"}, {"name": "vargface_stage_4_unit_4_sep1_data/pointwise_kernel", "shape": [1, 1, 640, 320], "dtype": "float32"}, {"name": "vargface_stage_4_unit_4_sep2_data/depthwise_kernel", "shape": [3, 3, 320, 2], "dtype": "float32"}, {"name": "vargface_stage_4_unit_4_sep2_data/pointwise_kernel", "shape": [1, 1, 640, 320], "dtype": "float32"}, {"name": "vargnet_conv5/kernel", "shape": [1, 1, 320, 1280], "dtype": "float32"}]}]}