{"format": "layers-model", "generatedBy": "keras v2.6.0", "convertedBy": "TensorFlow.js Converter v3.11.0", "modelTopology": {"keras_version": "2.6.0", "backend": "tensorflow", "model_config": {"class_name": "Functional", "config": {"name": "retinaface_VarGNet", "layers": [{"class_name": "InputLayer", "config": {"batch_input_shape": [null, 640, 640, 3], "dtype": "float32", "sparse": false, "ragged": false, "name": "RetinaFaceModel_input_image"}, "name": "RetinaFaceModel_input_image", "inbound_nodes": []}, {"class_name": "Functional", "config": {"name": "VarGNet_extrator", "layers": [{"class_name": "InputLayer", "config": {"batch_input_shape": [null, 640, 640, 3], "dtype": "float32", "sparse": false, "ragged": false, "name": "input_1"}, "name": "input_1", "inbound_nodes": []}, {"class_name": "ZeroPadding2D", "config": {"name": "zero_padding2d", "trainable": true, "dtype": "float32", "padding": [[1, 1], [1, 1]], "data_format": "channels_last"}, "name": "zero_padding2d", "inbound_nodes": [[["input_1", 0, 0, {}]]]}, {"class_name": "Conv2D", "config": {"name": "vargface_head_conv1", "trainable": true, "dtype": "float32", "filters": 40, "kernel_size": [3, 3], "strides": [2, 2], "padding": "valid", "data_format": "channels_last", "dilation_rate": [1, 1], "groups": 1, "activation": "linear", "use_bias": false, "depthwise_initializer": {"class_name": "GlorotUniform", "config": {"seed": null}}, "bias_initializer": {"class_name": "Zeros", "config": {}}, "depthwise_intializer": null, "bias_regularizer": null, "activity_regularizer": null, "depthwise_constraint": null, "bias_constraint": null}, "name": "vargface_head_conv1", "inbound_nodes": [[["zero_padding2d", 0, 0, {}]]]}, {"class_name": "BatchNormalization", "config": {"name": "vargface_head_conv1_bn", "trainable": true, "dtype": "float32", "axis": [3], "momentum": 0.9, "epsilon": 2e-05, "center": true, "scale": false, "beta_initializer": {"class_name": "Zeros", "config": {}}, "gamma_initializer": {"class_name": "Ones", "config": {}}, "moving_mean_initializer": {"class_name": "Zeros", "config": {}}, "moving_variance_initializer": {"class_name": "Ones", "config": {}}, "beta_regularizer": null, "gamma_regularizer": null, "beta_constraint": null, "gamma_constraint": null}, "name": "vargface_head_conv1_bn", "inbound_nodes": [[["vargface_head_conv1", 0, 0, {}]]]}, {"class_name": "LeakyReLU", "config": {"name": "leaky_re_lu", "trainable": true, "dtype": "float32", "alpha": 0.1}, "name": "leaky_re_lu", "inbound_nodes": [[["vargface_head_conv1_bn", 0, 0, {}]]]}, {"class_name": "ZeroPadding2D", "config": {"name": "zero_padding2d_2", "trainable": true, "dtype": "float32", "padding": [[1, 1], [1, 1]], "data_format": "channels_last"}, "name": "zero_padding2d_2", "inbound_nodes": [[["leaky_re_lu", 0, 0, {}]]]}, {"class_name": "SeparableConv2D", "config": {"name": "vargface_head_head_pooling_sep1_data", "trainable": true, "dtype": "float32", "filters": 40, "kernel_size": [3, 3], "strides": [2, 2], "padding": "valid", "data_format": "channels_last", "dilation_rate": [1, 1], "groups": 1, "activation": {"class_name": "LeakyReLU", "config": {"name": "leaky_re_lu_2", "trainable": true, "dtype": "float32", "alpha": 0.1}, "shared_object_id": 13}, "use_bias": false, "depthwise_initializer": {"class_name": "GlorotUniform", "config": {"seed": null}}, "bias_initializer": {"class_name": "Zeros", "config": {}, "shared_object_id": 16}, "depthwise_intializer": null, "bias_regularizer": null, "activity_regularizer": null, "depthwise_constraint": null, "bias_constraint": null, "depth_multiplier": 1, "depthwise_initializer": {"class_name": "GlorotUniform", "config": {"seed": null}}, "pointwise_initializer": {"class_name": "GlorotUniform", "config": {"seed": null}}, "depthwise_regularizer": null, "pointwise_regularizer": null, "depthwise_constraint": null, "pointwise_constraint": null}, "name": "vargface_head_head_pooling_sep1_data", "inbound_nodes": [[["zero_padding2d_2", 0, 0, {}]]]}, {"class_name": "ZeroPadding2D", "config": {"name": "zero_padding2d_3", "trainable": true, "dtype": "float32", "padding": [[1, 1], [1, 1]], "data_format": "channels_last"}, "name": "zero_padding2d_3", "inbound_nodes": [[["vargface_head_head_pooling_sep1_data", 0, 0, {}]]]}, {"class_name": "SeparableConv2D", "config": {"name": "vargface_head_head_pooling_sep2_data", "trainable": true, "dtype": "float32", "filters": 40, "kernel_size": [3, 3], "strides": [1, 1], "padding": "valid", "data_format": "channels_last", "dilation_rate": [1, 1], "groups": 1, "activation": {"class_name": "LeakyReLU", "config": {"name": "leaky_re_lu_3", "trainable": true, "dtype": "float32", "alpha": 0.1}, "shared_object_id": 20}, "use_bias": false, "depthwise_initializer": {"class_name": "GlorotUniform", "config": {"seed": null}}, "bias_initializer": {"class_name": "Zeros", "config": {}, "shared_object_id": 23}, "depthwise_intializer": null, "bias_regularizer": null, "activity_regularizer": null, "depthwise_constraint": null, "bias_constraint": null, "depth_multiplier": 1, "depthwise_initializer": {"class_name": "GlorotUniform", "config": {"seed": null}}, "pointwise_initializer": {"class_name": "GlorotUniform", "config": {"seed": null}}, "depthwise_regularizer": null, "pointwise_regularizer": null, "depthwise_constraint": null, "pointwise_constraint": null}, "name": "vargface_head_head_pooling_sep2_data", "inbound_nodes": [[["zero_padding2d_3", 0, 0, {}]]]}, {"class_name": "GlobalAveragePooling2D", "config": {"name": "vargface_head_head_pooling_se_pool1", "trainable": true, "dtype": "float32", "data_format": "channels_last", "keepdims": true}, "name": "vargface_head_head_pooling_se_pool1", "inbound_nodes": [[["vargface_head_head_pooling_sep2_data", 0, 0, {}]]]}, {"class_name": "Reshape", "config": {"name": "reshape", "trainable": true, "dtype": "float32", "target_shape": [1, 1, 40]}, "name": "reshape", "inbound_nodes": [[["vargface_head_head_pooling_se_pool1", 0, 0, {}]]]}, {"class_name": "Conv2D", "config": {"name": "vargface_head_head_pooling_se_conv1", "trainable": true, "dtype": "float32", "filters": 10, "kernel_size": [1, 1], "strides": [1, 1], "padding": "same", "data_format": "channels_last", "dilation_rate": [1, 1], "groups": 1, "activation": "linear", "use_bias": true, "depthwise_initializer": {"class_name": "GlorotUniform", "config": {"seed": null}}, "bias_initializer": {"class_name": "Zeros", "config": {}}, "depthwise_intializer": null, "bias_regularizer": null, "activity_regularizer": null, "depthwise_constraint": null, "bias_constraint": null}, "name": "vargface_head_head_pooling_se_conv1", "inbound_nodes": [[["reshape", 0, 0, {}]]]}, {"class_name": "LeakyReLU", "config": {"name": "leaky_re_lu_4", "trainable": true, "dtype": "float32", "alpha": 0.1}, "name": "leaky_re_lu_4", "inbound_nodes": [[["vargface_head_head_pooling_se_conv1", 0, 0, {}]]]}, {"class_name": "Conv2D", "config": {"name": "vargface_head_head_pooling_se_conv2", "trainable": true, "dtype": "float32", "filters": 40, "kernel_size": [1, 1], "strides": [1, 1], "padding": "valid", "data_format": "channels_last", "dilation_rate": [1, 1], "groups": 1, "activation": "linear", "use_bias": true, "depthwise_initializer": {"class_name": "GlorotUniform", "config": {"seed": null}}, "bias_initializer": {"class_name": "Zeros", "config": {}}, "depthwise_intializer": null, "bias_regularizer": null, "activity_regularizer": null, "depthwise_constraint": null, "bias_constraint": null}, "name": "vargface_head_head_pooling_se_conv2", "inbound_nodes": [[["leaky_re_lu_4", 0, 0, {}]]]}, {"class_name": "Activation", "config": {"name": "vargface_head_head_pooling_se_sigmoid", "trainable": true, "dtype": "float32", "activation": "sigmoid"}, "name": "vargface_head_head_pooling_se_sigmoid", "inbound_nodes": [[["vargface_head_head_pooling_se_conv2", 0, 0, {}]]]}, {"class_name": "ZeroPadding2D", "config": {"name": "zero_padding2d_1", "trainable": true, "dtype": "float32", "padding": [[1, 1], [1, 1]], "data_format": "channels_last"}, "name": "zero_padding2d_1", "inbound_nodes": [[["leaky_re_lu", 0, 0, {}]]]}, {"class_name": "Multiply", "config": {"name": "multiply", "trainable": true, "dtype": "float32"}, "name": "multiply", "inbound_nodes": [[["vargface_head_head_pooling_sep2_data", 0, 0, {}], ["vargface_head_head_pooling_se_sigmoid", 0, 0, {}]]]}, {"class_name": "SeparableConv2D", "config": {"name": "vargface_head_head_pooling_shortcut", "trainable": true, "dtype": "float32", "filters": 40, "kernel_size": [3, 3], "strides": [2, 2], "padding": "valid", "data_format": "channels_last", "dilation_rate": [1, 1], "groups": 1, "activation": {"class_name": "LeakyReLU", "config": {"name": "leaky_re_lu_1", "trainable": true, "dtype": "float32", "alpha": 0.1}, "shared_object_id": 38}, "use_bias": false, "depthwise_initializer": {"class_name": "GlorotUniform", "config": {"seed": null}}, "bias_initializer": {"class_name": "Zeros", "config": {}, "shared_object_id": 41}, "depthwise_intializer": null, "bias_regularizer": null, "activity_regularizer": null, "depthwise_constraint": null, "bias_constraint": null, "depth_multiplier": 1, "depthwise_initializer": {"class_name": "GlorotUniform", "config": {"seed": null}}, "pointwise_initializer": {"class_name": "GlorotUniform", "config": {"seed": null}}, "depthwise_regularizer": null, "pointwise_regularizer": null, "depthwise_constraint": null, "pointwise_constraint": null}, "name": "vargface_head_head_pooling_shortcut", "inbound_nodes": [[["zero_padding2d_1", 0, 0, {}]]]}, {"class_name": "Add", "config": {"name": "add", "trainable": true, "dtype": "float32"}, "name": "add", "inbound_nodes": [[["multiply", 0, 0, {}], ["vargface_head_head_pooling_shortcut", 0, 0, {}]]]}, {"class_name": "LeakyReLU", "config": {"name": "leaky_re_lu_5", "trainable": true, "dtype": "float32", "alpha": 0.1}, "name": "leaky_re_lu_5", "inbound_nodes": [[["add", 0, 0, {}]]]}, {"class_name": "ZeroPadding2D", "config": {"name": "zero_padding2d_5", "trainable": true, "dtype": "float32", "padding": [[1, 1], [1, 1]], "data_format": "channels_last"}, "name": "zero_padding2d_5", "inbound_nodes": [[["leaky_re_lu_5", 0, 0, {}]]]}, {"class_name": "ZeroPadding2D", "config": {"name": "zero_padding2d_6", "trainable": true, "dtype": "float32", "padding": [[1, 1], [1, 1]], "data_format": "channels_last"}, "name": "zero_padding2d_6", "inbound_nodes": [[["leaky_re_lu_5", 0, 0, {}]]]}, {"class_name": "SeparableConv2D", "config": {"name": "vargface_stage_2_unit_1_step1_data_branch", "trainable": true, "dtype": "float32", "filters": 80, "kernel_size": [3, 3], "strides": [2, 2], "padding": "valid", "data_format": "channels_last", "dilation_rate": [1, 1], "groups": 1, "activation": {"class_name": "LeakyReLU", "config": {"name": "leaky_re_lu_7", "trainable": true, "dtype": "float32", "alpha": 0.1}, "shared_object_id": 48}, "use_bias": false, "depthwise_initializer": {"class_name": "GlorotUniform", "config": {"seed": null}}, "bias_initializer": {"class_name": "Zeros", "config": {}, "shared_object_id": 51}, "depthwise_intializer": null, "bias_regularizer": null, "activity_regularizer": null, "depthwise_constraint": null, "bias_constraint": null, "depth_multiplier": 2, "depthwise_initializer": {"class_name": "GlorotUniform", "config": {"seed": null}}, "pointwise_initializer": {"class_name": "GlorotUniform", "config": {"seed": null}}, "depthwise_regularizer": null, "pointwise_regularizer": null, "depthwise_constraint": null, "pointwise_constraint": null}, "name": "vargface_stage_2_unit_1_step1_data_branch", "inbound_nodes": [[["zero_padding2d_5", 0, 0, {}]]]}, {"class_name": "SeparableConv2D", "config": {"name": "vargface_stage_2_unit_1_step2_data_branch", "trainable": true, "dtype": "float32", "filters": 80, "kernel_size": [3, 3], "strides": [2, 2], "padding": "valid", "data_format": "channels_last", "dilation_rate": [1, 1], "groups": 1, "activation": {"class_name": "LeakyReLU", "config": {"name": "leaky_re_lu_8", "trainable": true, "dtype": "float32", "alpha": 0.1}, "shared_object_id": 54}, "use_bias": false, "depthwise_initializer": {"class_name": "GlorotUniform", "config": {"seed": null}}, "bias_initializer": {"class_name": "Zeros", "config": {}, "shared_object_id": 57}, "depthwise_intializer": null, "bias_regularizer": null, "activity_regularizer": null, "depthwise_constraint": null, "bias_constraint": null, "depth_multiplier": 2, "depthwise_initializer": {"class_name": "GlorotUniform", "config": {"seed": null}}, "pointwise_initializer": {"class_name": "GlorotUniform", "config": {"seed": null}}, "depthwise_regularizer": null, "pointwise_regularizer": null, "depthwise_constraint": null, "pointwise_constraint": null}, "name": "vargface_stage_2_unit_1_step2_data_branch", "inbound_nodes": [[["zero_padding2d_6", 0, 0, {}]]]}, {"class_name": "Add", "config": {"name": "add_1", "trainable": true, "dtype": "float32"}, "name": "add_1", "inbound_nodes": [[["vargface_stage_2_unit_1_step1_data_branch", 0, 0, {}], ["vargface_stage_2_unit_1_step2_data_branch", 0, 0, {}]]]}, {"class_name": "LeakyReLU", "config": {"name": "leaky_re_lu_9", "trainable": true, "dtype": "float32", "alpha": 0.1}, "name": "leaky_re_lu_9", "inbound_nodes": [[["add_1", 0, 0, {}]]]}, {"class_name": "ZeroPadding2D", "config": {"name": "zero_padding2d_7", "trainable": true, "dtype": "float32", "padding": [[1, 1], [1, 1]], "data_format": "channels_last"}, "name": "zero_padding2d_7", "inbound_nodes": [[["leaky_re_lu_9", 0, 0, {}]]]}, {"class_name": "ZeroPadding2D", "config": {"name": "zero_padding2d_4", "trainable": true, "dtype": "float32", "padding": [[1, 1], [1, 1]], "data_format": "channels_last"}, "name": "zero_padding2d_4", "inbound_nodes": [[["leaky_re_lu_5", 0, 0, {}]]]}, {"class_name": "SeparableConv2D", "config": {"name": "vargface_stage_2_unit_1_step2_data", "trainable": true, "dtype": "float32", "filters": 80, "kernel_size": [3, 3], "strides": [1, 1], "padding": "valid", "data_format": "channels_last", "dilation_rate": [1, 1], "groups": 1, "activation": {"class_name": "LeakyReLU", "config": {"name": "leaky_re_lu_10", "trainable": true, "dtype": "float32", "alpha": 0.1}, "shared_object_id": 64}, "use_bias": false, "depthwise_initializer": {"class_name": "GlorotUniform", "config": {"seed": null}}, "bias_initializer": {"class_name": "Zeros", "config": {}, "shared_object_id": 67}, "depthwise_intializer": null, "bias_regularizer": null, "activity_regularizer": null, "depthwise_constraint": null, "bias_constraint": null, "depth_multiplier": 2, "depthwise_initializer": {"class_name": "GlorotUniform", "config": {"seed": null}}, "pointwise_initializer": {"class_name": "GlorotUniform", "config": {"seed": null}}, "depthwise_regularizer": null, "pointwise_regularizer": null, "depthwise_constraint": null, "pointwise_constraint": null}, "name": "vargface_stage_2_unit_1_step2_data", "inbound_nodes": [[["zero_padding2d_7", 0, 0, {}]]]}, {"class_name": "SeparableConv2D", "config": {"name": "vargface_stage_2_unit_1_shortcut", "trainable": true, "dtype": "float32", "filters": 80, "kernel_size": [3, 3], "strides": [2, 2], "padding": "valid", "data_format": "channels_last", "dilation_rate": [1, 1], "groups": 1, "activation": {"class_name": "LeakyReLU", "config": {"name": "leaky_re_lu_6", "trainable": true, "dtype": "float32", "alpha": 0.1}, "shared_object_id": 70}, "use_bias": false, "depthwise_initializer": {"class_name": "GlorotUniform", "config": {"seed": null}}, "bias_initializer": {"class_name": "Zeros", "config": {}, "shared_object_id": 73}, "depthwise_intializer": null, "bias_regularizer": null, "activity_regularizer": null, "depthwise_constraint": null, "bias_constraint": null, "depth_multiplier": 2, "depthwise_initializer": {"class_name": "GlorotUniform", "config": {"seed": null}}, "pointwise_initializer": {"class_name": "GlorotUniform", "config": {"seed": null}}, "depthwise_regularizer": null, "pointwise_regularizer": null, "depthwise_constraint": null, "pointwise_constraint": null}, "name": "vargface_stage_2_unit_1_shortcut", "inbound_nodes": [[["zero_padding2d_4", 0, 0, {}]]]}, {"class_name": "Add", "config": {"name": "add_2", "trainable": true, "dtype": "float32"}, "name": "add_2", "inbound_nodes": [[["vargface_stage_2_unit_1_step2_data", 0, 0, {}], ["vargface_stage_2_unit_1_shortcut", 0, 0, {}]]]}, {"class_name": "LeakyReLU", "config": {"name": "leaky_re_lu_11", "trainable": true, "dtype": "float32", "alpha": 0.1}, "name": "leaky_re_lu_11", "inbound_nodes": [[["add_2", 0, 0, {}]]]}, {"class_name": "ZeroPadding2D", "config": {"name": "zero_padding2d_8", "trainable": true, "dtype": "float32", "padding": [[1, 1], [1, 1]], "data_format": "channels_last"}, "name": "zero_padding2d_8", "inbound_nodes": [[["leaky_re_lu_11", 0, 0, {}]]]}, {"class_name": "SeparableConv2D", "config": {"name": "vargface_stage_2_unit_2_sep1_data", "trainable": true, "dtype": "float32", "filters": 80, "kernel_size": [3, 3], "strides": [1, 1], "padding": "valid", "data_format": "channels_last", "dilation_rate": [1, 1], "groups": 1, "activation": {"class_name": "LeakyReLU", "config": {"name": "leaky_re_lu_12", "trainable": true, "dtype": "float32", "alpha": 0.1}, "shared_object_id": 79}, "use_bias": false, "depthwise_initializer": {"class_name": "GlorotUniform", "config": {"seed": null}}, "bias_initializer": {"class_name": "Zeros", "config": {}, "shared_object_id": 82}, "depthwise_intializer": null, "bias_regularizer": null, "activity_regularizer": null, "depthwise_constraint": null, "bias_constraint": null, "depth_multiplier": 2, "depthwise_initializer": {"class_name": "GlorotUniform", "config": {"seed": null}}, "pointwise_initializer": {"class_name": "GlorotUniform", "config": {"seed": null}}, "depthwise_regularizer": null, "pointwise_regularizer": null, "depthwise_constraint": null, "pointwise_constraint": null}, "name": "vargface_stage_2_unit_2_sep1_data", "inbound_nodes": [[["zero_padding2d_8", 0, 0, {}]]]}, {"class_name": "ZeroPadding2D", "config": {"name": "zero_padding2d_9", "trainable": true, "dtype": "float32", "padding": [[1, 1], [1, 1]], "data_format": "channels_last"}, "name": "zero_padding2d_9", "inbound_nodes": [[["vargface_stage_2_unit_2_sep1_data", 0, 0, {}]]]}, {"class_name": "SeparableConv2D", "config": {"name": "vargface_stage_2_unit_2_sep2_data", "trainable": true, "dtype": "float32", "filters": 80, "kernel_size": [3, 3], "strides": [1, 1], "padding": "valid", "data_format": "channels_last", "dilation_rate": [1, 1], "groups": 1, "activation": {"class_name": "LeakyReLU", "config": {"name": "leaky_re_lu_13", "trainable": true, "dtype": "float32", "alpha": 0.1}, "shared_object_id": 86}, "use_bias": false, "depthwise_initializer": {"class_name": "GlorotUniform", "config": {"seed": null}}, "bias_initializer": {"class_name": "Zeros", "config": {}, "shared_object_id": 89}, "depthwise_intializer": null, "bias_regularizer": null, "activity_regularizer": null, "depthwise_constraint": null, "bias_constraint": null, "depth_multiplier": 2, "depthwise_initializer": {"class_name": "GlorotUniform", "config": {"seed": null}}, "pointwise_initializer": {"class_name": "GlorotUniform", "config": {"seed": null}}, "depthwise_regularizer": null, "pointwise_regularizer": null, "depthwise_constraint": null, "pointwise_constraint": null}, "name": "vargface_stage_2_unit_2_sep2_data", "inbound_nodes": [[["zero_padding2d_9", 0, 0, {}]]]}, {"class_name": "GlobalAveragePooling2D", "config": {"name": "vargface_stage_2_unit_2_se_pool1", "trainable": true, "dtype": "float32", "data_format": "channels_last", "keepdims": true}, "name": "vargface_stage_2_unit_2_se_pool1", "inbound_nodes": [[["vargface_stage_2_unit_2_sep2_data", 0, 0, {}]]]}, {"class_name": "Reshape", "config": {"name": "reshape_1", "trainable": true, "dtype": "float32", "target_shape": [1, 1, 80]}, "name": "reshape_1", "inbound_nodes": [[["vargface_stage_2_unit_2_se_pool1", 0, 0, {}]]]}, {"class_name": "Conv2D", "config": {"name": "vargface_stage_2_unit_2_se_conv1", "trainable": true, "dtype": "float32", "filters": 20, "kernel_size": [1, 1], "strides": [1, 1], "padding": "same", "data_format": "channels_last", "dilation_rate": [1, 1], "groups": 1, "activation": "linear", "use_bias": true, "depthwise_initializer": {"class_name": "GlorotUniform", "config": {"seed": null}}, "bias_initializer": {"class_name": "Zeros", "config": {}}, "depthwise_intializer": null, "bias_regularizer": null, "activity_regularizer": null, "depthwise_constraint": null, "bias_constraint": null}, "name": "vargface_stage_2_unit_2_se_conv1", "inbound_nodes": [[["reshape_1", 0, 0, {}]]]}, {"class_name": "LeakyReLU", "config": {"name": "leaky_re_lu_14", "trainable": true, "dtype": "float32", "alpha": 0.1}, "name": "leaky_re_lu_14", "inbound_nodes": [[["vargface_stage_2_unit_2_se_conv1", 0, 0, {}]]]}, {"class_name": "Conv2D", "config": {"name": "vargface_stage_2_unit_2_se_conv2", "trainable": true, "dtype": "float32", "filters": 80, "kernel_size": [1, 1], "strides": [1, 1], "padding": "valid", "data_format": "channels_last", "dilation_rate": [1, 1], "groups": 1, "activation": "linear", "use_bias": true, "depthwise_initializer": {"class_name": "GlorotUniform", "config": {"seed": null}}, "bias_initializer": {"class_name": "Zeros", "config": {}}, "depthwise_intializer": null, "bias_regularizer": null, "activity_regularizer": null, "depthwise_constraint": null, "bias_constraint": null}, "name": "vargface_stage_2_unit_2_se_conv2", "inbound_nodes": [[["leaky_re_lu_14", 0, 0, {}]]]}, {"class_name": "Activation", "config": {"name": "vargface_stage_2_unit_2_se_sigmoid", "trainable": true, "dtype": "float32", "activation": "sigmoid"}, "name": "vargface_stage_2_unit_2_se_sigmoid", "inbound_nodes": [[["vargface_stage_2_unit_2_se_conv2", 0, 0, {}]]]}, {"class_name": "Multiply", "config": {"name": "multiply_1", "trainable": true, "dtype": "float32"}, "name": "multiply_1", "inbound_nodes": [[["vargface_stage_2_unit_2_sep2_data", 0, 0, {}], ["vargface_stage_2_unit_2_se_sigmoid", 0, 0, {}]]]}, {"class_name": "Add", "config": {"name": "add_3", "trainable": true, "dtype": "float32"}, "name": "add_3", "inbound_nodes": [[["multiply_1", 0, 0, {}], ["leaky_re_lu_11", 0, 0, {}]]]}, {"class_name": "LeakyReLU", "config": {"name": "leaky_re_lu_15", "trainable": true, "dtype": "float32", "alpha": 0.1}, "name": "leaky_re_lu_15", "inbound_nodes": [[["add_3", 0, 0, {}]]]}, {"class_name": "ZeroPadding2D", "config": {"name": "zero_padding2d_10", "trainable": true, "dtype": "float32", "padding": [[1, 1], [1, 1]], "data_format": "channels_last"}, "name": "zero_padding2d_10", "inbound_nodes": [[["leaky_re_lu_15", 0, 0, {}]]]}, {"class_name": "SeparableConv2D", "config": {"name": "vargface_stage_2_unit_3_sep1_data", "trainable": true, "dtype": "float32", "filters": 80, "kernel_size": [3, 3], "strides": [1, 1], "padding": "valid", "data_format": "channels_last", "dilation_rate": [1, 1], "groups": 1, "activation": {"class_name": "LeakyReLU", "config": {"name": "leaky_re_lu_16", "trainable": true, "dtype": "float32", "alpha": 0.1}, "shared_object_id": 106}, "use_bias": false, "depthwise_initializer": {"class_name": "GlorotUniform", "config": {"seed": null}}, "bias_initializer": {"class_name": "Zeros", "config": {}, "shared_object_id": 109}, "depthwise_intializer": null, "bias_regularizer": null, "activity_regularizer": null, "depthwise_constraint": null, "bias_constraint": null, "depth_multiplier": 2, "depthwise_initializer": {"class_name": "GlorotUniform", "config": {"seed": null}}, "pointwise_initializer": {"class_name": "GlorotUniform", "config": {"seed": null}}, "depthwise_regularizer": null, "pointwise_regularizer": null, "depthwise_constraint": null, "pointwise_constraint": null}, "name": "vargface_stage_2_unit_3_sep1_data", "inbound_nodes": [[["zero_padding2d_10", 0, 0, {}]]]}, {"class_name": "ZeroPadding2D", "config": {"name": "zero_padding2d_11", "trainable": true, "dtype": "float32", "padding": [[1, 1], [1, 1]], "data_format": "channels_last"}, "name": "zero_padding2d_11", "inbound_nodes": [[["vargface_stage_2_unit_3_sep1_data", 0, 0, {}]]]}, {"class_name": "SeparableConv2D", "config": {"name": "vargface_stage_2_unit_3_sep2_data", "trainable": true, "dtype": "float32", "filters": 80, "kernel_size": [3, 3], "strides": [1, 1], "padding": "valid", "data_format": "channels_last", "dilation_rate": [1, 1], "groups": 1, "activation": {"class_name": "LeakyReLU", "config": {"name": "leaky_re_lu_17", "trainable": true, "dtype": "float32", "alpha": 0.1}, "shared_object_id": 113}, "use_bias": false, "depthwise_initializer": {"class_name": "GlorotUniform", "config": {"seed": null}}, "bias_initializer": {"class_name": "Zeros", "config": {}, "shared_object_id": 116}, "depthwise_intializer": null, "bias_regularizer": null, "activity_regularizer": null, "depthwise_constraint": null, "bias_constraint": null, "depth_multiplier": 2, "depthwise_initializer": {"class_name": "GlorotUniform", "config": {"seed": null}}, "pointwise_initializer": {"class_name": "GlorotUniform", "config": {"seed": null}}, "depthwise_regularizer": null, "pointwise_regularizer": null, "depthwise_constraint": null, "pointwise_constraint": null}, "name": "vargface_stage_2_unit_3_sep2_data", "inbound_nodes": [[["zero_padding2d_11", 0, 0, {}]]]}, {"class_name": "GlobalAveragePooling2D", "config": {"name": "vargface_stage_2_unit_3_se_pool1", "trainable": true, "dtype": "float32", "data_format": "channels_last", "keepdims": true}, "name": "vargface_stage_2_unit_3_se_pool1", "inbound_nodes": [[["vargface_stage_2_unit_3_sep2_data", 0, 0, {}]]]}, {"class_name": "Reshape", "config": {"name": "reshape_2", "trainable": true, "dtype": "float32", "target_shape": [1, 1, 80]}, "name": "reshape_2", "inbound_nodes": [[["vargface_stage_2_unit_3_se_pool1", 0, 0, {}]]]}, {"class_name": "Conv2D", "config": {"name": "vargface_stage_2_unit_3_se_conv1", "trainable": true, "dtype": "float32", "filters": 20, "kernel_size": [1, 1], "strides": [1, 1], "padding": "same", "data_format": "channels_last", "dilation_rate": [1, 1], "groups": 1, "activation": "linear", "use_bias": true, "depthwise_initializer": {"class_name": "GlorotUniform", "config": {"seed": null}}, "bias_initializer": {"class_name": "Zeros", "config": {}}, "depthwise_intializer": null, "bias_regularizer": null, "activity_regularizer": null, "depthwise_constraint": null, "bias_constraint": null}, "name": "vargface_stage_2_unit_3_se_conv1", "inbound_nodes": [[["reshape_2", 0, 0, {}]]]}, {"class_name": "LeakyReLU", "config": {"name": "leaky_re_lu_18", "trainable": true, "dtype": "float32", "alpha": 0.1}, "name": "leaky_re_lu_18", "inbound_nodes": [[["vargface_stage_2_unit_3_se_conv1", 0, 0, {}]]]}, {"class_name": "Conv2D", "config": {"name": "vargface_stage_2_unit_3_se_conv2", "trainable": true, "dtype": "float32", "filters": 80, "kernel_size": [1, 1], "strides": [1, 1], "padding": "valid", "data_format": "channels_last", "dilation_rate": [1, 1], "groups": 1, "activation": "linear", "use_bias": true, "depthwise_initializer": {"class_name": "GlorotUniform", "config": {"seed": null}}, "bias_initializer": {"class_name": "Zeros", "config": {}}, "depthwise_intializer": null, "bias_regularizer": null, "activity_regularizer": null, "depthwise_constraint": null, "bias_constraint": null}, "name": "vargface_stage_2_unit_3_se_conv2", "inbound_nodes": [[["leaky_re_lu_18", 0, 0, {}]]]}, {"class_name": "Activation", "config": {"name": "vargface_stage_2_unit_3_se_sigmoid", "trainable": true, "dtype": "float32", "activation": "sigmoid"}, "name": "vargface_stage_2_unit_3_se_sigmoid", "inbound_nodes": [[["vargface_stage_2_unit_3_se_conv2", 0, 0, {}]]]}, {"class_name": "Multiply", "config": {"name": "multiply_2", "trainable": true, "dtype": "float32"}, "name": "multiply_2", "inbound_nodes": [[["vargface_stage_2_unit_3_sep2_data", 0, 0, {}], ["vargface_stage_2_unit_3_se_sigmoid", 0, 0, {}]]]}, {"class_name": "Add", "config": {"name": "add_4", "trainable": true, "dtype": "float32"}, "name": "add_4", "inbound_nodes": [[["multiply_2", 0, 0, {}], ["leaky_re_lu_15", 0, 0, {}]]]}, {"class_name": "LeakyReLU", "config": {"name": "leaky_re_lu_19", "trainable": true, "dtype": "float32", "alpha": 0.1}, "name": "leaky_re_lu_19", "inbound_nodes": [[["add_4", 0, 0, {}]]]}, {"class_name": "ZeroPadding2D", "config": {"name": "zero_padding2d_13", "trainable": true, "dtype": "float32", "padding": [[1, 1], [1, 1]], "data_format": "channels_last"}, "name": "zero_padding2d_13", "inbound_nodes": [[["leaky_re_lu_19", 0, 0, {}]]]}, {"class_name": "ZeroPadding2D", "config": {"name": "zero_padding2d_14", "trainable": true, "dtype": "float32", "padding": [[1, 1], [1, 1]], "data_format": "channels_last"}, "name": "zero_padding2d_14", "inbound_nodes": [[["leaky_re_lu_19", 0, 0, {}]]]}, {"class_name": "SeparableConv2D", "config": {"name": "vargface_stage_3_unit_1_step1_data_branch", "trainable": true, "dtype": "float32", "filters": 160, "kernel_size": [3, 3], "strides": [2, 2], "padding": "valid", "data_format": "channels_last", "dilation_rate": [1, 1], "groups": 1, "activation": {"class_name": "LeakyReLU", "config": {"name": "leaky_re_lu_21", "trainable": true, "dtype": "float32", "alpha": 0.1}, "shared_object_id": 134}, "use_bias": false, "depthwise_initializer": {"class_name": "GlorotUniform", "config": {"seed": null}}, "bias_initializer": {"class_name": "Zeros", "config": {}, "shared_object_id": 137}, "depthwise_intializer": null, "bias_regularizer": null, "activity_regularizer": null, "depthwise_constraint": null, "bias_constraint": null, "depth_multiplier": 2, "depthwise_initializer": {"class_name": "GlorotUniform", "config": {"seed": null}}, "pointwise_initializer": {"class_name": "GlorotUniform", "config": {"seed": null}}, "depthwise_regularizer": null, "pointwise_regularizer": null, "depthwise_constraint": null, "pointwise_constraint": null}, "name": "vargface_stage_3_unit_1_step1_data_branch", "inbound_nodes": [[["zero_padding2d_13", 0, 0, {}]]]}, {"class_name": "SeparableConv2D", "config": {"name": "vargface_stage_3_unit_1_step2_data_branch", "trainable": true, "dtype": "float32", "filters": 160, "kernel_size": [3, 3], "strides": [2, 2], "padding": "valid", "data_format": "channels_last", "dilation_rate": [1, 1], "groups": 1, "activation": {"class_name": "LeakyReLU", "config": {"name": "leaky_re_lu_22", "trainable": true, "dtype": "float32", "alpha": 0.1}, "shared_object_id": 140}, "use_bias": false, "depthwise_initializer": {"class_name": "GlorotUniform", "config": {"seed": null}}, "bias_initializer": {"class_name": "Zeros", "config": {}, "shared_object_id": 143}, "depthwise_intializer": null, "bias_regularizer": null, "activity_regularizer": null, "depthwise_constraint": null, "bias_constraint": null, "depth_multiplier": 2, "depthwise_initializer": {"class_name": "GlorotUniform", "config": {"seed": null}}, "pointwise_initializer": {"class_name": "GlorotUniform", "config": {"seed": null}}, "depthwise_regularizer": null, "pointwise_regularizer": null, "depthwise_constraint": null, "pointwise_constraint": null}, "name": "vargface_stage_3_unit_1_step2_data_branch", "inbound_nodes": [[["zero_padding2d_14", 0, 0, {}]]]}, {"class_name": "Add", "config": {"name": "add_5", "trainable": true, "dtype": "float32"}, "name": "add_5", "inbound_nodes": [[["vargface_stage_3_unit_1_step1_data_branch", 0, 0, {}], ["vargface_stage_3_unit_1_step2_data_branch", 0, 0, {}]]]}, {"class_name": "LeakyReLU", "config": {"name": "leaky_re_lu_23", "trainable": true, "dtype": "float32", "alpha": 0.1}, "name": "leaky_re_lu_23", "inbound_nodes": [[["add_5", 0, 0, {}]]]}, {"class_name": "ZeroPadding2D", "config": {"name": "zero_padding2d_15", "trainable": true, "dtype": "float32", "padding": [[1, 1], [1, 1]], "data_format": "channels_last"}, "name": "zero_padding2d_15", "inbound_nodes": [[["leaky_re_lu_23", 0, 0, {}]]]}, {"class_name": "ZeroPadding2D", "config": {"name": "zero_padding2d_12", "trainable": true, "dtype": "float32", "padding": [[1, 1], [1, 1]], "data_format": "channels_last"}, "name": "zero_padding2d_12", "inbound_nodes": [[["leaky_re_lu_19", 0, 0, {}]]]}, {"class_name": "SeparableConv2D", "config": {"name": "vargface_stage_3_unit_1_step2_data", "trainable": true, "dtype": "float32", "filters": 160, "kernel_size": [3, 3], "strides": [1, 1], "padding": "valid", "data_format": "channels_last", "dilation_rate": [1, 1], "groups": 1, "activation": {"class_name": "LeakyReLU", "config": {"name": "leaky_re_lu_24", "trainable": true, "dtype": "float32", "alpha": 0.1}, "shared_object_id": 150}, "use_bias": false, "depthwise_initializer": {"class_name": "GlorotUniform", "config": {"seed": null}}, "bias_initializer": {"class_name": "Zeros", "config": {}, "shared_object_id": 153}, "depthwise_intializer": null, "bias_regularizer": null, "activity_regularizer": null, "depthwise_constraint": null, "bias_constraint": null, "depth_multiplier": 2, "depthwise_initializer": {"class_name": "GlorotUniform", "config": {"seed": null}}, "pointwise_initializer": {"class_name": "GlorotUniform", "config": {"seed": null}}, "depthwise_regularizer": null, "pointwise_regularizer": null, "depthwise_constraint": null, "pointwise_constraint": null}, "name": "vargface_stage_3_unit_1_step2_data", "inbound_nodes": [[["zero_padding2d_15", 0, 0, {}]]]}, {"class_name": "SeparableConv2D", "config": {"name": "vargface_stage_3_unit_1_shortcut", "trainable": true, "dtype": "float32", "filters": 160, "kernel_size": [3, 3], "strides": [2, 2], "padding": "valid", "data_format": "channels_last", "dilation_rate": [1, 1], "groups": 1, "activation": {"class_name": "LeakyReLU", "config": {"name": "leaky_re_lu_20", "trainable": true, "dtype": "float32", "alpha": 0.1}, "shared_object_id": 156}, "use_bias": false, "depthwise_initializer": {"class_name": "GlorotUniform", "config": {"seed": null}}, "bias_initializer": {"class_name": "Zeros", "config": {}, "shared_object_id": 159}, "depthwise_intializer": null, "bias_regularizer": null, "activity_regularizer": null, "depthwise_constraint": null, "bias_constraint": null, "depth_multiplier": 2, "depthwise_initializer": {"class_name": "GlorotUniform", "config": {"seed": null}}, "pointwise_initializer": {"class_name": "GlorotUniform", "config": {"seed": null}}, "depthwise_regularizer": null, "pointwise_regularizer": null, "depthwise_constraint": null, "pointwise_constraint": null}, "name": "vargface_stage_3_unit_1_shortcut", "inbound_nodes": [[["zero_padding2d_12", 0, 0, {}]]]}, {"class_name": "Add", "config": {"name": "add_6", "trainable": true, "dtype": "float32"}, "name": "add_6", "inbound_nodes": [[["vargface_stage_3_unit_1_step2_data", 0, 0, {}], ["vargface_stage_3_unit_1_shortcut", 0, 0, {}]]]}, {"class_name": "LeakyReLU", "config": {"name": "leaky_re_lu_25", "trainable": true, "dtype": "float32", "alpha": 0.1}, "name": "leaky_re_lu_25", "inbound_nodes": [[["add_6", 0, 0, {}]]]}, {"class_name": "ZeroPadding2D", "config": {"name": "zero_padding2d_16", "trainable": true, "dtype": "float32", "padding": [[1, 1], [1, 1]], "data_format": "channels_last"}, "name": "zero_padding2d_16", "inbound_nodes": [[["leaky_re_lu_25", 0, 0, {}]]]}, {"class_name": "SeparableConv2D", "config": {"name": "vargface_stage_3_unit_2_sep1_data", "trainable": true, "dtype": "float32", "filters": 160, "kernel_size": [3, 3], "strides": [1, 1], "padding": "valid", "data_format": "channels_last", "dilation_rate": [1, 1], "groups": 1, "activation": {"class_name": "LeakyReLU", "config": {"name": "leaky_re_lu_26", "trainable": true, "dtype": "float32", "alpha": 0.1}, "shared_object_id": 165}, "use_bias": false, "depthwise_initializer": {"class_name": "GlorotUniform", "config": {"seed": null}}, "bias_initializer": {"class_name": "Zeros", "config": {}, "shared_object_id": 168}, "depthwise_intializer": null, "bias_regularizer": null, "activity_regularizer": null, "depthwise_constraint": null, "bias_constraint": null, "depth_multiplier": 2, "depthwise_initializer": {"class_name": "GlorotUniform", "config": {"seed": null}}, "pointwise_initializer": {"class_name": "GlorotUniform", "config": {"seed": null}}, "depthwise_regularizer": null, "pointwise_regularizer": null, "depthwise_constraint": null, "pointwise_constraint": null}, "name": "vargface_stage_3_unit_2_sep1_data", "inbound_nodes": [[["zero_padding2d_16", 0, 0, {}]]]}, {"class_name": "ZeroPadding2D", "config": {"name": "zero_padding2d_17", "trainable": true, "dtype": "float32", "padding": [[1, 1], [1, 1]], "data_format": "channels_last"}, "name": "zero_padding2d_17", "inbound_nodes": [[["vargface_stage_3_unit_2_sep1_data", 0, 0, {}]]]}, {"class_name": "SeparableConv2D", "config": {"name": "vargface_stage_3_unit_2_sep2_data", "trainable": true, "dtype": "float32", "filters": 160, "kernel_size": [3, 3], "strides": [1, 1], "padding": "valid", "data_format": "channels_last", "dilation_rate": [1, 1], "groups": 1, "activation": {"class_name": "LeakyReLU", "config": {"name": "leaky_re_lu_27", "trainable": true, "dtype": "float32", "alpha": 0.1}, "shared_object_id": 172}, "use_bias": false, "depthwise_initializer": {"class_name": "GlorotUniform", "config": {"seed": null}}, "bias_initializer": {"class_name": "Zeros", "config": {}, "shared_object_id": 175}, "depthwise_intializer": null, "bias_regularizer": null, "activity_regularizer": null, "depthwise_constraint": null, "bias_constraint": null, "depth_multiplier": 2, "depthwise_initializer": {"class_name": "GlorotUniform", "config": {"seed": null}}, "pointwise_initializer": {"class_name": "GlorotUniform", "config": {"seed": null}}, "depthwise_regularizer": null, "pointwise_regularizer": null, "depthwise_constraint": null, "pointwise_constraint": null}, "name": "vargface_stage_3_unit_2_sep2_data", "inbound_nodes": [[["zero_padding2d_17", 0, 0, {}]]]}, {"class_name": "GlobalAveragePooling2D", "config": {"name": "vargface_stage_3_unit_2_se_pool1", "trainable": true, "dtype": "float32", "data_format": "channels_last", "keepdims": true}, "name": "vargface_stage_3_unit_2_se_pool1", "inbound_nodes": [[["vargface_stage_3_unit_2_sep2_data", 0, 0, {}]]]}, {"class_name": "Reshape", "config": {"name": "reshape_3", "trainable": true, "dtype": "float32", "target_shape": [1, 1, 160]}, "name": "reshape_3", "inbound_nodes": [[["vargface_stage_3_unit_2_se_pool1", 0, 0, {}]]]}, {"class_name": "Conv2D", "config": {"name": "vargface_stage_3_unit_2_se_conv1", "trainable": true, "dtype": "float32", "filters": 40, "kernel_size": [1, 1], "strides": [1, 1], "padding": "same", "data_format": "channels_last", "dilation_rate": [1, 1], "groups": 1, "activation": "linear", "use_bias": true, "depthwise_initializer": {"class_name": "GlorotUniform", "config": {"seed": null}}, "bias_initializer": {"class_name": "Zeros", "config": {}}, "depthwise_intializer": null, "bias_regularizer": null, "activity_regularizer": null, "depthwise_constraint": null, "bias_constraint": null}, "name": "vargface_stage_3_unit_2_se_conv1", "inbound_nodes": [[["reshape_3", 0, 0, {}]]]}, {"class_name": "LeakyReLU", "config": {"name": "leaky_re_lu_28", "trainable": true, "dtype": "float32", "alpha": 0.1}, "name": "leaky_re_lu_28", "inbound_nodes": [[["vargface_stage_3_unit_2_se_conv1", 0, 0, {}]]]}, {"class_name": "Conv2D", "config": {"name": "vargface_stage_3_unit_2_se_conv2", "trainable": true, "dtype": "float32", "filters": 160, "kernel_size": [1, 1], "strides": [1, 1], "padding": "valid", "data_format": "channels_last", "dilation_rate": [1, 1], "groups": 1, "activation": "linear", "use_bias": true, "depthwise_initializer": {"class_name": "GlorotUniform", "config": {"seed": null}}, "bias_initializer": {"class_name": "Zeros", "config": {}}, "depthwise_intializer": null, "bias_regularizer": null, "activity_regularizer": null, "depthwise_constraint": null, "bias_constraint": null}, "name": "vargface_stage_3_unit_2_se_conv2", "inbound_nodes": [[["leaky_re_lu_28", 0, 0, {}]]]}, {"class_name": "Activation", "config": {"name": "vargface_stage_3_unit_2_se_sigmoid", "trainable": true, "dtype": "float32", "activation": "sigmoid"}, "name": "vargface_stage_3_unit_2_se_sigmoid", "inbound_nodes": [[["vargface_stage_3_unit_2_se_conv2", 0, 0, {}]]]}, {"class_name": "Multiply", "config": {"name": "multiply_3", "trainable": true, "dtype": "float32"}, "name": "multiply_3", "inbound_nodes": [[["vargface_stage_3_unit_2_sep2_data", 0, 0, {}], ["vargface_stage_3_unit_2_se_sigmoid", 0, 0, {}]]]}, {"class_name": "Add", "config": {"name": "add_7", "trainable": true, "dtype": "float32"}, "name": "add_7", "inbound_nodes": [[["multiply_3", 0, 0, {}], ["leaky_re_lu_25", 0, 0, {}]]]}, {"class_name": "LeakyReLU", "config": {"name": "leaky_re_lu_29", "trainable": true, "dtype": "float32", "alpha": 0.1}, "name": "leaky_re_lu_29", "inbound_nodes": [[["add_7", 0, 0, {}]]]}, {"class_name": "ZeroPadding2D", "config": {"name": "zero_padding2d_18", "trainable": true, "dtype": "float32", "padding": [[1, 1], [1, 1]], "data_format": "channels_last"}, "name": "zero_padding2d_18", "inbound_nodes": [[["leaky_re_lu_29", 0, 0, {}]]]}, {"class_name": "SeparableConv2D", "config": {"name": "vargface_stage_3_unit_3_sep1_data", "trainable": true, "dtype": "float32", "filters": 160, "kernel_size": [3, 3], "strides": [1, 1], "padding": "valid", "data_format": "channels_last", "dilation_rate": [1, 1], "groups": 1, "activation": {"class_name": "LeakyReLU", "config": {"name": "leaky_re_lu_30", "trainable": true, "dtype": "float32", "alpha": 0.1}, "shared_object_id": 192}, "use_bias": false, "depthwise_initializer": {"class_name": "GlorotUniform", "config": {"seed": null}}, "bias_initializer": {"class_name": "Zeros", "config": {}, "shared_object_id": 195}, "depthwise_intializer": null, "bias_regularizer": null, "activity_regularizer": null, "depthwise_constraint": null, "bias_constraint": null, "depth_multiplier": 2, "depthwise_initializer": {"class_name": "GlorotUniform", "config": {"seed": null}}, "pointwise_initializer": {"class_name": "GlorotUniform", "config": {"seed": null}}, "depthwise_regularizer": null, "pointwise_regularizer": null, "depthwise_constraint": null, "pointwise_constraint": null}, "name": "vargface_stage_3_unit_3_sep1_data", "inbound_nodes": [[["zero_padding2d_18", 0, 0, {}]]]}, {"class_name": "ZeroPadding2D", "config": {"name": "zero_padding2d_19", "trainable": true, "dtype": "float32", "padding": [[1, 1], [1, 1]], "data_format": "channels_last"}, "name": "zero_padding2d_19", "inbound_nodes": [[["vargface_stage_3_unit_3_sep1_data", 0, 0, {}]]]}, {"class_name": "SeparableConv2D", "config": {"name": "vargface_stage_3_unit_3_sep2_data", "trainable": true, "dtype": "float32", "filters": 160, "kernel_size": [3, 3], "strides": [1, 1], "padding": "valid", "data_format": "channels_last", "dilation_rate": [1, 1], "groups": 1, "activation": {"class_name": "LeakyReLU", "config": {"name": "leaky_re_lu_31", "trainable": true, "dtype": "float32", "alpha": 0.1}, "shared_object_id": 199}, "use_bias": false, "depthwise_initializer": {"class_name": "GlorotUniform", "config": {"seed": null}}, "bias_initializer": {"class_name": "Zeros", "config": {}, "shared_object_id": 202}, "depthwise_intializer": null, "bias_regularizer": null, "activity_regularizer": null, "depthwise_constraint": null, "bias_constraint": null, "depth_multiplier": 2, "depthwise_initializer": {"class_name": "GlorotUniform", "config": {"seed": null}}, "pointwise_initializer": {"class_name": "GlorotUniform", "config": {"seed": null}}, "depthwise_regularizer": null, "pointwise_regularizer": null, "depthwise_constraint": null, "pointwise_constraint": null}, "name": "vargface_stage_3_unit_3_sep2_data", "inbound_nodes": [[["zero_padding2d_19", 0, 0, {}]]]}, {"class_name": "GlobalAveragePooling2D", "config": {"name": "vargface_stage_3_unit_3_se_pool1", "trainable": true, "dtype": "float32", "data_format": "channels_last", "keepdims": true}, "name": "vargface_stage_3_unit_3_se_pool1", "inbound_nodes": [[["vargface_stage_3_unit_3_sep2_data", 0, 0, {}]]]}, {"class_name": "Reshape", "config": {"name": "reshape_4", "trainable": true, "dtype": "float32", "target_shape": [1, 1, 160]}, "name": "reshape_4", "inbound_nodes": [[["vargface_stage_3_unit_3_se_pool1", 0, 0, {}]]]}, {"class_name": "Conv2D", "config": {"name": "vargface_stage_3_unit_3_se_conv1", "trainable": true, "dtype": "float32", "filters": 40, "kernel_size": [1, 1], "strides": [1, 1], "padding": "same", "data_format": "channels_last", "dilation_rate": [1, 1], "groups": 1, "activation": "linear", "use_bias": true, "depthwise_initializer": {"class_name": "GlorotUniform", "config": {"seed": null}}, "bias_initializer": {"class_name": "Zeros", "config": {}}, "depthwise_intializer": null, "bias_regularizer": null, "activity_regularizer": null, "depthwise_constraint": null, "bias_constraint": null}, "name": "vargface_stage_3_unit_3_se_conv1", "inbound_nodes": [[["reshape_4", 0, 0, {}]]]}, {"class_name": "LeakyReLU", "config": {"name": "leaky_re_lu_32", "trainable": true, "dtype": "float32", "alpha": 0.1}, "name": "leaky_re_lu_32", "inbound_nodes": [[["vargface_stage_3_unit_3_se_conv1", 0, 0, {}]]]}, {"class_name": "Conv2D", "config": {"name": "vargface_stage_3_unit_3_se_conv2", "trainable": true, "dtype": "float32", "filters": 160, "kernel_size": [1, 1], "strides": [1, 1], "padding": "valid", "data_format": "channels_last", "dilation_rate": [1, 1], "groups": 1, "activation": "linear", "use_bias": true, "depthwise_initializer": {"class_name": "GlorotUniform", "config": {"seed": null}}, "bias_initializer": {"class_name": "Zeros", "config": {}}, "depthwise_intializer": null, "bias_regularizer": null, "activity_regularizer": null, "depthwise_constraint": null, "bias_constraint": null}, "name": "vargface_stage_3_unit_3_se_conv2", "inbound_nodes": [[["leaky_re_lu_32", 0, 0, {}]]]}, {"class_name": "Activation", "config": {"name": "vargface_stage_3_unit_3_se_sigmoid", "trainable": true, "dtype": "float32", "activation": "sigmoid"}, "name": "vargface_stage_3_unit_3_se_sigmoid", "inbound_nodes": [[["vargface_stage_3_unit_3_se_conv2", 0, 0, {}]]]}, {"class_name": "Multiply", "config": {"name": "multiply_4", "trainable": true, "dtype": "float32"}, "name": "multiply_4", "inbound_nodes": [[["vargface_stage_3_unit_3_sep2_data", 0, 0, {}], ["vargface_stage_3_unit_3_se_sigmoid", 0, 0, {}]]]}, {"class_name": "Add", "config": {"name": "add_8", "trainable": true, "dtype": "float32"}, "name": "add_8", "inbound_nodes": [[["multiply_4", 0, 0, {}], ["leaky_re_lu_29", 0, 0, {}]]]}, {"class_name": "LeakyReLU", "config": {"name": "leaky_re_lu_33", "trainable": true, "dtype": "float32", "alpha": 0.1}, "name": "leaky_re_lu_33", "inbound_nodes": [[["add_8", 0, 0, {}]]]}, {"class_name": "ZeroPadding2D", "config": {"name": "zero_padding2d_20", "trainable": true, "dtype": "float32", "padding": [[1, 1], [1, 1]], "data_format": "channels_last"}, "name": "zero_padding2d_20", "inbound_nodes": [[["leaky_re_lu_33", 0, 0, {}]]]}, {"class_name": "SeparableConv2D", "config": {"name": "vargface_stage_3_unit_4_sep1_data", "trainable": true, "dtype": "float32", "filters": 160, "kernel_size": [3, 3], "strides": [1, 1], "padding": "valid", "data_format": "channels_last", "dilation_rate": [1, 1], "groups": 1, "activation": {"class_name": "LeakyReLU", "config": {"name": "leaky_re_lu_34", "trainable": true, "dtype": "float32", "alpha": 0.1}, "shared_object_id": 219}, "use_bias": false, "depthwise_initializer": {"class_name": "GlorotUniform", "config": {"seed": null}}, "bias_initializer": {"class_name": "Zeros", "config": {}, "shared_object_id": 222}, "depthwise_intializer": null, "bias_regularizer": null, "activity_regularizer": null, "depthwise_constraint": null, "bias_constraint": null, "depth_multiplier": 2, "depthwise_initializer": {"class_name": "GlorotUniform", "config": {"seed": null}}, "pointwise_initializer": {"class_name": "GlorotUniform", "config": {"seed": null}}, "depthwise_regularizer": null, "pointwise_regularizer": null, "depthwise_constraint": null, "pointwise_constraint": null}, "name": "vargface_stage_3_unit_4_sep1_data", "inbound_nodes": [[["zero_padding2d_20", 0, 0, {}]]]}, {"class_name": "ZeroPadding2D", "config": {"name": "zero_padding2d_21", "trainable": true, "dtype": "float32", "padding": [[1, 1], [1, 1]], "data_format": "channels_last"}, "name": "zero_padding2d_21", "inbound_nodes": [[["vargface_stage_3_unit_4_sep1_data", 0, 0, {}]]]}, {"class_name": "SeparableConv2D", "config": {"name": "vargface_stage_3_unit_4_sep2_data", "trainable": true, "dtype": "float32", "filters": 160, "kernel_size": [3, 3], "strides": [1, 1], "padding": "valid", "data_format": "channels_last", "dilation_rate": [1, 1], "groups": 1, "activation": {"class_name": "LeakyReLU", "config": {"name": "leaky_re_lu_35", "trainable": true, "dtype": "float32", "alpha": 0.1}, "shared_object_id": 226}, "use_bias": false, "depthwise_initializer": {"class_name": "GlorotUniform", "config": {"seed": null}}, "bias_initializer": {"class_name": "Zeros", "config": {}, "shared_object_id": 229}, "depthwise_intializer": null, "bias_regularizer": null, "activity_regularizer": null, "depthwise_constraint": null, "bias_constraint": null, "depth_multiplier": 2, "depthwise_initializer": {"class_name": "GlorotUniform", "config": {"seed": null}}, "pointwise_initializer": {"class_name": "GlorotUniform", "config": {"seed": null}}, "depthwise_regularizer": null, "pointwise_regularizer": null, "depthwise_constraint": null, "pointwise_constraint": null}, "name": "vargface_stage_3_unit_4_sep2_data", "inbound_nodes": [[["zero_padding2d_21", 0, 0, {}]]]}, {"class_name": "GlobalAveragePooling2D", "config": {"name": "vargface_stage_3_unit_4_se_pool1", "trainable": true, "dtype": "float32", "data_format": "channels_last", "keepdims": true}, "name": "vargface_stage_3_unit_4_se_pool1", "inbound_nodes": [[["vargface_stage_3_unit_4_sep2_data", 0, 0, {}]]]}, {"class_name": "Reshape", "config": {"name": "reshape_5", "trainable": true, "dtype": "float32", "target_shape": [1, 1, 160]}, "name": "reshape_5", "inbound_nodes": [[["vargface_stage_3_unit_4_se_pool1", 0, 0, {}]]]}, {"class_name": "Conv2D", "config": {"name": "vargface_stage_3_unit_4_se_conv1", "trainable": true, "dtype": "float32", "filters": 40, "kernel_size": [1, 1], "strides": [1, 1], "padding": "same", "data_format": "channels_last", "dilation_rate": [1, 1], "groups": 1, "activation": "linear", "use_bias": true, "depthwise_initializer": {"class_name": "GlorotUniform", "config": {"seed": null}}, "bias_initializer": {"class_name": "Zeros", "config": {}}, "depthwise_intializer": null, "bias_regularizer": null, "activity_regularizer": null, "depthwise_constraint": null, "bias_constraint": null}, "name": "vargface_stage_3_unit_4_se_conv1", "inbound_nodes": [[["reshape_5", 0, 0, {}]]]}, {"class_name": "LeakyReLU", "config": {"name": "leaky_re_lu_36", "trainable": true, "dtype": "float32", "alpha": 0.1}, "name": "leaky_re_lu_36", "inbound_nodes": [[["vargface_stage_3_unit_4_se_conv1", 0, 0, {}]]]}, {"class_name": "Conv2D", "config": {"name": "vargface_stage_3_unit_4_se_conv2", "trainable": true, "dtype": "float32", "filters": 160, "kernel_size": [1, 1], "strides": [1, 1], "padding": "valid", "data_format": "channels_last", "dilation_rate": [1, 1], "groups": 1, "activation": "linear", "use_bias": true, "depthwise_initializer": {"class_name": "GlorotUniform", "config": {"seed": null}}, "bias_initializer": {"class_name": "Zeros", "config": {}}, "depthwise_intializer": null, "bias_regularizer": null, "activity_regularizer": null, "depthwise_constraint": null, "bias_constraint": null}, "name": "vargface_stage_3_unit_4_se_conv2", "inbound_nodes": [[["leaky_re_lu_36", 0, 0, {}]]]}, {"class_name": "Activation", "config": {"name": "vargface_stage_3_unit_4_se_sigmoid", "trainable": true, "dtype": "float32", "activation": "sigmoid"}, "name": "vargface_stage_3_unit_4_se_sigmoid", "inbound_nodes": [[["vargface_stage_3_unit_4_se_conv2", 0, 0, {}]]]}, {"class_name": "Multiply", "config": {"name": "multiply_5", "trainable": true, "dtype": "float32"}, "name": "multiply_5", "inbound_nodes": [[["vargface_stage_3_unit_4_sep2_data", 0, 0, {}], ["vargface_stage_3_unit_4_se_sigmoid", 0, 0, {}]]]}, {"class_name": "Add", "config": {"name": "add_9", "trainable": true, "dtype": "float32"}, "name": "add_9", "inbound_nodes": [[["multiply_5", 0, 0, {}], ["leaky_re_lu_33", 0, 0, {}]]]}, {"class_name": "LeakyReLU", "config": {"name": "leaky_re_lu_37", "trainable": true, "dtype": "float32", "alpha": 0.1}, "name": "leaky_re_lu_37", "inbound_nodes": [[["add_9", 0, 0, {}]]]}, {"class_name": "ZeroPadding2D", "config": {"name": "zero_padding2d_22", "trainable": true, "dtype": "float32", "padding": [[1, 1], [1, 1]], "data_format": "channels_last"}, "name": "zero_padding2d_22", "inbound_nodes": [[["leaky_re_lu_37", 0, 0, {}]]]}, {"class_name": "SeparableConv2D", "config": {"name": "vargface_stage_3_unit_5_sep1_data", "trainable": true, "dtype": "float32", "filters": 160, "kernel_size": [3, 3], "strides": [1, 1], "padding": "valid", "data_format": "channels_last", "dilation_rate": [1, 1], "groups": 1, "activation": {"class_name": "LeakyReLU", "config": {"name": "leaky_re_lu_38", "trainable": true, "dtype": "float32", "alpha": 0.1}, "shared_object_id": 246}, "use_bias": false, "depthwise_initializer": {"class_name": "GlorotUniform", "config": {"seed": null}}, "bias_initializer": {"class_name": "Zeros", "config": {}, "shared_object_id": 249}, "depthwise_intializer": null, "bias_regularizer": null, "activity_regularizer": null, "depthwise_constraint": null, "bias_constraint": null, "depth_multiplier": 2, "depthwise_initializer": {"class_name": "GlorotUniform", "config": {"seed": null}}, "pointwise_initializer": {"class_name": "GlorotUniform", "config": {"seed": null}}, "depthwise_regularizer": null, "pointwise_regularizer": null, "depthwise_constraint": null, "pointwise_constraint": null}, "name": "vargface_stage_3_unit_5_sep1_data", "inbound_nodes": [[["zero_padding2d_22", 0, 0, {}]]]}, {"class_name": "ZeroPadding2D", "config": {"name": "zero_padding2d_23", "trainable": true, "dtype": "float32", "padding": [[1, 1], [1, 1]], "data_format": "channels_last"}, "name": "zero_padding2d_23", "inbound_nodes": [[["vargface_stage_3_unit_5_sep1_data", 0, 0, {}]]]}, {"class_name": "SeparableConv2D", "config": {"name": "vargface_stage_3_unit_5_sep2_data", "trainable": true, "dtype": "float32", "filters": 160, "kernel_size": [3, 3], "strides": [1, 1], "padding": "valid", "data_format": "channels_last", "dilation_rate": [1, 1], "groups": 1, "activation": {"class_name": "LeakyReLU", "config": {"name": "leaky_re_lu_39", "trainable": true, "dtype": "float32", "alpha": 0.1}, "shared_object_id": 253}, "use_bias": false, "depthwise_initializer": {"class_name": "GlorotUniform", "config": {"seed": null}}, "bias_initializer": {"class_name": "Zeros", "config": {}, "shared_object_id": 256}, "depthwise_intializer": null, "bias_regularizer": null, "activity_regularizer": null, "depthwise_constraint": null, "bias_constraint": null, "depth_multiplier": 2, "depthwise_initializer": {"class_name": "GlorotUniform", "config": {"seed": null}}, "pointwise_initializer": {"class_name": "GlorotUniform", "config": {"seed": null}}, "depthwise_regularizer": null, "pointwise_regularizer": null, "depthwise_constraint": null, "pointwise_constraint": null}, "name": "vargface_stage_3_unit_5_sep2_data", "inbound_nodes": [[["zero_padding2d_23", 0, 0, {}]]]}, {"class_name": "GlobalAveragePooling2D", "config": {"name": "vargface_stage_3_unit_5_se_pool1", "trainable": true, "dtype": "float32", "data_format": "channels_last", "keepdims": true}, "name": "vargface_stage_3_unit_5_se_pool1", "inbound_nodes": [[["vargface_stage_3_unit_5_sep2_data", 0, 0, {}]]]}, {"class_name": "Reshape", "config": {"name": "reshape_6", "trainable": true, "dtype": "float32", "target_shape": [1, 1, 160]}, "name": "reshape_6", "inbound_nodes": [[["vargface_stage_3_unit_5_se_pool1", 0, 0, {}]]]}, {"class_name": "Conv2D", "config": {"name": "vargface_stage_3_unit_5_se_conv1", "trainable": true, "dtype": "float32", "filters": 40, "kernel_size": [1, 1], "strides": [1, 1], "padding": "same", "data_format": "channels_last", "dilation_rate": [1, 1], "groups": 1, "activation": "linear", "use_bias": true, "depthwise_initializer": {"class_name": "GlorotUniform", "config": {"seed": null}}, "bias_initializer": {"class_name": "Zeros", "config": {}}, "depthwise_intializer": null, "bias_regularizer": null, "activity_regularizer": null, "depthwise_constraint": null, "bias_constraint": null}, "name": "vargface_stage_3_unit_5_se_conv1", "inbound_nodes": [[["reshape_6", 0, 0, {}]]]}, {"class_name": "LeakyReLU", "config": {"name": "leaky_re_lu_40", "trainable": true, "dtype": "float32", "alpha": 0.1}, "name": "leaky_re_lu_40", "inbound_nodes": [[["vargface_stage_3_unit_5_se_conv1", 0, 0, {}]]]}, {"class_name": "Conv2D", "config": {"name": "vargface_stage_3_unit_5_se_conv2", "trainable": true, "dtype": "float32", "filters": 160, "kernel_size": [1, 1], "strides": [1, 1], "padding": "valid", "data_format": "channels_last", "dilation_rate": [1, 1], "groups": 1, "activation": "linear", "use_bias": true, "depthwise_initializer": {"class_name": "GlorotUniform", "config": {"seed": null}}, "bias_initializer": {"class_name": "Zeros", "config": {}}, "depthwise_intializer": null, "bias_regularizer": null, "activity_regularizer": null, "depthwise_constraint": null, "bias_constraint": null}, "name": "vargface_stage_3_unit_5_se_conv2", "inbound_nodes": [[["leaky_re_lu_40", 0, 0, {}]]]}, {"class_name": "Activation", "config": {"name": "vargface_stage_3_unit_5_se_sigmoid", "trainable": true, "dtype": "float32", "activation": "sigmoid"}, "name": "vargface_stage_3_unit_5_se_sigmoid", "inbound_nodes": [[["vargface_stage_3_unit_5_se_conv2", 0, 0, {}]]]}, {"class_name": "Multiply", "config": {"name": "multiply_6", "trainable": true, "dtype": "float32"}, "name": "multiply_6", "inbound_nodes": [[["vargface_stage_3_unit_5_sep2_data", 0, 0, {}], ["vargface_stage_3_unit_5_se_sigmoid", 0, 0, {}]]]}, {"class_name": "Add", "config": {"name": "add_10", "trainable": true, "dtype": "float32"}, "name": "add_10", "inbound_nodes": [[["multiply_6", 0, 0, {}], ["leaky_re_lu_37", 0, 0, {}]]]}, {"class_name": "LeakyReLU", "config": {"name": "leaky_re_lu_41", "trainable": true, "dtype": "float32", "alpha": 0.1}, "name": "leaky_re_lu_41", "inbound_nodes": [[["add_10", 0, 0, {}]]]}, {"class_name": "ZeroPadding2D", "config": {"name": "zero_padding2d_24", "trainable": true, "dtype": "float32", "padding": [[1, 1], [1, 1]], "data_format": "channels_last"}, "name": "zero_padding2d_24", "inbound_nodes": [[["leaky_re_lu_41", 0, 0, {}]]]}, {"class_name": "SeparableConv2D", "config": {"name": "vargface_stage_3_unit_6_sep1_data", "trainable": true, "dtype": "float32", "filters": 160, "kernel_size": [3, 3], "strides": [1, 1], "padding": "valid", "data_format": "channels_last", "dilation_rate": [1, 1], "groups": 1, "activation": {"class_name": "LeakyReLU", "config": {"name": "leaky_re_lu_42", "trainable": true, "dtype": "float32", "alpha": 0.1}, "shared_object_id": 273}, "use_bias": false, "depthwise_initializer": {"class_name": "GlorotUniform", "config": {"seed": null}}, "bias_initializer": {"class_name": "Zeros", "config": {}, "shared_object_id": 276}, "depthwise_intializer": null, "bias_regularizer": null, "activity_regularizer": null, "depthwise_constraint": null, "bias_constraint": null, "depth_multiplier": 2, "depthwise_initializer": {"class_name": "GlorotUniform", "config": {"seed": null}}, "pointwise_initializer": {"class_name": "GlorotUniform", "config": {"seed": null}}, "depthwise_regularizer": null, "pointwise_regularizer": null, "depthwise_constraint": null, "pointwise_constraint": null}, "name": "vargface_stage_3_unit_6_sep1_data", "inbound_nodes": [[["zero_padding2d_24", 0, 0, {}]]]}, {"class_name": "ZeroPadding2D", "config": {"name": "zero_padding2d_25", "trainable": true, "dtype": "float32", "padding": [[1, 1], [1, 1]], "data_format": "channels_last"}, "name": "zero_padding2d_25", "inbound_nodes": [[["vargface_stage_3_unit_6_sep1_data", 0, 0, {}]]]}, {"class_name": "SeparableConv2D", "config": {"name": "vargface_stage_3_unit_6_sep2_data", "trainable": true, "dtype": "float32", "filters": 160, "kernel_size": [3, 3], "strides": [1, 1], "padding": "valid", "data_format": "channels_last", "dilation_rate": [1, 1], "groups": 1, "activation": {"class_name": "LeakyReLU", "config": {"name": "leaky_re_lu_43", "trainable": true, "dtype": "float32", "alpha": 0.1}, "shared_object_id": 280}, "use_bias": false, "depthwise_initializer": {"class_name": "GlorotUniform", "config": {"seed": null}}, "bias_initializer": {"class_name": "Zeros", "config": {}, "shared_object_id": 283}, "depthwise_intializer": null, "bias_regularizer": null, "activity_regularizer": null, "depthwise_constraint": null, "bias_constraint": null, "depth_multiplier": 2, "depthwise_initializer": {"class_name": "GlorotUniform", "config": {"seed": null}}, "pointwise_initializer": {"class_name": "GlorotUniform", "config": {"seed": null}}, "depthwise_regularizer": null, "pointwise_regularizer": null, "depthwise_constraint": null, "pointwise_constraint": null}, "name": "vargface_stage_3_unit_6_sep2_data", "inbound_nodes": [[["zero_padding2d_25", 0, 0, {}]]]}, {"class_name": "GlobalAveragePooling2D", "config": {"name": "vargface_stage_3_unit_6_se_pool1", "trainable": true, "dtype": "float32", "data_format": "channels_last", "keepdims": true}, "name": "vargface_stage_3_unit_6_se_pool1", "inbound_nodes": [[["vargface_stage_3_unit_6_sep2_data", 0, 0, {}]]]}, {"class_name": "Reshape", "config": {"name": "reshape_7", "trainable": true, "dtype": "float32", "target_shape": [1, 1, 160]}, "name": "reshape_7", "inbound_nodes": [[["vargface_stage_3_unit_6_se_pool1", 0, 0, {}]]]}, {"class_name": "Conv2D", "config": {"name": "vargface_stage_3_unit_6_se_conv1", "trainable": true, "dtype": "float32", "filters": 40, "kernel_size": [1, 1], "strides": [1, 1], "padding": "same", "data_format": "channels_last", "dilation_rate": [1, 1], "groups": 1, "activation": "linear", "use_bias": true, "depthwise_initializer": {"class_name": "GlorotUniform", "config": {"seed": null}}, "bias_initializer": {"class_name": "Zeros", "config": {}}, "depthwise_intializer": null, "bias_regularizer": null, "activity_regularizer": null, "depthwise_constraint": null, "bias_constraint": null}, "name": "vargface_stage_3_unit_6_se_conv1", "inbound_nodes": [[["reshape_7", 0, 0, {}]]]}, {"class_name": "LeakyReLU", "config": {"name": "leaky_re_lu_44", "trainable": true, "dtype": "float32", "alpha": 0.1}, "name": "leaky_re_lu_44", "inbound_nodes": [[["vargface_stage_3_unit_6_se_conv1", 0, 0, {}]]]}, {"class_name": "Conv2D", "config": {"name": "vargface_stage_3_unit_6_se_conv2", "trainable": true, "dtype": "float32", "filters": 160, "kernel_size": [1, 1], "strides": [1, 1], "padding": "valid", "data_format": "channels_last", "dilation_rate": [1, 1], "groups": 1, "activation": "linear", "use_bias": true, "depthwise_initializer": {"class_name": "GlorotUniform", "config": {"seed": null}}, "bias_initializer": {"class_name": "Zeros", "config": {}}, "depthwise_intializer": null, "bias_regularizer": null, "activity_regularizer": null, "depthwise_constraint": null, "bias_constraint": null}, "name": "vargface_stage_3_unit_6_se_conv2", "inbound_nodes": [[["leaky_re_lu_44", 0, 0, {}]]]}, {"class_name": "Activation", "config": {"name": "vargface_stage_3_unit_6_se_sigmoid", "trainable": true, "dtype": "float32", "activation": "sigmoid"}, "name": "vargface_stage_3_unit_6_se_sigmoid", "inbound_nodes": [[["vargface_stage_3_unit_6_se_conv2", 0, 0, {}]]]}, {"class_name": "Multiply", "config": {"name": "multiply_7", "trainable": true, "dtype": "float32"}, "name": "multiply_7", "inbound_nodes": [[["vargface_stage_3_unit_6_sep2_data", 0, 0, {}], ["vargface_stage_3_unit_6_se_sigmoid", 0, 0, {}]]]}, {"class_name": "Add", "config": {"name": "add_11", "trainable": true, "dtype": "float32"}, "name": "add_11", "inbound_nodes": [[["multiply_7", 0, 0, {}], ["leaky_re_lu_41", 0, 0, {}]]]}, {"class_name": "LeakyReLU", "config": {"name": "leaky_re_lu_45", "trainable": true, "dtype": "float32", "alpha": 0.1}, "name": "leaky_re_lu_45", "inbound_nodes": [[["add_11", 0, 0, {}]]]}, {"class_name": "ZeroPadding2D", "config": {"name": "zero_padding2d_26", "trainable": true, "dtype": "float32", "padding": [[1, 1], [1, 1]], "data_format": "channels_last"}, "name": "zero_padding2d_26", "inbound_nodes": [[["leaky_re_lu_45", 0, 0, {}]]]}, {"class_name": "SeparableConv2D", "config": {"name": "vargface_stage_3_unit_7_sep1_data", "trainable": true, "dtype": "float32", "filters": 160, "kernel_size": [3, 3], "strides": [1, 1], "padding": "valid", "data_format": "channels_last", "dilation_rate": [1, 1], "groups": 1, "activation": {"class_name": "LeakyReLU", "config": {"name": "leaky_re_lu_46", "trainable": true, "dtype": "float32", "alpha": 0.1}, "shared_object_id": 300}, "use_bias": false, "depthwise_initializer": {"class_name": "GlorotUniform", "config": {"seed": null}}, "bias_initializer": {"class_name": "Zeros", "config": {}, "shared_object_id": 303}, "depthwise_intializer": null, "bias_regularizer": null, "activity_regularizer": null, "depthwise_constraint": null, "bias_constraint": null, "depth_multiplier": 2, "depthwise_initializer": {"class_name": "GlorotUniform", "config": {"seed": null}}, "pointwise_initializer": {"class_name": "GlorotUniform", "config": {"seed": null}}, "depthwise_regularizer": null, "pointwise_regularizer": null, "depthwise_constraint": null, "pointwise_constraint": null}, "name": "vargface_stage_3_unit_7_sep1_data", "inbound_nodes": [[["zero_padding2d_26", 0, 0, {}]]]}, {"class_name": "ZeroPadding2D", "config": {"name": "zero_padding2d_27", "trainable": true, "dtype": "float32", "padding": [[1, 1], [1, 1]], "data_format": "channels_last"}, "name": "zero_padding2d_27", "inbound_nodes": [[["vargface_stage_3_unit_7_sep1_data", 0, 0, {}]]]}, {"class_name": "SeparableConv2D", "config": {"name": "vargface_stage_3_unit_7_sep2_data", "trainable": true, "dtype": "float32", "filters": 160, "kernel_size": [3, 3], "strides": [1, 1], "padding": "valid", "data_format": "channels_last", "dilation_rate": [1, 1], "groups": 1, "activation": {"class_name": "LeakyReLU", "config": {"name": "leaky_re_lu_47", "trainable": true, "dtype": "float32", "alpha": 0.1}, "shared_object_id": 307}, "use_bias": false, "depthwise_initializer": {"class_name": "GlorotUniform", "config": {"seed": null}}, "bias_initializer": {"class_name": "Zeros", "config": {}, "shared_object_id": 310}, "depthwise_intializer": null, "bias_regularizer": null, "activity_regularizer": null, "depthwise_constraint": null, "bias_constraint": null, "depth_multiplier": 2, "depthwise_initializer": {"class_name": "GlorotUniform", "config": {"seed": null}}, "pointwise_initializer": {"class_name": "GlorotUniform", "config": {"seed": null}}, "depthwise_regularizer": null, "pointwise_regularizer": null, "depthwise_constraint": null, "pointwise_constraint": null}, "name": "vargface_stage_3_unit_7_sep2_data", "inbound_nodes": [[["zero_padding2d_27", 0, 0, {}]]]}, {"class_name": "GlobalAveragePooling2D", "config": {"name": "vargface_stage_3_unit_7_se_pool1", "trainable": true, "dtype": "float32", "data_format": "channels_last", "keepdims": true}, "name": "vargface_stage_3_unit_7_se_pool1", "inbound_nodes": [[["vargface_stage_3_unit_7_sep2_data", 0, 0, {}]]]}, {"class_name": "Reshape", "config": {"name": "reshape_8", "trainable": true, "dtype": "float32", "target_shape": [1, 1, 160]}, "name": "reshape_8", "inbound_nodes": [[["vargface_stage_3_unit_7_se_pool1", 0, 0, {}]]]}, {"class_name": "Conv2D", "config": {"name": "vargface_stage_3_unit_7_se_conv1", "trainable": true, "dtype": "float32", "filters": 40, "kernel_size": [1, 1], "strides": [1, 1], "padding": "same", "data_format": "channels_last", "dilation_rate": [1, 1], "groups": 1, "activation": "linear", "use_bias": true, "depthwise_initializer": {"class_name": "GlorotUniform", "config": {"seed": null}}, "bias_initializer": {"class_name": "Zeros", "config": {}}, "depthwise_intializer": null, "bias_regularizer": null, "activity_regularizer": null, "depthwise_constraint": null, "bias_constraint": null}, "name": "vargface_stage_3_unit_7_se_conv1", "inbound_nodes": [[["reshape_8", 0, 0, {}]]]}, {"class_name": "LeakyReLU", "config": {"name": "leaky_re_lu_48", "trainable": true, "dtype": "float32", "alpha": 0.1}, "name": "leaky_re_lu_48", "inbound_nodes": [[["vargface_stage_3_unit_7_se_conv1", 0, 0, {}]]]}, {"class_name": "Conv2D", "config": {"name": "vargface_stage_3_unit_7_se_conv2", "trainable": true, "dtype": "float32", "filters": 160, "kernel_size": [1, 1], "strides": [1, 1], "padding": "valid", "data_format": "channels_last", "dilation_rate": [1, 1], "groups": 1, "activation": "linear", "use_bias": true, "depthwise_initializer": {"class_name": "GlorotUniform", "config": {"seed": null}}, "bias_initializer": {"class_name": "Zeros", "config": {}}, "depthwise_intializer": null, "bias_regularizer": null, "activity_regularizer": null, "depthwise_constraint": null, "bias_constraint": null}, "name": "vargface_stage_3_unit_7_se_conv2", "inbound_nodes": [[["leaky_re_lu_48", 0, 0, {}]]]}, {"class_name": "Activation", "config": {"name": "vargface_stage_3_unit_7_se_sigmoid", "trainable": true, "dtype": "float32", "activation": "sigmoid"}, "name": "vargface_stage_3_unit_7_se_sigmoid", "inbound_nodes": [[["vargface_stage_3_unit_7_se_conv2", 0, 0, {}]]]}, {"class_name": "Multiply", "config": {"name": "multiply_8", "trainable": true, "dtype": "float32"}, "name": "multiply_8", "inbound_nodes": [[["vargface_stage_3_unit_7_sep2_data", 0, 0, {}], ["vargface_stage_3_unit_7_se_sigmoid", 0, 0, {}]]]}, {"class_name": "Add", "config": {"name": "add_12", "trainable": true, "dtype": "float32"}, "name": "add_12", "inbound_nodes": [[["multiply_8", 0, 0, {}], ["leaky_re_lu_45", 0, 0, {}]]]}, {"class_name": "LeakyReLU", "config": {"name": "leaky_re_lu_49", "trainable": true, "dtype": "float32", "alpha": 0.1}, "name": "leaky_re_lu_49", "inbound_nodes": [[["add_12", 0, 0, {}]]]}, {"class_name": "ZeroPadding2D", "config": {"name": "zero_padding2d_29", "trainable": true, "dtype": "float32", "padding": [[1, 1], [1, 1]], "data_format": "channels_last"}, "name": "zero_padding2d_29", "inbound_nodes": [[["leaky_re_lu_49", 0, 0, {}]]]}, {"class_name": "ZeroPadding2D", "config": {"name": "zero_padding2d_30", "trainable": true, "dtype": "float32", "padding": [[1, 1], [1, 1]], "data_format": "channels_last"}, "name": "zero_padding2d_30", "inbound_nodes": [[["leaky_re_lu_49", 0, 0, {}]]]}, {"class_name": "SeparableConv2D", "config": {"name": "vargface_stage_4_unit_1_step1_data_branch", "trainable": true, "dtype": "float32", "filters": 320, "kernel_size": [3, 3], "strides": [2, 2], "padding": "valid", "data_format": "channels_last", "dilation_rate": [1, 1], "groups": 1, "activation": {"class_name": "LeakyReLU", "config": {"name": "leaky_re_lu_51", "trainable": true, "dtype": "float32", "alpha": 0.1}, "shared_object_id": 328}, "use_bias": false, "depthwise_initializer": {"class_name": "GlorotUniform", "config": {"seed": null}}, "bias_initializer": {"class_name": "Zeros", "config": {}, "shared_object_id": 331}, "depthwise_intializer": null, "bias_regularizer": null, "activity_regularizer": null, "depthwise_constraint": null, "bias_constraint": null, "depth_multiplier": 2, "depthwise_initializer": {"class_name": "GlorotUniform", "config": {"seed": null}}, "pointwise_initializer": {"class_name": "GlorotUniform", "config": {"seed": null}}, "depthwise_regularizer": null, "pointwise_regularizer": null, "depthwise_constraint": null, "pointwise_constraint": null}, "name": "vargface_stage_4_unit_1_step1_data_branch", "inbound_nodes": [[["zero_padding2d_29", 0, 0, {}]]]}, {"class_name": "SeparableConv2D", "config": {"name": "vargface_stage_4_unit_1_step2_data_branch", "trainable": true, "dtype": "float32", "filters": 320, "kernel_size": [3, 3], "strides": [2, 2], "padding": "valid", "data_format": "channels_last", "dilation_rate": [1, 1], "groups": 1, "activation": {"class_name": "LeakyReLU", "config": {"name": "leaky_re_lu_52", "trainable": true, "dtype": "float32", "alpha": 0.1}, "shared_object_id": 334}, "use_bias": false, "depthwise_initializer": {"class_name": "GlorotUniform", "config": {"seed": null}}, "bias_initializer": {"class_name": "Zeros", "config": {}, "shared_object_id": 337}, "depthwise_intializer": null, "bias_regularizer": null, "activity_regularizer": null, "depthwise_constraint": null, "bias_constraint": null, "depth_multiplier": 2, "depthwise_initializer": {"class_name": "GlorotUniform", "config": {"seed": null}}, "pointwise_initializer": {"class_name": "GlorotUniform", "config": {"seed": null}}, "depthwise_regularizer": null, "pointwise_regularizer": null, "depthwise_constraint": null, "pointwise_constraint": null}, "name": "vargface_stage_4_unit_1_step2_data_branch", "inbound_nodes": [[["zero_padding2d_30", 0, 0, {}]]]}, {"class_name": "Add", "config": {"name": "add_13", "trainable": true, "dtype": "float32"}, "name": "add_13", "inbound_nodes": [[["vargface_stage_4_unit_1_step1_data_branch", 0, 0, {}], ["vargface_stage_4_unit_1_step2_data_branch", 0, 0, {}]]]}, {"class_name": "LeakyReLU", "config": {"name": "leaky_re_lu_53", "trainable": true, "dtype": "float32", "alpha": 0.1}, "name": "leaky_re_lu_53", "inbound_nodes": [[["add_13", 0, 0, {}]]]}, {"class_name": "ZeroPadding2D", "config": {"name": "zero_padding2d_31", "trainable": true, "dtype": "float32", "padding": [[1, 1], [1, 1]], "data_format": "channels_last"}, "name": "zero_padding2d_31", "inbound_nodes": [[["leaky_re_lu_53", 0, 0, {}]]]}, {"class_name": "ZeroPadding2D", "config": {"name": "zero_padding2d_28", "trainable": true, "dtype": "float32", "padding": [[1, 1], [1, 1]], "data_format": "channels_last"}, "name": "zero_padding2d_28", "inbound_nodes": [[["leaky_re_lu_49", 0, 0, {}]]]}, {"class_name": "SeparableConv2D", "config": {"name": "vargface_stage_4_unit_1_step2_data", "trainable": true, "dtype": "float32", "filters": 320, "kernel_size": [3, 3], "strides": [1, 1], "padding": "valid", "data_format": "channels_last", "dilation_rate": [1, 1], "groups": 1, "activation": {"class_name": "LeakyReLU", "config": {"name": "leaky_re_lu_54", "trainable": true, "dtype": "float32", "alpha": 0.1}, "shared_object_id": 344}, "use_bias": false, "depthwise_initializer": {"class_name": "GlorotUniform", "config": {"seed": null}}, "bias_initializer": {"class_name": "Zeros", "config": {}, "shared_object_id": 347}, "depthwise_intializer": null, "bias_regularizer": null, "activity_regularizer": null, "depthwise_constraint": null, "bias_constraint": null, "depth_multiplier": 2, "depthwise_initializer": {"class_name": "GlorotUniform", "config": {"seed": null}}, "pointwise_initializer": {"class_name": "GlorotUniform", "config": {"seed": null}}, "depthwise_regularizer": null, "pointwise_regularizer": null, "depthwise_constraint": null, "pointwise_constraint": null}, "name": "vargface_stage_4_unit_1_step2_data", "inbound_nodes": [[["zero_padding2d_31", 0, 0, {}]]]}, {"class_name": "SeparableConv2D", "config": {"name": "vargface_stage_4_unit_1_shortcut", "trainable": true, "dtype": "float32", "filters": 320, "kernel_size": [3, 3], "strides": [2, 2], "padding": "valid", "data_format": "channels_last", "dilation_rate": [1, 1], "groups": 1, "activation": {"class_name": "LeakyReLU", "config": {"name": "leaky_re_lu_50", "trainable": true, "dtype": "float32", "alpha": 0.1}, "shared_object_id": 350}, "use_bias": false, "depthwise_initializer": {"class_name": "GlorotUniform", "config": {"seed": null}}, "bias_initializer": {"class_name": "Zeros", "config": {}, "shared_object_id": 353}, "depthwise_intializer": null, "bias_regularizer": null, "activity_regularizer": null, "depthwise_constraint": null, "bias_constraint": null, "depth_multiplier": 2, "depthwise_initializer": {"class_name": "GlorotUniform", "config": {"seed": null}}, "pointwise_initializer": {"class_name": "GlorotUniform", "config": {"seed": null}}, "depthwise_regularizer": null, "pointwise_regularizer": null, "depthwise_constraint": null, "pointwise_constraint": null}, "name": "vargface_stage_4_unit_1_shortcut", "inbound_nodes": [[["zero_padding2d_28", 0, 0, {}]]]}, {"class_name": "Add", "config": {"name": "add_14", "trainable": true, "dtype": "float32"}, "name": "add_14", "inbound_nodes": [[["vargface_stage_4_unit_1_step2_data", 0, 0, {}], ["vargface_stage_4_unit_1_shortcut", 0, 0, {}]]]}, {"class_name": "LeakyReLU", "config": {"name": "leaky_re_lu_55", "trainable": true, "dtype": "float32", "alpha": 0.1}, "name": "leaky_re_lu_55", "inbound_nodes": [[["add_14", 0, 0, {}]]]}, {"class_name": "ZeroPadding2D", "config": {"name": "zero_padding2d_32", "trainable": true, "dtype": "float32", "padding": [[1, 1], [1, 1]], "data_format": "channels_last"}, "name": "zero_padding2d_32", "inbound_nodes": [[["leaky_re_lu_55", 0, 0, {}]]]}, {"class_name": "SeparableConv2D", "config": {"name": "vargface_stage_4_unit_2_sep1_data", "trainable": true, "dtype": "float32", "filters": 320, "kernel_size": [3, 3], "strides": [1, 1], "padding": "valid", "data_format": "channels_last", "dilation_rate": [1, 1], "groups": 1, "activation": {"class_name": "LeakyReLU", "config": {"name": "leaky_re_lu_56", "trainable": true, "dtype": "float32", "alpha": 0.1}, "shared_object_id": 359}, "use_bias": false, "depthwise_initializer": {"class_name": "GlorotUniform", "config": {"seed": null}}, "bias_initializer": {"class_name": "Zeros", "config": {}, "shared_object_id": 362}, "depthwise_intializer": null, "bias_regularizer": null, "activity_regularizer": null, "depthwise_constraint": null, "bias_constraint": null, "depth_multiplier": 2, "depthwise_initializer": {"class_name": "GlorotUniform", "config": {"seed": null}}, "pointwise_initializer": {"class_name": "GlorotUniform", "config": {"seed": null}}, "depthwise_regularizer": null, "pointwise_regularizer": null, "depthwise_constraint": null, "pointwise_constraint": null}, "name": "vargface_stage_4_unit_2_sep1_data", "inbound_nodes": [[["zero_padding2d_32", 0, 0, {}]]]}, {"class_name": "ZeroPadding2D", "config": {"name": "zero_padding2d_33", "trainable": true, "dtype": "float32", "padding": [[1, 1], [1, 1]], "data_format": "channels_last"}, "name": "zero_padding2d_33", "inbound_nodes": [[["vargface_stage_4_unit_2_sep1_data", 0, 0, {}]]]}, {"class_name": "SeparableConv2D", "config": {"name": "vargface_stage_4_unit_2_sep2_data", "trainable": true, "dtype": "float32", "filters": 320, "kernel_size": [3, 3], "strides": [1, 1], "padding": "valid", "data_format": "channels_last", "dilation_rate": [1, 1], "groups": 1, "activation": {"class_name": "LeakyReLU", "config": {"name": "leaky_re_lu_57", "trainable": true, "dtype": "float32", "alpha": 0.1}, "shared_object_id": 366}, "use_bias": false, "depthwise_initializer": {"class_name": "GlorotUniform", "config": {"seed": null}}, "bias_initializer": {"class_name": "Zeros", "config": {}, "shared_object_id": 369}, "depthwise_intializer": null, "bias_regularizer": null, "activity_regularizer": null, "depthwise_constraint": null, "bias_constraint": null, "depth_multiplier": 2, "depthwise_initializer": {"class_name": "GlorotUniform", "config": {"seed": null}}, "pointwise_initializer": {"class_name": "GlorotUniform", "config": {"seed": null}}, "depthwise_regularizer": null, "pointwise_regularizer": null, "depthwise_constraint": null, "pointwise_constraint": null}, "name": "vargface_stage_4_unit_2_sep2_data", "inbound_nodes": [[["zero_padding2d_33", 0, 0, {}]]]}, {"class_name": "GlobalAveragePooling2D", "config": {"name": "vargface_stage_4_unit_2_se_pool1", "trainable": true, "dtype": "float32", "data_format": "channels_last", "keepdims": true}, "name": "vargface_stage_4_unit_2_se_pool1", "inbound_nodes": [[["vargface_stage_4_unit_2_sep2_data", 0, 0, {}]]]}, {"class_name": "Reshape", "config": {"name": "reshape_9", "trainable": true, "dtype": "float32", "target_shape": [1, 1, 320]}, "name": "reshape_9", "inbound_nodes": [[["vargface_stage_4_unit_2_se_pool1", 0, 0, {}]]]}, {"class_name": "Conv2D", "config": {"name": "vargface_stage_4_unit_2_se_conv1", "trainable": true, "dtype": "float32", "filters": 80, "kernel_size": [1, 1], "strides": [1, 1], "padding": "same", "data_format": "channels_last", "dilation_rate": [1, 1], "groups": 1, "activation": "linear", "use_bias": true, "depthwise_initializer": {"class_name": "GlorotUniform", "config": {"seed": null}}, "bias_initializer": {"class_name": "Zeros", "config": {}}, "depthwise_intializer": null, "bias_regularizer": null, "activity_regularizer": null, "depthwise_constraint": null, "bias_constraint": null}, "name": "vargface_stage_4_unit_2_se_conv1", "inbound_nodes": [[["reshape_9", 0, 0, {}]]]}, {"class_name": "LeakyReLU", "config": {"name": "leaky_re_lu_58", "trainable": true, "dtype": "float32", "alpha": 0.1}, "name": "leaky_re_lu_58", "inbound_nodes": [[["vargface_stage_4_unit_2_se_conv1", 0, 0, {}]]]}, {"class_name": "Conv2D", "config": {"name": "vargface_stage_4_unit_2_se_conv2", "trainable": true, "dtype": "float32", "filters": 320, "kernel_size": [1, 1], "strides": [1, 1], "padding": "valid", "data_format": "channels_last", "dilation_rate": [1, 1], "groups": 1, "activation": "linear", "use_bias": true, "depthwise_initializer": {"class_name": "GlorotUniform", "config": {"seed": null}}, "bias_initializer": {"class_name": "Zeros", "config": {}}, "depthwise_intializer": null, "bias_regularizer": null, "activity_regularizer": null, "depthwise_constraint": null, "bias_constraint": null}, "name": "vargface_stage_4_unit_2_se_conv2", "inbound_nodes": [[["leaky_re_lu_58", 0, 0, {}]]]}, {"class_name": "Activation", "config": {"name": "vargface_stage_4_unit_2_se_sigmoid", "trainable": true, "dtype": "float32", "activation": "sigmoid"}, "name": "vargface_stage_4_unit_2_se_sigmoid", "inbound_nodes": [[["vargface_stage_4_unit_2_se_conv2", 0, 0, {}]]]}, {"class_name": "Multiply", "config": {"name": "multiply_9", "trainable": true, "dtype": "float32"}, "name": "multiply_9", "inbound_nodes": [[["vargface_stage_4_unit_2_sep2_data", 0, 0, {}], ["vargface_stage_4_unit_2_se_sigmoid", 0, 0, {}]]]}, {"class_name": "Add", "config": {"name": "add_15", "trainable": true, "dtype": "float32"}, "name": "add_15", "inbound_nodes": [[["multiply_9", 0, 0, {}], ["leaky_re_lu_55", 0, 0, {}]]]}, {"class_name": "LeakyReLU", "config": {"name": "leaky_re_lu_59", "trainable": true, "dtype": "float32", "alpha": 0.1}, "name": "leaky_re_lu_59", "inbound_nodes": [[["add_15", 0, 0, {}]]]}, {"class_name": "ZeroPadding2D", "config": {"name": "zero_padding2d_34", "trainable": true, "dtype": "float32", "padding": [[1, 1], [1, 1]], "data_format": "channels_last"}, "name": "zero_padding2d_34", "inbound_nodes": [[["leaky_re_lu_59", 0, 0, {}]]]}, {"class_name": "SeparableConv2D", "config": {"name": "vargface_stage_4_unit_3_sep1_data", "trainable": true, "dtype": "float32", "filters": 320, "kernel_size": [3, 3], "strides": [1, 1], "padding": "valid", "data_format": "channels_last", "dilation_rate": [1, 1], "groups": 1, "activation": {"class_name": "LeakyReLU", "config": {"name": "leaky_re_lu_60", "trainable": true, "dtype": "float32", "alpha": 0.1}, "shared_object_id": 386}, "use_bias": false, "depthwise_initializer": {"class_name": "GlorotUniform", "config": {"seed": null}}, "bias_initializer": {"class_name": "Zeros", "config": {}, "shared_object_id": 389}, "depthwise_intializer": null, "bias_regularizer": null, "activity_regularizer": null, "depthwise_constraint": null, "bias_constraint": null, "depth_multiplier": 2, "depthwise_initializer": {"class_name": "GlorotUniform", "config": {"seed": null}}, "pointwise_initializer": {"class_name": "GlorotUniform", "config": {"seed": null}}, "depthwise_regularizer": null, "pointwise_regularizer": null, "depthwise_constraint": null, "pointwise_constraint": null}, "name": "vargface_stage_4_unit_3_sep1_data", "inbound_nodes": [[["zero_padding2d_34", 0, 0, {}]]]}, {"class_name": "ZeroPadding2D", "config": {"name": "zero_padding2d_35", "trainable": true, "dtype": "float32", "padding": [[1, 1], [1, 1]], "data_format": "channels_last"}, "name": "zero_padding2d_35", "inbound_nodes": [[["vargface_stage_4_unit_3_sep1_data", 0, 0, {}]]]}, {"class_name": "SeparableConv2D", "config": {"name": "vargface_stage_4_unit_3_sep2_data", "trainable": true, "dtype": "float32", "filters": 320, "kernel_size": [3, 3], "strides": [1, 1], "padding": "valid", "data_format": "channels_last", "dilation_rate": [1, 1], "groups": 1, "activation": {"class_name": "LeakyReLU", "config": {"name": "leaky_re_lu_61", "trainable": true, "dtype": "float32", "alpha": 0.1}, "shared_object_id": 393}, "use_bias": false, "depthwise_initializer": {"class_name": "GlorotUniform", "config": {"seed": null}}, "bias_initializer": {"class_name": "Zeros", "config": {}, "shared_object_id": 396}, "depthwise_intializer": null, "bias_regularizer": null, "activity_regularizer": null, "depthwise_constraint": null, "bias_constraint": null, "depth_multiplier": 2, "depthwise_initializer": {"class_name": "GlorotUniform", "config": {"seed": null}}, "pointwise_initializer": {"class_name": "GlorotUniform", "config": {"seed": null}}, "depthwise_regularizer": null, "pointwise_regularizer": null, "depthwise_constraint": null, "pointwise_constraint": null}, "name": "vargface_stage_4_unit_3_sep2_data", "inbound_nodes": [[["zero_padding2d_35", 0, 0, {}]]]}, {"class_name": "GlobalAveragePooling2D", "config": {"name": "vargface_stage_4_unit_3_se_pool1", "trainable": true, "dtype": "float32", "data_format": "channels_last", "keepdims": true}, "name": "vargface_stage_4_unit_3_se_pool1", "inbound_nodes": [[["vargface_stage_4_unit_3_sep2_data", 0, 0, {}]]]}, {"class_name": "Reshape", "config": {"name": "reshape_10", "trainable": true, "dtype": "float32", "target_shape": [1, 1, 320]}, "name": "reshape_10", "inbound_nodes": [[["vargface_stage_4_unit_3_se_pool1", 0, 0, {}]]]}, {"class_name": "Conv2D", "config": {"name": "vargface_stage_4_unit_3_se_conv1", "trainable": true, "dtype": "float32", "filters": 80, "kernel_size": [1, 1], "strides": [1, 1], "padding": "same", "data_format": "channels_last", "dilation_rate": [1, 1], "groups": 1, "activation": "linear", "use_bias": true, "depthwise_initializer": {"class_name": "GlorotUniform", "config": {"seed": null}}, "bias_initializer": {"class_name": "Zeros", "config": {}}, "depthwise_intializer": null, "bias_regularizer": null, "activity_regularizer": null, "depthwise_constraint": null, "bias_constraint": null}, "name": "vargface_stage_4_unit_3_se_conv1", "inbound_nodes": [[["reshape_10", 0, 0, {}]]]}, {"class_name": "LeakyReLU", "config": {"name": "leaky_re_lu_62", "trainable": true, "dtype": "float32", "alpha": 0.1}, "name": "leaky_re_lu_62", "inbound_nodes": [[["vargface_stage_4_unit_3_se_conv1", 0, 0, {}]]]}, {"class_name": "Conv2D", "config": {"name": "vargface_stage_4_unit_3_se_conv2", "trainable": true, "dtype": "float32", "filters": 320, "kernel_size": [1, 1], "strides": [1, 1], "padding": "valid", "data_format": "channels_last", "dilation_rate": [1, 1], "groups": 1, "activation": "linear", "use_bias": true, "depthwise_initializer": {"class_name": "GlorotUniform", "config": {"seed": null}}, "bias_initializer": {"class_name": "Zeros", "config": {}}, "depthwise_intializer": null, "bias_regularizer": null, "activity_regularizer": null, "depthwise_constraint": null, "bias_constraint": null}, "name": "vargface_stage_4_unit_3_se_conv2", "inbound_nodes": [[["leaky_re_lu_62", 0, 0, {}]]]}, {"class_name": "Activation", "config": {"name": "vargface_stage_4_unit_3_se_sigmoid", "trainable": true, "dtype": "float32", "activation": "sigmoid"}, "name": "vargface_stage_4_unit_3_se_sigmoid", "inbound_nodes": [[["vargface_stage_4_unit_3_se_conv2", 0, 0, {}]]]}, {"class_name": "Multiply", "config": {"name": "multiply_10", "trainable": true, "dtype": "float32"}, "name": "multiply_10", "inbound_nodes": [[["vargface_stage_4_unit_3_sep2_data", 0, 0, {}], ["vargface_stage_4_unit_3_se_sigmoid", 0, 0, {}]]]}, {"class_name": "Add", "config": {"name": "add_16", "trainable": true, "dtype": "float32"}, "name": "add_16", "inbound_nodes": [[["multiply_10", 0, 0, {}], ["leaky_re_lu_59", 0, 0, {}]]]}, {"class_name": "LeakyReLU", "config": {"name": "leaky_re_lu_63", "trainable": true, "dtype": "float32", "alpha": 0.1}, "name": "leaky_re_lu_63", "inbound_nodes": [[["add_16", 0, 0, {}]]]}, {"class_name": "ZeroPadding2D", "config": {"name": "zero_padding2d_36", "trainable": true, "dtype": "float32", "padding": [[1, 1], [1, 1]], "data_format": "channels_last"}, "name": "zero_padding2d_36", "inbound_nodes": [[["leaky_re_lu_63", 0, 0, {}]]]}, {"class_name": "SeparableConv2D", "config": {"name": "vargface_stage_4_unit_4_sep1_data", "trainable": true, "dtype": "float32", "filters": 320, "kernel_size": [3, 3], "strides": [1, 1], "padding": "valid", "data_format": "channels_last", "dilation_rate": [1, 1], "groups": 1, "activation": {"class_name": "LeakyReLU", "config": {"name": "leaky_re_lu_64", "trainable": true, "dtype": "float32", "alpha": 0.1}, "shared_object_id": 413}, "use_bias": false, "depthwise_initializer": {"class_name": "GlorotUniform", "config": {"seed": null}}, "bias_initializer": {"class_name": "Zeros", "config": {}, "shared_object_id": 416}, "depthwise_intializer": null, "bias_regularizer": null, "activity_regularizer": null, "depthwise_constraint": null, "bias_constraint": null, "depth_multiplier": 2, "depthwise_initializer": {"class_name": "GlorotUniform", "config": {"seed": null}}, "pointwise_initializer": {"class_name": "GlorotUniform", "config": {"seed": null}}, "depthwise_regularizer": null, "pointwise_regularizer": null, "depthwise_constraint": null, "pointwise_constraint": null}, "name": "vargface_stage_4_unit_4_sep1_data", "inbound_nodes": [[["zero_padding2d_36", 0, 0, {}]]]}, {"class_name": "ZeroPadding2D", "config": {"name": "zero_padding2d_37", "trainable": true, "dtype": "float32", "padding": [[1, 1], [1, 1]], "data_format": "channels_last"}, "name": "zero_padding2d_37", "inbound_nodes": [[["vargface_stage_4_unit_4_sep1_data", 0, 0, {}]]]}, {"class_name": "SeparableConv2D", "config": {"name": "vargface_stage_4_unit_4_sep2_data", "trainable": true, "dtype": "float32", "filters": 320, "kernel_size": [3, 3], "strides": [1, 1], "padding": "valid", "data_format": "channels_last", "dilation_rate": [1, 1], "groups": 1, "activation": {"class_name": "LeakyReLU", "config": {"name": "leaky_re_lu_65", "trainable": true, "dtype": "float32", "alpha": 0.1}, "shared_object_id": 420}, "use_bias": false, "depthwise_initializer": {"class_name": "GlorotUniform", "config": {"seed": null}}, "bias_initializer": {"class_name": "Zeros", "config": {}, "shared_object_id": 423}, "depthwise_intializer": null, "bias_regularizer": null, "activity_regularizer": null, "depthwise_constraint": null, "bias_constraint": null, "depth_multiplier": 2, "depthwise_initializer": {"class_name": "GlorotUniform", "config": {"seed": null}}, "pointwise_initializer": {"class_name": "GlorotUniform", "config": {"seed": null}}, "depthwise_regularizer": null, "pointwise_regularizer": null, "depthwise_constraint": null, "pointwise_constraint": null}, "name": "vargface_stage_4_unit_4_sep2_data", "inbound_nodes": [[["zero_padding2d_37", 0, 0, {}]]]}, {"class_name": "GlobalAveragePooling2D", "config": {"name": "vargface_stage_4_unit_4_se_pool1", "trainable": true, "dtype": "float32", "data_format": "channels_last", "keepdims": true}, "name": "vargface_stage_4_unit_4_se_pool1", "inbound_nodes": [[["vargface_stage_4_unit_4_sep2_data", 0, 0, {}]]]}, {"class_name": "Reshape", "config": {"name": "reshape_11", "trainable": true, "dtype": "float32", "target_shape": [1, 1, 320]}, "name": "reshape_11", "inbound_nodes": [[["vargface_stage_4_unit_4_se_pool1", 0, 0, {}]]]}, {"class_name": "Conv2D", "config": {"name": "vargface_stage_4_unit_4_se_conv1", "trainable": true, "dtype": "float32", "filters": 80, "kernel_size": [1, 1], "strides": [1, 1], "padding": "same", "data_format": "channels_last", "dilation_rate": [1, 1], "groups": 1, "activation": "linear", "use_bias": true, "depthwise_initializer": {"class_name": "GlorotUniform", "config": {"seed": null}}, "bias_initializer": {"class_name": "Zeros", "config": {}}, "depthwise_intializer": null, "bias_regularizer": null, "activity_regularizer": null, "depthwise_constraint": null, "bias_constraint": null}, "name": "vargface_stage_4_unit_4_se_conv1", "inbound_nodes": [[["reshape_11", 0, 0, {}]]]}, {"class_name": "LeakyReLU", "config": {"name": "leaky_re_lu_66", "trainable": true, "dtype": "float32", "alpha": 0.1}, "name": "leaky_re_lu_66", "inbound_nodes": [[["vargface_stage_4_unit_4_se_conv1", 0, 0, {}]]]}, {"class_name": "Conv2D", "config": {"name": "vargface_stage_4_unit_4_se_conv2", "trainable": true, "dtype": "float32", "filters": 320, "kernel_size": [1, 1], "strides": [1, 1], "padding": "valid", "data_format": "channels_last", "dilation_rate": [1, 1], "groups": 1, "activation": "linear", "use_bias": true, "depthwise_initializer": {"class_name": "GlorotUniform", "config": {"seed": null}}, "bias_initializer": {"class_name": "Zeros", "config": {}}, "depthwise_intializer": null, "bias_regularizer": null, "activity_regularizer": null, "depthwise_constraint": null, "bias_constraint": null}, "name": "vargface_stage_4_unit_4_se_conv2", "inbound_nodes": [[["leaky_re_lu_66", 0, 0, {}]]]}, {"class_name": "Activation", "config": {"name": "vargface_stage_4_unit_4_se_sigmoid", "trainable": true, "dtype": "float32", "activation": "sigmoid"}, "name": "vargface_stage_4_unit_4_se_sigmoid", "inbound_nodes": [[["vargface_stage_4_unit_4_se_conv2", 0, 0, {}]]]}, {"class_name": "Multiply", "config": {"name": "multiply_11", "trainable": true, "dtype": "float32"}, "name": "multiply_11", "inbound_nodes": [[["vargface_stage_4_unit_4_sep2_data", 0, 0, {}], ["vargface_stage_4_unit_4_se_sigmoid", 0, 0, {}]]]}, {"class_name": "Add", "config": {"name": "add_17", "trainable": true, "dtype": "float32"}, "name": "add_17", "inbound_nodes": [[["multiply_11", 0, 0, {}], ["leaky_re_lu_63", 0, 0, {}]]]}, {"class_name": "LeakyReLU", "config": {"name": "leaky_re_lu_67", "trainable": true, "dtype": "float32", "alpha": 0.1}, "name": "leaky_re_lu_67", "inbound_nodes": [[["add_17", 0, 0, {}]]]}], "input_layers": [["input_1", 0, 0]], "output_layers": [["leaky_re_lu_19", 0, 0], ["leaky_re_lu_49", 0, 0], ["leaky_re_lu_67", 0, 0]]}, "name": "VarGNet_extrator", "inbound_nodes": [[["RetinaFaceModel_input_image", 0, 0, {}]]]}, {"class_name": "Conv2D", "config": {"name": "FPN_3conv_unit_conv", "trainable": true, "dtype": "float32", "filters": 256, "kernel_size": [1, 1], "strides": [1, 1], "padding": "same", "data_format": "channels_last", "dilation_rate": [1, 1], "groups": 1, "activation": "linear", "use_bias": false, "depthwise_initializer": {"class_name": "HeNormal", "config": {"seed": null}}, "bias_initializer": {"class_name": "Zeros", "config": {}}, "depthwise_intializer": {"class_name": "L2", "config": {"l2": 0.0005000000237487257}}, "bias_regularizer": null, "activity_regularizer": null, "depthwise_constraint": null, "bias_constraint": null}, "name": "FPN_3conv_unit_conv", "inbound_nodes": [[["VarGNet_extrator", 1, 2, {}]]]}, {"class_name": "Conv2D", "config": {"name": "FPN_2conv_unit_conv", "trainable": true, "dtype": "float32", "filters": 256, "kernel_size": [1, 1], "strides": [1, 1], "padding": "same", "data_format": "channels_last", "dilation_rate": [1, 1], "groups": 1, "activation": "linear", "use_bias": false, "depthwise_initializer": {"class_name": "HeNormal", "config": {"seed": null}}, "bias_initializer": {"class_name": "Zeros", "config": {}}, "depthwise_intializer": {"class_name": "L2", "config": {"l2": 0.0005000000237487257}}, "bias_regularizer": null, "activity_regularizer": null, "depthwise_constraint": null, "bias_constraint": null}, "name": "FPN_2conv_unit_conv", "inbound_nodes": [[["VarGNet_extrator", 1, 1, {}]]]}, {"class_name": "BatchNormalization", "config": {"name": "FPN_3conv_unit_bn", "trainable": true, "dtype": "float32", "axis": [3], "momentum": 0.99, "epsilon": 0.001, "center": true, "scale": true, "beta_initializer": {"class_name": "Zeros", "config": {}}, "gamma_initializer": {"class_name": "Ones", "config": {}}, "moving_mean_initializer": {"class_name": "Zeros", "config": {}}, "moving_variance_initializer": {"class_name": "Ones", "config": {}}, "beta_regularizer": null, "gamma_regularizer": null, "beta_constraint": null, "gamma_constraint": null}, "name": "FPN_3conv_unit_bn", "inbound_nodes": [[["FPN_3conv_unit_conv", 0, 0, {}]]]}, {"class_name": "BatchNormalization", "config": {"name": "FPN_2conv_unit_bn", "trainable": true, "dtype": "float32", "axis": [3], "momentum": 0.99, "epsilon": 0.001, "center": true, "scale": true, "beta_initializer": {"class_name": "Zeros", "config": {}}, "gamma_initializer": {"class_name": "Ones", "config": {}}, "moving_mean_initializer": {"class_name": "Zeros", "config": {}}, "moving_variance_initializer": {"class_name": "Ones", "config": {}}, "beta_regularizer": null, "gamma_regularizer": null, "beta_constraint": null, "gamma_constraint": null}, "name": "FPN_2conv_unit_bn", "inbound_nodes": [[["FPN_2conv_unit_conv", 0, 0, {}]]]}, {"class_name": "ReLU", "config": {"name": "FPN_3_atc_ReLU", "trainable": true, "dtype": "float32", "max_value": null, "negative_slope": 0.0, "threshold": 0.0}, "name": "FPN_3_atc_ReLU", "inbound_nodes": [[["FPN_3conv_unit_bn", 0, 0, {}]]]}, {"class_name": "ReLU", "config": {"name": "FPN_2_atc_ReLU", "trainable": true, "dtype": "float32", "max_value": null, "negative_slope": 0.0, "threshold": 0.0}, "name": "FPN_2_atc_ReLU", "inbound_nodes": [[["FPN_2conv_unit_bn", 0, 0, {}]]]}, {"class_name": "UpSampling2D", "config": {"name": "FPN_upsampling2D_1", "trainable": true, "dtype": "float32", "size": [2, 2], "data_format": "channels_last", "interpolation": "nearest"}, "name": "FPN_upsampling2D_1", "inbound_nodes": [[["FPN_3_atc_ReLU", 0, 0, {}]]]}, {"class_name": "Add", "config": {"name": "FPN_add_1", "trainable": true, "dtype": "float32"}, "name": "FPN_add_1", "inbound_nodes": [[["FPN_2_atc_ReLU", 0, 0, {}], ["FPN_upsampling2D_1", 0, 0, {}]]]}, {"class_name": "Conv2D", "config": {"name": "FPN_5conv_unit_conv", "trainable": true, "dtype": "float32", "filters": 256, "kernel_size": [3, 3], "strides": [1, 1], "padding": "same", "data_format": "channels_last", "dilation_rate": [1, 1], "groups": 1, "activation": "linear", "use_bias": false, "depthwise_initializer": {"class_name": "HeNormal", "config": {"seed": null}}, "bias_initializer": {"class_name": "Zeros", "config": {}}, "depthwise_intializer": {"class_name": "L2", "config": {"l2": 0.0005000000237487257}}, "bias_regularizer": null, "activity_regularizer": null, "depthwise_constraint": null, "bias_constraint": null}, "name": "FPN_5conv_unit_conv", "inbound_nodes": [[["FPN_add_1", 0, 0, {}]]]}, {"class_name": "Conv2D", "config": {"name": "FPN_1conv_unit_conv", "trainable": true, "dtype": "float32", "filters": 256, "kernel_size": [1, 1], "strides": [1, 1], "padding": "same", "data_format": "channels_last", "dilation_rate": [1, 1], "groups": 1, "activation": "linear", "use_bias": false, "depthwise_initializer": {"class_name": "HeNormal", "config": {"seed": null}}, "bias_initializer": {"class_name": "Zeros", "config": {}}, "depthwise_intializer": {"class_name": "L2", "config": {"l2": 0.0005000000237487257}}, "bias_regularizer": null, "activity_regularizer": null, "depthwise_constraint": null, "bias_constraint": null}, "name": "FPN_1conv_unit_conv", "inbound_nodes": [[["VarGNet_extrator", 1, 0, {}]]]}, {"class_name": "BatchNormalization", "config": {"name": "FPN_5conv_unit_bn", "trainable": true, "dtype": "float32", "axis": [3], "momentum": 0.99, "epsilon": 0.001, "center": true, "scale": true, "beta_initializer": {"class_name": "Zeros", "config": {}}, "gamma_initializer": {"class_name": "Ones", "config": {}}, "moving_mean_initializer": {"class_name": "Zeros", "config": {}}, "moving_variance_initializer": {"class_name": "Ones", "config": {}}, "beta_regularizer": null, "gamma_regularizer": null, "beta_constraint": null, "gamma_constraint": null}, "name": "FPN_5conv_unit_bn", "inbound_nodes": [[["FPN_5conv_unit_conv", 0, 0, {}]]]}, {"class_name": "BatchNormalization", "config": {"name": "FPN_1conv_unit_bn", "trainable": true, "dtype": "float32", "axis": [3], "momentum": 0.99, "epsilon": 0.001, "center": true, "scale": true, "beta_initializer": {"class_name": "Zeros", "config": {}}, "gamma_initializer": {"class_name": "Ones", "config": {}}, "moving_mean_initializer": {"class_name": "Zeros", "config": {}}, "moving_variance_initializer": {"class_name": "Ones", "config": {}}, "beta_regularizer": null, "gamma_regularizer": null, "beta_constraint": null, "gamma_constraint": null}, "name": "FPN_1conv_unit_bn", "inbound_nodes": [[["FPN_1conv_unit_conv", 0, 0, {}]]]}, {"class_name": "ReLU", "config": {"name": "FPN_5_atc_ReLU", "trainable": true, "dtype": "float32", "max_value": null, "negative_slope": 0.0, "threshold": 0.0}, "name": "FPN_5_atc_ReLU", "inbound_nodes": [[["FPN_5conv_unit_bn", 0, 0, {}]]]}, {"class_name": "ReLU", "config": {"name": "FPN_1_atc_ReLU", "trainable": true, "dtype": "float32", "max_value": null, "negative_slope": 0.0, "threshold": 0.0}, "name": "FPN_1_atc_ReLU", "inbound_nodes": [[["FPN_1conv_unit_bn", 0, 0, {}]]]}, {"class_name": "UpSampling2D", "config": {"name": "FPN_upsampling2D_2", "trainable": true, "dtype": "float32", "size": [2, 2], "data_format": "channels_last", "interpolation": "nearest"}, "name": "FPN_upsampling2D_2", "inbound_nodes": [[["FPN_5_atc_ReLU", 0, 0, {}]]]}, {"class_name": "Add", "config": {"name": "FPN_add_2", "trainable": true, "dtype": "float32"}, "name": "FPN_add_2", "inbound_nodes": [[["FPN_1_atc_ReLU", 0, 0, {}], ["FPN_upsampling2D_2", 0, 0, {}]]]}, {"class_name": "Conv2D", "config": {"name": "FPN_4conv_unit_conv", "trainable": true, "dtype": "float32", "filters": 256, "kernel_size": [3, 3], "strides": [1, 1], "padding": "same", "data_format": "channels_last", "dilation_rate": [1, 1], "groups": 1, "activation": "linear", "use_bias": false, "depthwise_initializer": {"class_name": "HeNormal", "config": {"seed": null}}, "bias_initializer": {"class_name": "Zeros", "config": {}}, "depthwise_intializer": {"class_name": "L2", "config": {"l2": 0.0005000000237487257}}, "bias_regularizer": null, "activity_regularizer": null, "depthwise_constraint": null, "bias_constraint": null}, "name": "FPN_4conv_unit_conv", "inbound_nodes": [[["FPN_add_2", 0, 0, {}]]]}, {"class_name": "BatchNormalization", "config": {"name": "FPN_4conv_unit_bn", "trainable": true, "dtype": "float32", "axis": [3], "momentum": 0.99, "epsilon": 0.001, "center": true, "scale": true, "beta_initializer": {"class_name": "Zeros", "config": {}}, "gamma_initializer": {"class_name": "Ones", "config": {}}, "moving_mean_initializer": {"class_name": "Zeros", "config": {}}, "moving_variance_initializer": {"class_name": "Ones", "config": {}}, "beta_regularizer": null, "gamma_regularizer": null, "beta_constraint": null, "gamma_constraint": null}, "name": "FPN_4conv_unit_bn", "inbound_nodes": [[["FPN_4conv_unit_conv", 0, 0, {}]]]}, {"class_name": "ReLU", "config": {"name": "FPN_4_atc_ReLU", "trainable": true, "dtype": "float32", "max_value": null, "negative_slope": 0.0, "threshold": 0.0}, "name": "FPN_4_atc_ReLU", "inbound_nodes": [[["FPN_4conv_unit_bn", 0, 0, {}]]]}, {"class_name": "Conv2D", "config": {"name": "SSH_0_2conv_unit_conv", "trainable": true, "dtype": "float32", "filters": 64, "kernel_size": [3, 3], "strides": [1, 1], "padding": "same", "data_format": "channels_last", "dilation_rate": [1, 1], "groups": 1, "activation": "linear", "use_bias": false, "depthwise_initializer": {"class_name": "HeNormal", "config": {"seed": null}}, "bias_initializer": {"class_name": "Zeros", "config": {}}, "depthwise_intializer": {"class_name": "L2", "config": {"l2": 0.0005000000237487257}}, "bias_regularizer": null, "activity_regularizer": null, "depthwise_constraint": null, "bias_constraint": null}, "name": "SSH_0_2conv_unit_conv", "inbound_nodes": [[["FPN_4_atc_ReLU", 0, 0, {}]]]}, {"class_name": "Conv2D", "config": {"name": "SSH_1_2conv_unit_conv", "trainable": true, "dtype": "float32", "filters": 64, "kernel_size": [3, 3], "strides": [1, 1], "padding": "same", "data_format": "channels_last", "dilation_rate": [1, 1], "groups": 1, "activation": "linear", "use_bias": false, "depthwise_initializer": {"class_name": "HeNormal", "config": {"seed": null}}, "bias_initializer": {"class_name": "Zeros", "config": {}}, "depthwise_intializer": {"class_name": "L2", "config": {"l2": 0.0005000000237487257}}, "bias_regularizer": null, "activity_regularizer": null, "depthwise_constraint": null, "bias_constraint": null}, "name": "SSH_1_2conv_unit_conv", "inbound_nodes": [[["FPN_5_atc_ReLU", 0, 0, {}]]]}, {"class_name": "Conv2D", "config": {"name": "SSH_2_2conv_unit_conv", "trainable": true, "dtype": "float32", "filters": 64, "kernel_size": [3, 3], "strides": [1, 1], "padding": "same", "data_format": "channels_last", "dilation_rate": [1, 1], "groups": 1, "activation": "linear", "use_bias": false, "depthwise_initializer": {"class_name": "HeNormal", "config": {"seed": null}}, "bias_initializer": {"class_name": "Zeros", "config": {}}, "depthwise_intializer": {"class_name": "L2", "config": {"l2": 0.0005000000237487257}}, "bias_regularizer": null, "activity_regularizer": null, "depthwise_constraint": null, "bias_constraint": null}, "name": "SSH_2_2conv_unit_conv", "inbound_nodes": [[["FPN_3_atc_ReLU", 0, 0, {}]]]}, {"class_name": "BatchNormalization", "config": {"name": "SSH_0_2conv_unit_bn", "trainable": true, "dtype": "float32", "axis": [3], "momentum": 0.99, "epsilon": 0.001, "center": true, "scale": true, "beta_initializer": {"class_name": "Zeros", "config": {}}, "gamma_initializer": {"class_name": "Ones", "config": {}}, "moving_mean_initializer": {"class_name": "Zeros", "config": {}}, "moving_variance_initializer": {"class_name": "Ones", "config": {}}, "beta_regularizer": null, "gamma_regularizer": null, "beta_constraint": null, "gamma_constraint": null}, "name": "SSH_0_2conv_unit_bn", "inbound_nodes": [[["SSH_0_2conv_unit_conv", 0, 0, {}]]]}, {"class_name": "BatchNormalization", "config": {"name": "SSH_1_2conv_unit_bn", "trainable": true, "dtype": "float32", "axis": [3], "momentum": 0.99, "epsilon": 0.001, "center": true, "scale": true, "beta_initializer": {"class_name": "Zeros", "config": {}}, "gamma_initializer": {"class_name": "Ones", "config": {}}, "moving_mean_initializer": {"class_name": "Zeros", "config": {}}, "moving_variance_initializer": {"class_name": "Ones", "config": {}}, "beta_regularizer": null, "gamma_regularizer": null, "beta_constraint": null, "gamma_constraint": null}, "name": "SSH_1_2conv_unit_bn", "inbound_nodes": [[["SSH_1_2conv_unit_conv", 0, 0, {}]]]}, {"class_name": "BatchNormalization", "config": {"name": "SSH_2_2conv_unit_bn", "trainable": true, "dtype": "float32", "axis": [3], "momentum": 0.99, "epsilon": 0.001, "center": true, "scale": true, "beta_initializer": {"class_name": "Zeros", "config": {}}, "gamma_initializer": {"class_name": "Ones", "config": {}}, "moving_mean_initializer": {"class_name": "Zeros", "config": {}}, "moving_variance_initializer": {"class_name": "Ones", "config": {}}, "beta_regularizer": null, "gamma_regularizer": null, "beta_constraint": null, "gamma_constraint": null}, "name": "SSH_2_2conv_unit_bn", "inbound_nodes": [[["SSH_2_2conv_unit_conv", 0, 0, {}]]]}, {"class_name": "ReLU", "config": {"name": "SSH_0_2_atc_ReLU", "trainable": true, "dtype": "float32", "max_value": null, "negative_slope": 0.0, "threshold": 0.0}, "name": "SSH_0_2_atc_ReLU", "inbound_nodes": [[["SSH_0_2conv_unit_bn", 0, 0, {}]]]}, {"class_name": "ReLU", "config": {"name": "SSH_1_2_atc_ReLU", "trainable": true, "dtype": "float32", "max_value": null, "negative_slope": 0.0, "threshold": 0.0}, "name": "SSH_1_2_atc_ReLU", "inbound_nodes": [[["SSH_1_2conv_unit_bn", 0, 0, {}]]]}, {"class_name": "ReLU", "config": {"name": "SSH_2_2_atc_ReLU", "trainable": true, "dtype": "float32", "max_value": null, "negative_slope": 0.0, "threshold": 0.0}, "name": "SSH_2_2_atc_ReLU", "inbound_nodes": [[["SSH_2_2conv_unit_bn", 0, 0, {}]]]}, {"class_name": "Conv2D", "config": {"name": "SSH_0_4conv_unit_conv", "trainable": true, "dtype": "float32", "filters": 64, "kernel_size": [3, 3], "strides": [1, 1], "padding": "same", "data_format": "channels_last", "dilation_rate": [1, 1], "groups": 1, "activation": "linear", "use_bias": false, "depthwise_initializer": {"class_name": "HeNormal", "config": {"seed": null}}, "bias_initializer": {"class_name": "Zeros", "config": {}}, "depthwise_intializer": {"class_name": "L2", "config": {"l2": 0.0005000000237487257}}, "bias_regularizer": null, "activity_regularizer": null, "depthwise_constraint": null, "bias_constraint": null}, "name": "SSH_0_4conv_unit_conv", "inbound_nodes": [[["SSH_0_2_atc_ReLU", 0, 0, {}]]]}, {"class_name": "Conv2D", "config": {"name": "SSH_1_4conv_unit_conv", "trainable": true, "dtype": "float32", "filters": 64, "kernel_size": [3, 3], "strides": [1, 1], "padding": "same", "data_format": "channels_last", "dilation_rate": [1, 1], "groups": 1, "activation": "linear", "use_bias": false, "depthwise_initializer": {"class_name": "HeNormal", "config": {"seed": null}}, "bias_initializer": {"class_name": "Zeros", "config": {}}, "depthwise_intializer": {"class_name": "L2", "config": {"l2": 0.0005000000237487257}}, "bias_regularizer": null, "activity_regularizer": null, "depthwise_constraint": null, "bias_constraint": null}, "name": "SSH_1_4conv_unit_conv", "inbound_nodes": [[["SSH_1_2_atc_ReLU", 0, 0, {}]]]}, {"class_name": "Conv2D", "config": {"name": "SSH_2_4conv_unit_conv", "trainable": true, "dtype": "float32", "filters": 64, "kernel_size": [3, 3], "strides": [1, 1], "padding": "same", "data_format": "channels_last", "dilation_rate": [1, 1], "groups": 1, "activation": "linear", "use_bias": false, "depthwise_initializer": {"class_name": "HeNormal", "config": {"seed": null}}, "bias_initializer": {"class_name": "Zeros", "config": {}}, "depthwise_intializer": {"class_name": "L2", "config": {"l2": 0.0005000000237487257}}, "bias_regularizer": null, "activity_regularizer": null, "depthwise_constraint": null, "bias_constraint": null}, "name": "SSH_2_4conv_unit_conv", "inbound_nodes": [[["SSH_2_2_atc_ReLU", 0, 0, {}]]]}, {"class_name": "BatchNormalization", "config": {"name": "SSH_0_4conv_unit_bn", "trainable": true, "dtype": "float32", "axis": [3], "momentum": 0.99, "epsilon": 0.001, "center": true, "scale": true, "beta_initializer": {"class_name": "Zeros", "config": {}}, "gamma_initializer": {"class_name": "Ones", "config": {}}, "moving_mean_initializer": {"class_name": "Zeros", "config": {}}, "moving_variance_initializer": {"class_name": "Ones", "config": {}}, "beta_regularizer": null, "gamma_regularizer": null, "beta_constraint": null, "gamma_constraint": null}, "name": "SSH_0_4conv_unit_bn", "inbound_nodes": [[["SSH_0_4conv_unit_conv", 0, 0, {}]]]}, {"class_name": "BatchNormalization", "config": {"name": "SSH_1_4conv_unit_bn", "trainable": true, "dtype": "float32", "axis": [3], "momentum": 0.99, "epsilon": 0.001, "center": true, "scale": true, "beta_initializer": {"class_name": "Zeros", "config": {}}, "gamma_initializer": {"class_name": "Ones", "config": {}}, "moving_mean_initializer": {"class_name": "Zeros", "config": {}}, "moving_variance_initializer": {"class_name": "Ones", "config": {}}, "beta_regularizer": null, "gamma_regularizer": null, "beta_constraint": null, "gamma_constraint": null}, "name": "SSH_1_4conv_unit_bn", "inbound_nodes": [[["SSH_1_4conv_unit_conv", 0, 0, {}]]]}, {"class_name": "BatchNormalization", "config": {"name": "SSH_2_4conv_unit_bn", "trainable": true, "dtype": "float32", "axis": [3], "momentum": 0.99, "epsilon": 0.001, "center": true, "scale": true, "beta_initializer": {"class_name": "Zeros", "config": {}}, "gamma_initializer": {"class_name": "Ones", "config": {}}, "moving_mean_initializer": {"class_name": "Zeros", "config": {}}, "moving_variance_initializer": {"class_name": "Ones", "config": {}}, "beta_regularizer": null, "gamma_regularizer": null, "beta_constraint": null, "gamma_constraint": null}, "name": "SSH_2_4conv_unit_bn", "inbound_nodes": [[["SSH_2_4conv_unit_conv", 0, 0, {}]]]}, {"class_name": "ReLU", "config": {"name": "SSH_0_4_atc_ReLU", "trainable": true, "dtype": "float32", "max_value": null, "negative_slope": 0.0, "threshold": 0.0}, "name": "SSH_0_4_atc_ReLU", "inbound_nodes": [[["SSH_0_4conv_unit_bn", 0, 0, {}]]]}, {"class_name": "ReLU", "config": {"name": "SSH_1_4_atc_ReLU", "trainable": true, "dtype": "float32", "max_value": null, "negative_slope": 0.0, "threshold": 0.0}, "name": "SSH_1_4_atc_ReLU", "inbound_nodes": [[["SSH_1_4conv_unit_bn", 0, 0, {}]]]}, {"class_name": "ReLU", "config": {"name": "SSH_2_4_atc_ReLU", "trainable": true, "dtype": "float32", "max_value": null, "negative_slope": 0.0, "threshold": 0.0}, "name": "SSH_2_4_atc_ReLU", "inbound_nodes": [[["SSH_2_4conv_unit_bn", 0, 0, {}]]]}, {"class_name": "Conv2D", "config": {"name": "SSH_0_1conv_unit_conv", "trainable": true, "dtype": "float32", "filters": 128, "kernel_size": [3, 3], "strides": [1, 1], "padding": "same", "data_format": "channels_last", "dilation_rate": [1, 1], "groups": 1, "activation": "linear", "use_bias": false, "depthwise_initializer": {"class_name": "HeNormal", "config": {"seed": null}}, "bias_initializer": {"class_name": "Zeros", "config": {}}, "depthwise_intializer": {"class_name": "L2", "config": {"l2": 0.0005000000237487257}}, "bias_regularizer": null, "activity_regularizer": null, "depthwise_constraint": null, "bias_constraint": null}, "name": "SSH_0_1conv_unit_conv", "inbound_nodes": [[["FPN_4_atc_ReLU", 0, 0, {}]]]}, {"class_name": "Conv2D", "config": {"name": "SSH_0_3conv_unit_conv", "trainable": true, "dtype": "float32", "filters": 64, "kernel_size": [3, 3], "strides": [1, 1], "padding": "same", "data_format": "channels_last", "dilation_rate": [1, 1], "groups": 1, "activation": "linear", "use_bias": false, "depthwise_initializer": {"class_name": "HeNormal", "config": {"seed": null}}, "bias_initializer": {"class_name": "Zeros", "config": {}}, "depthwise_intializer": {"class_name": "L2", "config": {"l2": 0.0005000000237487257}}, "bias_regularizer": null, "activity_regularizer": null, "depthwise_constraint": null, "bias_constraint": null}, "name": "SSH_0_3conv_unit_conv", "inbound_nodes": [[["SSH_0_2_atc_ReLU", 0, 0, {}]]]}, {"class_name": "Conv2D", "config": {"name": "SSH_0_5conv_unit_conv", "trainable": true, "dtype": "float32", "filters": 64, "kernel_size": [3, 3], "strides": [1, 1], "padding": "same", "data_format": "channels_last", "dilation_rate": [1, 1], "groups": 1, "activation": "linear", "use_bias": false, "depthwise_initializer": {"class_name": "HeNormal", "config": {"seed": null}}, "bias_initializer": {"class_name": "Zeros", "config": {}}, "depthwise_intializer": {"class_name": "L2", "config": {"l2": 0.0005000000237487257}}, "bias_regularizer": null, "activity_regularizer": null, "depthwise_constraint": null, "bias_constraint": null}, "name": "SSH_0_5conv_unit_conv", "inbound_nodes": [[["SSH_0_4_atc_ReLU", 0, 0, {}]]]}, {"class_name": "Conv2D", "config": {"name": "SSH_1_1conv_unit_conv", "trainable": true, "dtype": "float32", "filters": 128, "kernel_size": [3, 3], "strides": [1, 1], "padding": "same", "data_format": "channels_last", "dilation_rate": [1, 1], "groups": 1, "activation": "linear", "use_bias": false, "depthwise_initializer": {"class_name": "HeNormal", "config": {"seed": null}}, "bias_initializer": {"class_name": "Zeros", "config": {}}, "depthwise_intializer": {"class_name": "L2", "config": {"l2": 0.0005000000237487257}}, "bias_regularizer": null, "activity_regularizer": null, "depthwise_constraint": null, "bias_constraint": null}, "name": "SSH_1_1conv_unit_conv", "inbound_nodes": [[["FPN_5_atc_ReLU", 0, 0, {}]]]}, {"class_name": "Conv2D", "config": {"name": "SSH_1_3conv_unit_conv", "trainable": true, "dtype": "float32", "filters": 64, "kernel_size": [3, 3], "strides": [1, 1], "padding": "same", "data_format": "channels_last", "dilation_rate": [1, 1], "groups": 1, "activation": "linear", "use_bias": false, "depthwise_initializer": {"class_name": "HeNormal", "config": {"seed": null}}, "bias_initializer": {"class_name": "Zeros", "config": {}}, "depthwise_intializer": {"class_name": "L2", "config": {"l2": 0.0005000000237487257}}, "bias_regularizer": null, "activity_regularizer": null, "depthwise_constraint": null, "bias_constraint": null}, "name": "SSH_1_3conv_unit_conv", "inbound_nodes": [[["SSH_1_2_atc_ReLU", 0, 0, {}]]]}, {"class_name": "Conv2D", "config": {"name": "SSH_1_5conv_unit_conv", "trainable": true, "dtype": "float32", "filters": 64, "kernel_size": [3, 3], "strides": [1, 1], "padding": "same", "data_format": "channels_last", "dilation_rate": [1, 1], "groups": 1, "activation": "linear", "use_bias": false, "depthwise_initializer": {"class_name": "HeNormal", "config": {"seed": null}}, "bias_initializer": {"class_name": "Zeros", "config": {}}, "depthwise_intializer": {"class_name": "L2", "config": {"l2": 0.0005000000237487257}}, "bias_regularizer": null, "activity_regularizer": null, "depthwise_constraint": null, "bias_constraint": null}, "name": "SSH_1_5conv_unit_conv", "inbound_nodes": [[["SSH_1_4_atc_ReLU", 0, 0, {}]]]}, {"class_name": "Conv2D", "config": {"name": "SSH_2_1conv_unit_conv", "trainable": true, "dtype": "float32", "filters": 128, "kernel_size": [3, 3], "strides": [1, 1], "padding": "same", "data_format": "channels_last", "dilation_rate": [1, 1], "groups": 1, "activation": "linear", "use_bias": false, "depthwise_initializer": {"class_name": "HeNormal", "config": {"seed": null}}, "bias_initializer": {"class_name": "Zeros", "config": {}}, "depthwise_intializer": {"class_name": "L2", "config": {"l2": 0.0005000000237487257}}, "bias_regularizer": null, "activity_regularizer": null, "depthwise_constraint": null, "bias_constraint": null}, "name": "SSH_2_1conv_unit_conv", "inbound_nodes": [[["FPN_3_atc_ReLU", 0, 0, {}]]]}, {"class_name": "Conv2D", "config": {"name": "SSH_2_3conv_unit_conv", "trainable": true, "dtype": "float32", "filters": 64, "kernel_size": [3, 3], "strides": [1, 1], "padding": "same", "data_format": "channels_last", "dilation_rate": [1, 1], "groups": 1, "activation": "linear", "use_bias": false, "depthwise_initializer": {"class_name": "HeNormal", "config": {"seed": null}}, "bias_initializer": {"class_name": "Zeros", "config": {}}, "depthwise_intializer": {"class_name": "L2", "config": {"l2": 0.0005000000237487257}}, "bias_regularizer": null, "activity_regularizer": null, "depthwise_constraint": null, "bias_constraint": null}, "name": "SSH_2_3conv_unit_conv", "inbound_nodes": [[["SSH_2_2_atc_ReLU", 0, 0, {}]]]}, {"class_name": "Conv2D", "config": {"name": "SSH_2_5conv_unit_conv", "trainable": true, "dtype": "float32", "filters": 64, "kernel_size": [3, 3], "strides": [1, 1], "padding": "same", "data_format": "channels_last", "dilation_rate": [1, 1], "groups": 1, "activation": "linear", "use_bias": false, "depthwise_initializer": {"class_name": "HeNormal", "config": {"seed": null}}, "bias_initializer": {"class_name": "Zeros", "config": {}}, "depthwise_intializer": {"class_name": "L2", "config": {"l2": 0.0005000000237487257}}, "bias_regularizer": null, "activity_regularizer": null, "depthwise_constraint": null, "bias_constraint": null}, "name": "SSH_2_5conv_unit_conv", "inbound_nodes": [[["SSH_2_4_atc_ReLU", 0, 0, {}]]]}, {"class_name": "BatchNormalization", "config": {"name": "SSH_0_1conv_unit_bn", "trainable": true, "dtype": "float32", "axis": [3], "momentum": 0.99, "epsilon": 0.001, "center": true, "scale": true, "beta_initializer": {"class_name": "Zeros", "config": {}}, "gamma_initializer": {"class_name": "Ones", "config": {}}, "moving_mean_initializer": {"class_name": "Zeros", "config": {}}, "moving_variance_initializer": {"class_name": "Ones", "config": {}}, "beta_regularizer": null, "gamma_regularizer": null, "beta_constraint": null, "gamma_constraint": null}, "name": "SSH_0_1conv_unit_bn", "inbound_nodes": [[["SSH_0_1conv_unit_conv", 0, 0, {}]]]}, {"class_name": "BatchNormalization", "config": {"name": "SSH_0_3conv_unit_bn", "trainable": true, "dtype": "float32", "axis": [3], "momentum": 0.99, "epsilon": 0.001, "center": true, "scale": true, "beta_initializer": {"class_name": "Zeros", "config": {}}, "gamma_initializer": {"class_name": "Ones", "config": {}}, "moving_mean_initializer": {"class_name": "Zeros", "config": {}}, "moving_variance_initializer": {"class_name": "Ones", "config": {}}, "beta_regularizer": null, "gamma_regularizer": null, "beta_constraint": null, "gamma_constraint": null}, "name": "SSH_0_3conv_unit_bn", "inbound_nodes": [[["SSH_0_3conv_unit_conv", 0, 0, {}]]]}, {"class_name": "BatchNormalization", "config": {"name": "SSH_0_5conv_unit_bn", "trainable": true, "dtype": "float32", "axis": [3], "momentum": 0.99, "epsilon": 0.001, "center": true, "scale": true, "beta_initializer": {"class_name": "Zeros", "config": {}}, "gamma_initializer": {"class_name": "Ones", "config": {}}, "moving_mean_initializer": {"class_name": "Zeros", "config": {}}, "moving_variance_initializer": {"class_name": "Ones", "config": {}}, "beta_regularizer": null, "gamma_regularizer": null, "beta_constraint": null, "gamma_constraint": null}, "name": "SSH_0_5conv_unit_bn", "inbound_nodes": [[["SSH_0_5conv_unit_conv", 0, 0, {}]]]}, {"class_name": "BatchNormalization", "config": {"name": "SSH_1_1conv_unit_bn", "trainable": true, "dtype": "float32", "axis": [3], "momentum": 0.99, "epsilon": 0.001, "center": true, "scale": true, "beta_initializer": {"class_name": "Zeros", "config": {}}, "gamma_initializer": {"class_name": "Ones", "config": {}}, "moving_mean_initializer": {"class_name": "Zeros", "config": {}}, "moving_variance_initializer": {"class_name": "Ones", "config": {}}, "beta_regularizer": null, "gamma_regularizer": null, "beta_constraint": null, "gamma_constraint": null}, "name": "SSH_1_1conv_unit_bn", "inbound_nodes": [[["SSH_1_1conv_unit_conv", 0, 0, {}]]]}, {"class_name": "BatchNormalization", "config": {"name": "SSH_1_3conv_unit_bn", "trainable": true, "dtype": "float32", "axis": [3], "momentum": 0.99, "epsilon": 0.001, "center": true, "scale": true, "beta_initializer": {"class_name": "Zeros", "config": {}}, "gamma_initializer": {"class_name": "Ones", "config": {}}, "moving_mean_initializer": {"class_name": "Zeros", "config": {}}, "moving_variance_initializer": {"class_name": "Ones", "config": {}}, "beta_regularizer": null, "gamma_regularizer": null, "beta_constraint": null, "gamma_constraint": null}, "name": "SSH_1_3conv_unit_bn", "inbound_nodes": [[["SSH_1_3conv_unit_conv", 0, 0, {}]]]}, {"class_name": "BatchNormalization", "config": {"name": "SSH_1_5conv_unit_bn", "trainable": true, "dtype": "float32", "axis": [3], "momentum": 0.99, "epsilon": 0.001, "center": true, "scale": true, "beta_initializer": {"class_name": "Zeros", "config": {}}, "gamma_initializer": {"class_name": "Ones", "config": {}}, "moving_mean_initializer": {"class_name": "Zeros", "config": {}}, "moving_variance_initializer": {"class_name": "Ones", "config": {}}, "beta_regularizer": null, "gamma_regularizer": null, "beta_constraint": null, "gamma_constraint": null}, "name": "SSH_1_5conv_unit_bn", "inbound_nodes": [[["SSH_1_5conv_unit_conv", 0, 0, {}]]]}, {"class_name": "BatchNormalization", "config": {"name": "SSH_2_1conv_unit_bn", "trainable": true, "dtype": "float32", "axis": [3], "momentum": 0.99, "epsilon": 0.001, "center": true, "scale": true, "beta_initializer": {"class_name": "Zeros", "config": {}}, "gamma_initializer": {"class_name": "Ones", "config": {}}, "moving_mean_initializer": {"class_name": "Zeros", "config": {}}, "moving_variance_initializer": {"class_name": "Ones", "config": {}}, "beta_regularizer": null, "gamma_regularizer": null, "beta_constraint": null, "gamma_constraint": null}, "name": "SSH_2_1conv_unit_bn", "inbound_nodes": [[["SSH_2_1conv_unit_conv", 0, 0, {}]]]}, {"class_name": "BatchNormalization", "config": {"name": "SSH_2_3conv_unit_bn", "trainable": true, "dtype": "float32", "axis": [3], "momentum": 0.99, "epsilon": 0.001, "center": true, "scale": true, "beta_initializer": {"class_name": "Zeros", "config": {}}, "gamma_initializer": {"class_name": "Ones", "config": {}}, "moving_mean_initializer": {"class_name": "Zeros", "config": {}}, "moving_variance_initializer": {"class_name": "Ones", "config": {}}, "beta_regularizer": null, "gamma_regularizer": null, "beta_constraint": null, "gamma_constraint": null}, "name": "SSH_2_3conv_unit_bn", "inbound_nodes": [[["SSH_2_3conv_unit_conv", 0, 0, {}]]]}, {"class_name": "BatchNormalization", "config": {"name": "SSH_2_5conv_unit_bn", "trainable": true, "dtype": "float32", "axis": [3], "momentum": 0.99, "epsilon": 0.001, "center": true, "scale": true, "beta_initializer": {"class_name": "Zeros", "config": {}}, "gamma_initializer": {"class_name": "Ones", "config": {}}, "moving_mean_initializer": {"class_name": "Zeros", "config": {}}, "moving_variance_initializer": {"class_name": "Ones", "config": {}}, "beta_regularizer": null, "gamma_regularizer": null, "beta_constraint": null, "gamma_constraint": null}, "name": "SSH_2_5conv_unit_bn", "inbound_nodes": [[["SSH_2_5conv_unit_conv", 0, 0, {}]]]}, {"class_name": "Concatenate", "config": {"name": "SSH_0_concat_layer", "trainable": true, "dtype": "float32", "axis": 3}, "name": "SSH_0_concat_layer", "inbound_nodes": [[["SSH_0_1conv_unit_bn", 0, 0, {}], ["SSH_0_3conv_unit_bn", 0, 0, {}], ["SSH_0_5conv_unit_bn", 0, 0, {}]]]}, {"class_name": "Concatenate", "config": {"name": "SSH_1_concat_layer", "trainable": true, "dtype": "float32", "axis": 3}, "name": "SSH_1_concat_layer", "inbound_nodes": [[["SSH_1_1conv_unit_bn", 0, 0, {}], ["SSH_1_3conv_unit_bn", 0, 0, {}], ["SSH_1_5conv_unit_bn", 0, 0, {}]]]}, {"class_name": "Concatenate", "config": {"name": "SSH_2_concat_layer", "trainable": true, "dtype": "float32", "axis": 3}, "name": "SSH_2_concat_layer", "inbound_nodes": [[["SSH_2_1conv_unit_bn", 0, 0, {}], ["SSH_2_3conv_unit_bn", 0, 0, {}], ["SSH_2_5conv_unit_bn", 0, 0, {}]]]}, {"class_name": "ReLU", "config": {"name": "SSH_0_atc_relu", "trainable": true, "dtype": "float32", "max_value": null, "negative_slope": 0.0, "threshold": 0.0}, "name": "SSH_0_atc_relu", "inbound_nodes": [[["SSH_0_concat_layer", 0, 0, {}]]]}, {"class_name": "ReLU", "config": {"name": "SSH_1_atc_relu", "trainable": true, "dtype": "float32", "max_value": null, "negative_slope": 0.0, "threshold": 0.0}, "name": "SSH_1_atc_relu", "inbound_nodes": [[["SSH_1_concat_layer", 0, 0, {}]]]}, {"class_name": "ReLU", "config": {"name": "SSH_2_atc_relu", "trainable": true, "dtype": "float32", "max_value": null, "negative_slope": 0.0, "threshold": 0.0}, "name": "SSH_2_atc_relu", "inbound_nodes": [[["SSH_2_concat_layer", 0, 0, {}]]]}, {"class_name": "Conv2D", "config": {"name": "ClassHead_0_conv2d", "trainable": true, "dtype": "float32", "filters": 4, "kernel_size": [1, 1], "strides": [1, 1], "padding": "valid", "data_format": "channels_last", "dilation_rate": [1, 1], "groups": 1, "activation": "linear", "use_bias": true, "depthwise_initializer": {"class_name": "GlorotUniform", "config": {"seed": null}}, "bias_initializer": {"class_name": "Zeros", "config": {}}, "depthwise_intializer": null, "bias_regularizer": null, "activity_regularizer": null, "depthwise_constraint": null, "bias_constraint": null}, "name": "ClassHead_0_conv2d", "inbound_nodes": [[["SSH_0_atc_relu", 0, 0, {}]]]}, {"class_name": "Conv2D", "config": {"name": "ClassHead_1_conv2d", "trainable": true, "dtype": "float32", "filters": 4, "kernel_size": [1, 1], "strides": [1, 1], "padding": "valid", "data_format": "channels_last", "dilation_rate": [1, 1], "groups": 1, "activation": "linear", "use_bias": true, "depthwise_initializer": {"class_name": "GlorotUniform", "config": {"seed": null}}, "bias_initializer": {"class_name": "Zeros", "config": {}}, "depthwise_intializer": null, "bias_regularizer": null, "activity_regularizer": null, "depthwise_constraint": null, "bias_constraint": null}, "name": "ClassHead_1_conv2d", "inbound_nodes": [[["SSH_1_atc_relu", 0, 0, {}]]]}, {"class_name": "Conv2D", "config": {"name": "ClassHead_2_conv2d", "trainable": true, "dtype": "float32", "filters": 4, "kernel_size": [1, 1], "strides": [1, 1], "padding": "valid", "data_format": "channels_last", "dilation_rate": [1, 1], "groups": 1, "activation": "linear", "use_bias": true, "depthwise_initializer": {"class_name": "GlorotUniform", "config": {"seed": null}}, "bias_initializer": {"class_name": "Zeros", "config": {}}, "depthwise_intializer": null, "bias_regularizer": null, "activity_regularizer": null, "depthwise_constraint": null, "bias_constraint": null}, "name": "ClassHead_2_conv2d", "inbound_nodes": [[["SSH_2_atc_relu", 0, 0, {}]]]}, {"class_name": "Conv2D", "config": {"name": "PointsHead_0_conv2d", "trainable": true, "dtype": "float32", "filters": 16, "kernel_size": [1, 1], "strides": [1, 1], "padding": "valid", "data_format": "channels_last", "dilation_rate": [1, 1], "groups": 1, "activation": "linear", "use_bias": true, "depthwise_initializer": {"class_name": "GlorotUniform", "config": {"seed": null}}, "bias_initializer": {"class_name": "Zeros", "config": {}}, "depthwise_intializer": null, "bias_regularizer": null, "activity_regularizer": null, "depthwise_constraint": null, "bias_constraint": null}, "name": "PointsHead_0_conv2d", "inbound_nodes": [[["SSH_0_atc_relu", 0, 0, {}]]]}, {"class_name": "Conv2D", "config": {"name": "PointsHead_1_conv2d", "trainable": true, "dtype": "float32", "filters": 16, "kernel_size": [1, 1], "strides": [1, 1], "padding": "valid", "data_format": "channels_last", "dilation_rate": [1, 1], "groups": 1, "activation": "linear", "use_bias": true, "depthwise_initializer": {"class_name": "GlorotUniform", "config": {"seed": null}}, "bias_initializer": {"class_name": "Zeros", "config": {}}, "depthwise_intializer": null, "bias_regularizer": null, "activity_regularizer": null, "depthwise_constraint": null, "bias_constraint": null}, "name": "PointsHead_1_conv2d", "inbound_nodes": [[["SSH_1_atc_relu", 0, 0, {}]]]}, {"class_name": "Conv2D", "config": {"name": "PointsHead_2_conv2d", "trainable": true, "dtype": "float32", "filters": 16, "kernel_size": [1, 1], "strides": [1, 1], "padding": "valid", "data_format": "channels_last", "dilation_rate": [1, 1], "groups": 1, "activation": "linear", "use_bias": true, "depthwise_initializer": {"class_name": "GlorotUniform", "config": {"seed": null}}, "bias_initializer": {"class_name": "Zeros", "config": {}}, "depthwise_intializer": null, "bias_regularizer": null, "activity_regularizer": null, "depthwise_constraint": null, "bias_constraint": null}, "name": "PointsHead_2_conv2d", "inbound_nodes": [[["SSH_2_atc_relu", 0, 0, {}]]]}, {"class_name": "Reshape", "config": {"name": "ClassHead_0_reshape", "trainable": true, "dtype": "float32", "target_shape": [12800, 2]}, "name": "ClassHead_0_reshape", "inbound_nodes": [[["ClassHead_0_conv2d", 0, 0, {}]]]}, {"class_name": "Reshape", "config": {"name": "ClassHead_1_reshape", "trainable": true, "dtype": "float32", "target_shape": [3200, 2]}, "name": "ClassHead_1_reshape", "inbound_nodes": [[["ClassHead_1_conv2d", 0, 0, {}]]]}, {"class_name": "Reshape", "config": {"name": "ClassHead_2_reshape", "trainable": true, "dtype": "float32", "target_shape": [800, 2]}, "name": "ClassHead_2_reshape", "inbound_nodes": [[["ClassHead_2_conv2d", 0, 0, {}]]]}, {"class_name": "Reshape", "config": {"name": "PointsHead_0_reshape", "trainable": true, "dtype": "float32", "target_shape": [12800, 8]}, "name": "PointsHead_0_reshape", "inbound_nodes": [[["PointsHead_0_conv2d", 0, 0, {}]]]}, {"class_name": "Reshape", "config": {"name": "PointsHead_1_reshape", "trainable": true, "dtype": "float32", "target_shape": [3200, 8]}, "name": "PointsHead_1_reshape", "inbound_nodes": [[["PointsHead_1_conv2d", 0, 0, {}]]]}, {"class_name": "Reshape", "config": {"name": "PointsHead_2_reshape", "trainable": true, "dtype": "float32", "target_shape": [800, 8]}, "name": "PointsHead_2_reshape", "inbound_nodes": [[["PointsHead_2_conv2d", 0, 0, {}]]]}, {"class_name": "Concatenate", "config": {"name": "retinaface_VarGNet_class_concat", "trainable": true, "dtype": "float32", "axis": 1}, "name": "retinaface_VarGNet_class_concat", "inbound_nodes": [[["ClassHead_0_reshape", 0, 0, {}], ["ClassHead_1_reshape", 0, 0, {}], ["ClassHead_2_reshape", 0, 0, {}]]]}, {"class_name": "Concatenate", "config": {"name": "retinaface_VarGNet_points_concat", "trainable": true, "dtype": "float32", "axis": 1}, "name": "retinaface_VarGNet_points_concat", "inbound_nodes": [[["PointsHead_0_reshape", 0, 0, {}], ["PointsHead_1_reshape", 0, 0, {}], ["PointsHead_2_reshape", 0, 0, {}]]]}, {"class_name": "Softmax", "config": {"name": "softmax", "trainable": true, "dtype": "float32", "axis": -1}, "name": "softmax", "inbound_nodes": [[["retinaface_VarGNet_class_concat", 0, 0, {}]]]}, {"class_name": "Concatenate", "config": {"name": "retinaface_VarGNet_output_concat", "trainable": true, "dtype": "float32", "axis": -1}, "name": "retinaface_VarGNet_output_concat", "inbound_nodes": [[["retinaface_VarGNet_points_concat", 0, 0, {}], ["softmax", 0, 0, {}]]]}], "input_layers": [["RetinaFaceModel_input_image", 0, 0]], "output_layers": [["retinaface_VarGNet_output_concat", 0, 0]]}}}, "weightsManifest": [{"paths": ["group1-shard1of6.bin", "group1-shard2of6.bin", "group1-shard3of6.bin", "group1-shard4of6.bin", "group1-shard5of6.bin", "group1-shard6of6.bin"], "weights": [{"name": "ClassHead_0_conv2d/kernel", "shape": [1, 1, 256, 4], "dtype": "float32"}, {"name": "ClassHead_0_conv2d/bias", "shape": [4], "dtype": "float32"}, {"name": "ClassHead_1_conv2d/kernel", "shape": [1, 1, 256, 4], "dtype": "float32"}, {"name": "ClassHead_1_conv2d/bias", "shape": [4], "dtype": "float32"}, {"name": "ClassHead_2_conv2d/kernel", "shape": [1, 1, 256, 4], "dtype": "float32"}, {"name": "ClassHead_2_conv2d/bias", "shape": [4], "dtype": "float32"}, {"name": "FPN_1conv_unit_bn/gamma", "shape": [256], "dtype": "float32"}, {"name": "FPN_1conv_unit_bn/beta", "shape": [256], "dtype": "float32"}, {"name": "FPN_1conv_unit_bn/moving_mean", "shape": [256], "dtype": "float32"}, {"name": "FPN_1conv_unit_bn/moving_variance", "shape": [256], "dtype": "float32"}, {"name": "FPN_1conv_unit_conv/kernel", "shape": [1, 1, 80, 256], "dtype": "float32"}, {"name": "FPN_2conv_unit_bn/gamma", "shape": [256], "dtype": "float32"}, {"name": "FPN_2conv_unit_bn/beta", "shape": [256], "dtype": "float32"}, {"name": "FPN_2conv_unit_bn/moving_mean", "shape": [256], "dtype": "float32"}, {"name": "FPN_2conv_unit_bn/moving_variance", "shape": [256], "dtype": "float32"}, {"name": "FPN_2conv_unit_conv/kernel", "shape": [1, 1, 160, 256], "dtype": "float32"}, {"name": "FPN_3conv_unit_bn/gamma", "shape": [256], "dtype": "float32"}, {"name": "FPN_3conv_unit_bn/beta", "shape": [256], "dtype": "float32"}, {"name": "FPN_3conv_unit_bn/moving_mean", "shape": [256], "dtype": "float32"}, {"name": "FPN_3conv_unit_bn/moving_variance", "shape": [256], "dtype": "float32"}, {"name": "FPN_3conv_unit_conv/kernel", "shape": [1, 1, 320, 256], "dtype": "float32"}, {"name": "FPN_4conv_unit_bn/gamma", "shape": [256], "dtype": "float32"}, {"name": "FPN_4conv_unit_bn/beta", "shape": [256], "dtype": "float32"}, {"name": "FPN_4conv_unit_bn/moving_mean", "shape": [256], "dtype": "float32"}, {"name": "FPN_4conv_unit_bn/moving_variance", "shape": [256], "dtype": "float32"}, {"name": "FPN_4conv_unit_conv/kernel", "shape": [3, 3, 256, 256], "dtype": "float32"}, {"name": "FPN_5conv_unit_bn/gamma", "shape": [256], "dtype": "float32"}, {"name": "FPN_5conv_unit_bn/beta", "shape": [256], "dtype": "float32"}, {"name": "FPN_5conv_unit_bn/moving_mean", "shape": [256], "dtype": "float32"}, {"name": "FPN_5conv_unit_bn/moving_variance", "shape": [256], "dtype": "float32"}, {"name": "FPN_5conv_unit_conv/kernel", "shape": [3, 3, 256, 256], "dtype": "float32"}, {"name": "PointsHead_0_conv2d/kernel", "shape": [1, 1, 256, 16], "dtype": "float32"}, {"name": "PointsHead_0_conv2d/bias", "shape": [16], "dtype": "float32"}, {"name": "PointsHead_1_conv2d/kernel", "shape": [1, 1, 256, 16], "dtype": "float32"}, {"name": "PointsHead_1_conv2d/bias", "shape": [16], "dtype": "float32"}, {"name": "PointsHead_2_conv2d/kernel", "shape": [1, 1, 256, 16], "dtype": "float32"}, {"name": "PointsHead_2_conv2d/bias", "shape": [16], "dtype": "float32"}, {"name": "SSH_0_1conv_unit_bn/gamma", "shape": [128], "dtype": "float32"}, {"name": "SSH_0_1conv_unit_bn/beta", "shape": [128], "dtype": "float32"}, {"name": "SSH_0_1conv_unit_bn/moving_mean", "shape": [128], "dtype": "float32"}, {"name": "SSH_0_1conv_unit_bn/moving_variance", "shape": [128], "dtype": "float32"}, {"name": "SSH_0_1conv_unit_conv/kernel", "shape": [3, 3, 256, 128], "dtype": "float32"}, {"name": "SSH_0_2conv_unit_bn/gamma", "shape": [64], "dtype": "float32"}, {"name": "SSH_0_2conv_unit_bn/beta", "shape": [64], "dtype": "float32"}, {"name": "SSH_0_2conv_unit_bn/moving_mean", "shape": [64], "dtype": "float32"}, {"name": "SSH_0_2conv_unit_bn/moving_variance", "shape": [64], "dtype": "float32"}, {"name": "SSH_0_2conv_unit_conv/kernel", "shape": [3, 3, 256, 64], "dtype": "float32"}, {"name": "SSH_0_3conv_unit_bn/gamma", "shape": [64], "dtype": "float32"}, {"name": "SSH_0_3conv_unit_bn/beta", "shape": [64], "dtype": "float32"}, {"name": "SSH_0_3conv_unit_bn/moving_mean", "shape": [64], "dtype": "float32"}, {"name": "SSH_0_3conv_unit_bn/moving_variance", "shape": [64], "dtype": "float32"}, {"name": "SSH_0_3conv_unit_conv/kernel", "shape": [3, 3, 64, 64], "dtype": "float32"}, {"name": "SSH_0_4conv_unit_bn/gamma", "shape": [64], "dtype": "float32"}, {"name": "SSH_0_4conv_unit_bn/beta", "shape": [64], "dtype": "float32"}, {"name": "SSH_0_4conv_unit_bn/moving_mean", "shape": [64], "dtype": "float32"}, {"name": "SSH_0_4conv_unit_bn/moving_variance", "shape": [64], "dtype": "float32"}, {"name": "SSH_0_4conv_unit_conv/kernel", "shape": [3, 3, 64, 64], "dtype": "float32"}, {"name": "SSH_0_5conv_unit_bn/gamma", "shape": [64], "dtype": "float32"}, {"name": "SSH_0_5conv_unit_bn/beta", "shape": [64], "dtype": "float32"}, {"name": "SSH_0_5conv_unit_bn/moving_mean", "shape": [64], "dtype": "float32"}, {"name": "SSH_0_5conv_unit_bn/moving_variance", "shape": [64], "dtype": "float32"}, {"name": "SSH_0_5conv_unit_conv/kernel", "shape": [3, 3, 64, 64], "dtype": "float32"}, {"name": "SSH_1_1conv_unit_bn/gamma", "shape": [128], "dtype": "float32"}, {"name": "SSH_1_1conv_unit_bn/beta", "shape": [128], "dtype": "float32"}, {"name": "SSH_1_1conv_unit_bn/moving_mean", "shape": [128], "dtype": "float32"}, {"name": "SSH_1_1conv_unit_bn/moving_variance", "shape": [128], "dtype": "float32"}, {"name": "SSH_1_1conv_unit_conv/kernel", "shape": [3, 3, 256, 128], "dtype": "float32"}, {"name": "SSH_1_2conv_unit_bn/gamma", "shape": [64], "dtype": "float32"}, {"name": "SSH_1_2conv_unit_bn/beta", "shape": [64], "dtype": "float32"}, {"name": "SSH_1_2conv_unit_bn/moving_mean", "shape": [64], "dtype": "float32"}, {"name": "SSH_1_2conv_unit_bn/moving_variance", "shape": [64], "dtype": "float32"}, {"name": "SSH_1_2conv_unit_conv/kernel", "shape": [3, 3, 256, 64], "dtype": "float32"}, {"name": "SSH_1_3conv_unit_bn/gamma", "shape": [64], "dtype": "float32"}, {"name": "SSH_1_3conv_unit_bn/beta", "shape": [64], "dtype": "float32"}, {"name": "SSH_1_3conv_unit_bn/moving_mean", "shape": [64], "dtype": "float32"}, {"name": "SSH_1_3conv_unit_bn/moving_variance", "shape": [64], "dtype": "float32"}, {"name": "SSH_1_3conv_unit_conv/kernel", "shape": [3, 3, 64, 64], "dtype": "float32"}, {"name": "SSH_1_4conv_unit_bn/gamma", "shape": [64], "dtype": "float32"}, {"name": "SSH_1_4conv_unit_bn/beta", "shape": [64], "dtype": "float32"}, {"name": "SSH_1_4conv_unit_bn/moving_mean", "shape": [64], "dtype": "float32"}, {"name": "SSH_1_4conv_unit_bn/moving_variance", "shape": [64], "dtype": "float32"}, {"name": "SSH_1_4conv_unit_conv/kernel", "shape": [3, 3, 64, 64], "dtype": "float32"}, {"name": "SSH_1_5conv_unit_bn/gamma", "shape": [64], "dtype": "float32"}, {"name": "SSH_1_5conv_unit_bn/beta", "shape": [64], "dtype": "float32"}, {"name": "SSH_1_5conv_unit_bn/moving_mean", "shape": [64], "dtype": "float32"}, {"name": "SSH_1_5conv_unit_bn/moving_variance", "shape": [64], "dtype": "float32"}, {"name": "SSH_1_5conv_unit_conv/kernel", "shape": [3, 3, 64, 64], "dtype": "float32"}, {"name": "SSH_2_1conv_unit_bn/gamma", "shape": [128], "dtype": "float32"}, {"name": "SSH_2_1conv_unit_bn/beta", "shape": [128], "dtype": "float32"}, {"name": "SSH_2_1conv_unit_bn/moving_mean", "shape": [128], "dtype": "float32"}, {"name": "SSH_2_1conv_unit_bn/moving_variance", "shape": [128], "dtype": "float32"}, {"name": "SSH_2_1conv_unit_conv/kernel", "shape": [3, 3, 256, 128], "dtype": "float32"}, {"name": "SSH_2_2conv_unit_bn/gamma", "shape": [64], "dtype": "float32"}, {"name": "SSH_2_2conv_unit_bn/beta", "shape": [64], "dtype": "float32"}, {"name": "SSH_2_2conv_unit_bn/moving_mean", "shape": [64], "dtype": "float32"}, {"name": "SSH_2_2conv_unit_bn/moving_variance", "shape": [64], "dtype": "float32"}, {"name": "SSH_2_2conv_unit_conv/kernel", "shape": [3, 3, 256, 64], "dtype": "float32"}, {"name": "SSH_2_3conv_unit_bn/gamma", "shape": [64], "dtype": "float32"}, {"name": "SSH_2_3conv_unit_bn/beta", "shape": [64], "dtype": "float32"}, {"name": "SSH_2_3conv_unit_bn/moving_mean", "shape": [64], "dtype": "float32"}, {"name": "SSH_2_3conv_unit_bn/moving_variance", "shape": [64], "dtype": "float32"}, {"name": "SSH_2_3conv_unit_conv/kernel", "shape": [3, 3, 64, 64], "dtype": "float32"}, {"name": "SSH_2_4conv_unit_bn/gamma", "shape": [64], "dtype": "float32"}, {"name": "SSH_2_4conv_unit_bn/beta", "shape": [64], "dtype": "float32"}, {"name": "SSH_2_4conv_unit_bn/moving_mean", "shape": [64], "dtype": "float32"}, {"name": "SSH_2_4conv_unit_bn/moving_variance", "shape": [64], "dtype": "float32"}, {"name": "SSH_2_4conv_unit_conv/kernel", "shape": [3, 3, 64, 64], "dtype": "float32"}, {"name": "SSH_2_5conv_unit_bn/gamma", "shape": [64], "dtype": "float32"}, {"name": "SSH_2_5conv_unit_bn/beta", "shape": [64], "dtype": "float32"}, {"name": "SSH_2_5conv_unit_bn/moving_mean", "shape": [64], "dtype": "float32"}, {"name": "SSH_2_5conv_unit_bn/moving_variance", "shape": [64], "dtype": "float32"}, {"name": "SSH_2_5conv_unit_conv/kernel", "shape": [3, 3, 64, 64], "dtype": "float32"}, {"name": "vargface_head_conv1/kernel", "shape": [3, 3, 3, 40], "dtype": "float32"}, {"name": "vargface_head_conv1_bn/beta", "shape": [40], "dtype": "float32"}, {"name": "vargface_head_head_pooling_sep1_data/depthwise_kernel", "shape": [3, 3, 40, 1], "dtype": "float32"}, {"name": "vargface_head_head_pooling_sep1_data/pointwise_kernel", "shape": [1, 1, 40, 40], "dtype": "float32"}, {"name": "vargface_head_head_pooling_sep2_data/depthwise_kernel", "shape": [3, 3, 40, 1], "dtype": "float32"}, {"name": "vargface_head_head_pooling_sep2_data/pointwise_kernel", "shape": [1, 1, 40, 40], "dtype": "float32"}, {"name": "vargface_head_head_pooling_se_conv1/kernel", "shape": [1, 1, 40, 10], "dtype": "float32"}, {"name": "vargface_head_head_pooling_se_conv1/bias", "shape": [10], "dtype": "float32"}, {"name": "vargface_head_head_pooling_se_conv2/kernel", "shape": [1, 1, 10, 40], "dtype": "float32"}, {"name": "vargface_head_head_pooling_se_conv2/bias", "shape": [40], "dtype": "float32"}, {"name": "vargface_head_head_pooling_shortcut/depthwise_kernel", "shape": [3, 3, 40, 1], "dtype": "float32"}, {"name": "vargface_head_head_pooling_shortcut/pointwise_kernel", "shape": [1, 1, 40, 40], "dtype": "float32"}, {"name": "vargface_stage_2_unit_1_step1_data_branch/depthwise_kernel", "shape": [3, 3, 40, 2], "dtype": "float32"}, {"name": "vargface_stage_2_unit_1_step1_data_branch/pointwise_kernel", "shape": [1, 1, 80, 80], "dtype": "float32"}, {"name": "vargface_stage_2_unit_1_step2_data_branch/depthwise_kernel", "shape": [3, 3, 40, 2], "dtype": "float32"}, {"name": "vargface_stage_2_unit_1_step2_data_branch/pointwise_kernel", "shape": [1, 1, 80, 80], "dtype": "float32"}, {"name": "vargface_stage_2_unit_1_step2_data/depthwise_kernel", "shape": [3, 3, 80, 2], "dtype": "float32"}, {"name": "vargface_stage_2_unit_1_step2_data/pointwise_kernel", "shape": [1, 1, 160, 80], "dtype": "float32"}, {"name": "vargface_stage_2_unit_1_shortcut/depthwise_kernel", "shape": [3, 3, 40, 2], "dtype": "float32"}, {"name": "vargface_stage_2_unit_1_shortcut/pointwise_kernel", "shape": [1, 1, 80, 80], "dtype": "float32"}, {"name": "vargface_stage_2_unit_2_sep1_data/depthwise_kernel", "shape": [3, 3, 80, 2], "dtype": "float32"}, {"name": "vargface_stage_2_unit_2_sep1_data/pointwise_kernel", "shape": [1, 1, 160, 80], "dtype": "float32"}, {"name": "vargface_stage_2_unit_2_sep2_data/depthwise_kernel", "shape": [3, 3, 80, 2], "dtype": "float32"}, {"name": "vargface_stage_2_unit_2_sep2_data/pointwise_kernel", "shape": [1, 1, 160, 80], "dtype": "float32"}, {"name": "vargface_stage_2_unit_2_se_conv1/kernel", "shape": [1, 1, 80, 20], "dtype": "float32"}, {"name": "vargface_stage_2_unit_2_se_conv1/bias", "shape": [20], "dtype": "float32"}, {"name": "vargface_stage_2_unit_2_se_conv2/kernel", "shape": [1, 1, 20, 80], "dtype": "float32"}, {"name": "vargface_stage_2_unit_2_se_conv2/bias", "shape": [80], "dtype": "float32"}, {"name": "vargface_stage_2_unit_3_sep1_data/depthwise_kernel", "shape": [3, 3, 80, 2], "dtype": "float32"}, {"name": "vargface_stage_2_unit_3_sep1_data/pointwise_kernel", "shape": [1, 1, 160, 80], "dtype": "float32"}, {"name": "vargface_stage_2_unit_3_sep2_data/depthwise_kernel", "shape": [3, 3, 80, 2], "dtype": "float32"}, {"name": "vargface_stage_2_unit_3_sep2_data/pointwise_kernel", "shape": [1, 1, 160, 80], "dtype": "float32"}, {"name": "vargface_stage_2_unit_3_se_conv1/kernel", "shape": [1, 1, 80, 20], "dtype": "float32"}, {"name": "vargface_stage_2_unit_3_se_conv1/bias", "shape": [20], "dtype": "float32"}, {"name": "vargface_stage_2_unit_3_se_conv2/kernel", "shape": [1, 1, 20, 80], "dtype": "float32"}, {"name": "vargface_stage_2_unit_3_se_conv2/bias", "shape": [80], "dtype": "float32"}, {"name": "vargface_stage_3_unit_1_step1_data_branch/depthwise_kernel", "shape": [3, 3, 80, 2], "dtype": "float32"}, {"name": "vargface_stage_3_unit_1_step1_data_branch/pointwise_kernel", "shape": [1, 1, 160, 160], "dtype": "float32"}, {"name": "vargface_stage_3_unit_1_step2_data_branch/depthwise_kernel", "shape": [3, 3, 80, 2], "dtype": "float32"}, {"name": "vargface_stage_3_unit_1_step2_data_branch/pointwise_kernel", "shape": [1, 1, 160, 160], "dtype": "float32"}, {"name": "vargface_stage_3_unit_1_step2_data/depthwise_kernel", "shape": [3, 3, 160, 2], "dtype": "float32"}, {"name": "vargface_stage_3_unit_1_step2_data/pointwise_kernel", "shape": [1, 1, 320, 160], "dtype": "float32"}, {"name": "vargface_stage_3_unit_1_shortcut/depthwise_kernel", "shape": [3, 3, 80, 2], "dtype": "float32"}, {"name": "vargface_stage_3_unit_1_shortcut/pointwise_kernel", "shape": [1, 1, 160, 160], "dtype": "float32"}, {"name": "vargface_stage_3_unit_2_sep1_data/depthwise_kernel", "shape": [3, 3, 160, 2], "dtype": "float32"}, {"name": "vargface_stage_3_unit_2_sep1_data/pointwise_kernel", "shape": [1, 1, 320, 160], "dtype": "float32"}, {"name": "vargface_stage_3_unit_2_sep2_data/depthwise_kernel", "shape": [3, 3, 160, 2], "dtype": "float32"}, {"name": "vargface_stage_3_unit_2_sep2_data/pointwise_kernel", "shape": [1, 1, 320, 160], "dtype": "float32"}, {"name": "vargface_stage_3_unit_2_se_conv1/kernel", "shape": [1, 1, 160, 40], "dtype": "float32"}, {"name": "vargface_stage_3_unit_2_se_conv1/bias", "shape": [40], "dtype": "float32"}, {"name": "vargface_stage_3_unit_2_se_conv2/kernel", "shape": [1, 1, 40, 160], "dtype": "float32"}, {"name": "vargface_stage_3_unit_2_se_conv2/bias", "shape": [160], "dtype": "float32"}, {"name": "vargface_stage_3_unit_3_sep1_data/depthwise_kernel", "shape": [3, 3, 160, 2], "dtype": "float32"}, {"name": "vargface_stage_3_unit_3_sep1_data/pointwise_kernel", "shape": [1, 1, 320, 160], "dtype": "float32"}, {"name": "vargface_stage_3_unit_3_sep2_data/depthwise_kernel", "shape": [3, 3, 160, 2], "dtype": "float32"}, {"name": "vargface_stage_3_unit_3_sep2_data/pointwise_kernel", "shape": [1, 1, 320, 160], "dtype": "float32"}, {"name": "vargface_stage_3_unit_3_se_conv1/kernel", "shape": [1, 1, 160, 40], "dtype": "float32"}, {"name": "vargface_stage_3_unit_3_se_conv1/bias", "shape": [40], "dtype": "float32"}, {"name": "vargface_stage_3_unit_3_se_conv2/kernel", "shape": [1, 1, 40, 160], "dtype": "float32"}, {"name": "vargface_stage_3_unit_3_se_conv2/bias", "shape": [160], "dtype": "float32"}, {"name": "vargface_stage_3_unit_4_sep1_data/depthwise_kernel", "shape": [3, 3, 160, 2], "dtype": "float32"}, {"name": "vargface_stage_3_unit_4_sep1_data/pointwise_kernel", "shape": [1, 1, 320, 160], "dtype": "float32"}, {"name": "vargface_stage_3_unit_4_sep2_data/depthwise_kernel", "shape": [3, 3, 160, 2], "dtype": "float32"}, {"name": "vargface_stage_3_unit_4_sep2_data/pointwise_kernel", "shape": [1, 1, 320, 160], "dtype": "float32"}, {"name": "vargface_stage_3_unit_4_se_conv1/kernel", "shape": [1, 1, 160, 40], "dtype": "float32"}, {"name": "vargface_stage_3_unit_4_se_conv1/bias", "shape": [40], "dtype": "float32"}, {"name": "vargface_stage_3_unit_4_se_conv2/kernel", "shape": [1, 1, 40, 160], "dtype": "float32"}, {"name": "vargface_stage_3_unit_4_se_conv2/bias", "shape": [160], "dtype": "float32"}, {"name": "vargface_stage_3_unit_5_sep1_data/depthwise_kernel", "shape": [3, 3, 160, 2], "dtype": "float32"}, {"name": "vargface_stage_3_unit_5_sep1_data/pointwise_kernel", "shape": [1, 1, 320, 160], "dtype": "float32"}, {"name": "vargface_stage_3_unit_5_sep2_data/depthwise_kernel", "shape": [3, 3, 160, 2], "dtype": "float32"}, {"name": "vargface_stage_3_unit_5_sep2_data/pointwise_kernel", "shape": [1, 1, 320, 160], "dtype": "float32"}, {"name": "vargface_stage_3_unit_5_se_conv1/kernel", "shape": [1, 1, 160, 40], "dtype": "float32"}, {"name": "vargface_stage_3_unit_5_se_conv1/bias", "shape": [40], "dtype": "float32"}, {"name": "vargface_stage_3_unit_5_se_conv2/kernel", "shape": [1, 1, 40, 160], "dtype": "float32"}, {"name": "vargface_stage_3_unit_5_se_conv2/bias", "shape": [160], "dtype": "float32"}, {"name": "vargface_stage_3_unit_6_sep1_data/depthwise_kernel", "shape": [3, 3, 160, 2], "dtype": "float32"}, {"name": "vargface_stage_3_unit_6_sep1_data/pointwise_kernel", "shape": [1, 1, 320, 160], "dtype": "float32"}, {"name": "vargface_stage_3_unit_6_sep2_data/depthwise_kernel", "shape": [3, 3, 160, 2], "dtype": "float32"}, {"name": "vargface_stage_3_unit_6_sep2_data/pointwise_kernel", "shape": [1, 1, 320, 160], "dtype": "float32"}, {"name": "vargface_stage_3_unit_6_se_conv1/kernel", "shape": [1, 1, 160, 40], "dtype": "float32"}, {"name": "vargface_stage_3_unit_6_se_conv1/bias", "shape": [40], "dtype": "float32"}, {"name": "vargface_stage_3_unit_6_se_conv2/kernel", "shape": [1, 1, 40, 160], "dtype": "float32"}, {"name": "vargface_stage_3_unit_6_se_conv2/bias", "shape": [160], "dtype": "float32"}, {"name": "vargface_stage_3_unit_7_sep1_data/depthwise_kernel", "shape": [3, 3, 160, 2], "dtype": "float32"}, {"name": "vargface_stage_3_unit_7_sep1_data/pointwise_kernel", "shape": [1, 1, 320, 160], "dtype": "float32"}, {"name": "vargface_stage_3_unit_7_sep2_data/depthwise_kernel", "shape": [3, 3, 160, 2], "dtype": "float32"}, {"name": "vargface_stage_3_unit_7_sep2_data/pointwise_kernel", "shape": [1, 1, 320, 160], "dtype": "float32"}, {"name": "vargface_stage_3_unit_7_se_conv1/kernel", "shape": [1, 1, 160, 40], "dtype": "float32"}, {"name": "vargface_stage_3_unit_7_se_conv1/bias", "shape": [40], "dtype": "float32"}, {"name": "vargface_stage_3_unit_7_se_conv2/kernel", "shape": [1, 1, 40, 160], "dtype": "float32"}, {"name": "vargface_stage_3_unit_7_se_conv2/bias", "shape": [160], "dtype": "float32"}, {"name": "vargface_stage_4_unit_1_step1_data_branch/depthwise_kernel", "shape": [3, 3, 160, 2], "dtype": "float32"}, {"name": "vargface_stage_4_unit_1_step1_data_branch/pointwise_kernel", "shape": [1, 1, 320, 320], "dtype": "float32"}, {"name": "vargface_stage_4_unit_1_step2_data_branch/depthwise_kernel", "shape": [3, 3, 160, 2], "dtype": "float32"}, {"name": "vargface_stage_4_unit_1_step2_data_branch/pointwise_kernel", "shape": [1, 1, 320, 320], "dtype": "float32"}, {"name": "vargface_stage_4_unit_1_step2_data/depthwise_kernel", "shape": [3, 3, 320, 2], "dtype": "float32"}, {"name": "vargface_stage_4_unit_1_step2_data/pointwise_kernel", "shape": [1, 1, 640, 320], "dtype": "float32"}, {"name": "vargface_stage_4_unit_1_shortcut/depthwise_kernel", "shape": [3, 3, 160, 2], "dtype": "float32"}, {"name": "vargface_stage_4_unit_1_shortcut/pointwise_kernel", "shape": [1, 1, 320, 320], "dtype": "float32"}, {"name": "vargface_stage_4_unit_2_sep1_data/depthwise_kernel", "shape": [3, 3, 320, 2], "dtype": "float32"}, {"name": "vargface_stage_4_unit_2_sep1_data/pointwise_kernel", "shape": [1, 1, 640, 320], "dtype": "float32"}, {"name": "vargface_stage_4_unit_2_sep2_data/depthwise_kernel", "shape": [3, 3, 320, 2], "dtype": "float32"}, {"name": "vargface_stage_4_unit_2_sep2_data/pointwise_kernel", "shape": [1, 1, 640, 320], "dtype": "float32"}, {"name": "vargface_stage_4_unit_2_se_conv1/kernel", "shape": [1, 1, 320, 80], "dtype": "float32"}, {"name": "vargface_stage_4_unit_2_se_conv1/bias", "shape": [80], "dtype": "float32"}, {"name": "vargface_stage_4_unit_2_se_conv2/kernel", "shape": [1, 1, 80, 320], "dtype": "float32"}, {"name": "vargface_stage_4_unit_2_se_conv2/bias", "shape": [320], "dtype": "float32"}, {"name": "vargface_stage_4_unit_3_sep1_data/depthwise_kernel", "shape": [3, 3, 320, 2], "dtype": "float32"}, {"name": "vargface_stage_4_unit_3_sep1_data/pointwise_kernel", "shape": [1, 1, 640, 320], "dtype": "float32"}, {"name": "vargface_stage_4_unit_3_sep2_data/depthwise_kernel", "shape": [3, 3, 320, 2], "dtype": "float32"}, {"name": "vargface_stage_4_unit_3_sep2_data/pointwise_kernel", "shape": [1, 1, 640, 320], "dtype": "float32"}, {"name": "vargface_stage_4_unit_3_se_conv1/kernel", "shape": [1, 1, 320, 80], "dtype": "float32"}, {"name": "vargface_stage_4_unit_3_se_conv1/bias", "shape": [80], "dtype": "float32"}, {"name": "vargface_stage_4_unit_3_se_conv2/kernel", "shape": [1, 1, 80, 320], "dtype": "float32"}, {"name": "vargface_stage_4_unit_3_se_conv2/bias", "shape": [320], "dtype": "float32"}, {"name": "vargface_stage_4_unit_4_sep1_data/depthwise_kernel", "shape": [3, 3, 320, 2], "dtype": "float32"}, {"name": "vargface_stage_4_unit_4_sep1_data/pointwise_kernel", "shape": [1, 1, 640, 320], "dtype": "float32"}, {"name": "vargface_stage_4_unit_4_sep2_data/depthwise_kernel", "shape": [3, 3, 320, 2], "dtype": "float32"}, {"name": "vargface_stage_4_unit_4_sep2_data/pointwise_kernel", "shape": [1, 1, 640, 320], "dtype": "float32"}, {"name": "vargface_stage_4_unit_4_se_conv1/kernel", "shape": [1, 1, 320, 80], "dtype": "float32"}, {"name": "vargface_stage_4_unit_4_se_conv1/bias", "shape": [80], "dtype": "float32"}, {"name": "vargface_stage_4_unit_4_se_conv2/kernel", "shape": [1, 1, 80, 320], "dtype": "float32"}, {"name": "vargface_stage_4_unit_4_se_conv2/bias", "shape": [320], "dtype": "float32"}, {"name": "vargface_head_conv1_bn/moving_mean", "shape": [40], "dtype": "float32"}, {"name": "vargface_head_conv1_bn/moving_variance", "shape": [40], "dtype": "float32"}]}]}