{"format": "layers-model", "generatedBy": "keras v2.7.0", "convertedBy": "TensorFlow.js Converter v3.11.0", "modelTopology": {"keras_version": "2.7.0", "backend": "tensorflow", "model_config": {"class_name": "Sequential", "config": {"name": "VarGNet_window", "layers": [{"class_name": "InputLayer", "config": {"batch_input_shape": [null, 224, 224, 3], "dtype": "float32", "sparse": false, "ragged": false, "name": "model_input"}}, {"class_name": "Functional", "config": {"name": "model", "layers": [{"class_name": "InputLayer", "config": {"batch_input_shape": [null, 224, 224, 3], "dtype": "float32", "sparse": false, "ragged": false, "name": "input_1"}, "name": "input_1", "inbound_nodes": []}, {"class_name": "ZeroPadding2D", "config": {"name": "tf.compat.v1.pad_zero_padding2d", "trainable": true, "dtype": "float32", "padding": [[1, 1], [1, 1]], "data_format": "channels_last"}, "name": "tf.compat.v1.pad_zero_padding2d", "inbound_nodes": [[["input_1", 0, 0, {}]]]}, {"class_name": "Conv2D", "config": {"name": "vargface_head_conv1", "trainable": true, "dtype": "float32", "filters": 40, "kernel_size": [3, 3], "strides": [2, 2], "padding": "valid", "data_format": "channels_last", "dilation_rate": [1, 1], "groups": 1, "activation": "linear", "use_bias": false, "depthwise_initializer": {"class_name": "GlorotUniform", "config": {"seed": null}}, "bias_initializer": {"class_name": "Zeros", "config": {}}, "depthwise_intializer": null, "bias_regularizer": null, "activity_regularizer": null, "depthwise_constraint": null, "bias_constraint": null}, "name": "vargface_head_conv1", "inbound_nodes": [[["tf.compat.v1.pad_zero_padding2d", 0, 0, {}]]]}, {"class_name": "BatchNormalization", "config": {"name": "vargface_head_conv1_bn", "trainable": true, "dtype": "float32", "axis": [3], "momentum": 0.9, "epsilon": 2e-05, "center": true, "scale": false, "beta_initializer": {"class_name": "Zeros", "config": {}}, "gamma_initializer": {"class_name": "Ones", "config": {}}, "moving_mean_initializer": {"class_name": "Zeros", "config": {}}, "moving_variance_initializer": {"class_name": "Ones", "config": {}}, "beta_regularizer": null, "gamma_regularizer": null, "beta_constraint": null, "gamma_constraint": null}, "name": "vargface_head_conv1_bn", "inbound_nodes": [[["vargface_head_conv1", 0, 0, {}]]]}, {"class_name": "LeakyReLU", "config": {"name": "vargface_head_conv1_act", "trainable": true, "dtype": "float32", "alpha": 0.30000001192092896}, "name": "vargface_head_conv1_act", "inbound_nodes": [[["vargface_head_conv1_bn", 0, 0, {}]]]}, {"class_name": "ZeroPadding2D", "config": {"name": "tf.compat.v1.pad_2_zero_padding2d_1", "trainable": true, "dtype": "float32", "padding": [[1, 1], [1, 1]], "data_format": "channels_last"}, "name": "tf.compat.v1.pad_2_zero_padding2d_1", "inbound_nodes": [[["vargface_head_conv1_act", 0, 0, {}]]]}, {"class_name": "SeparableConv2D", "config": {"name": "vargface_head_head_pooling_sep1_data", "trainable": true, "dtype": "float32", "filters": 40, "kernel_size": [3, 3], "strides": [2, 2], "padding": "valid", "data_format": "channels_last", "dilation_rate": [1, 1], "groups": 1, "activation": {"class_name": "LeakyReLU", "config": {"name": "leaky_re_lu_1", "trainable": true, "dtype": "float32", "alpha": 0.30000001192092896}, "shared_object_id": 12}, "use_bias": false, "depthwise_initializer": {"class_name": "GlorotUniform", "config": {"seed": null}}, "bias_initializer": {"class_name": "Zeros", "config": {}, "shared_object_id": 15}, "depthwise_intializer": null, "bias_regularizer": null, "activity_regularizer": null, "depthwise_constraint": null, "bias_constraint": null, "depth_multiplier": 1, "depthwise_initializer": {"class_name": "GlorotUniform", "config": {"seed": null}}, "pointwise_initializer": {"class_name": "GlorotUniform", "config": {"seed": null}}, "depthwise_regularizer": null, "pointwise_regularizer": null, "depthwise_constraint": null, "pointwise_constraint": null}, "name": "vargface_head_head_pooling_sep1_data", "inbound_nodes": [[["tf.compat.v1.pad_2_zero_padding2d_1", 0, 0, {}]]]}, {"class_name": "ZeroPadding2D", "config": {"name": "tf.compat.v1.pad_3_zero_padding2d_2", "trainable": true, "dtype": "float32", "padding": [[1, 1], [1, 1]], "data_format": "channels_last"}, "name": "tf.compat.v1.pad_3_zero_padding2d_2", "inbound_nodes": [[["vargface_head_head_pooling_sep1_data", 0, 0, {}]]]}, {"class_name": "SeparableConv2D", "config": {"name": "vargface_head_head_pooling_sep2_data", "trainable": true, "dtype": "float32", "filters": 40, "kernel_size": [3, 3], "strides": [1, 1], "padding": "valid", "data_format": "channels_last", "dilation_rate": [1, 1], "groups": 1, "activation": {"class_name": "LeakyReLU", "config": {"name": "leaky_re_lu_2", "trainable": true, "dtype": "float32", "alpha": 0.30000001192092896}, "shared_object_id": 19}, "use_bias": false, "depthwise_initializer": {"class_name": "GlorotUniform", "config": {"seed": null}}, "bias_initializer": {"class_name": "Zeros", "config": {}, "shared_object_id": 22}, "depthwise_intializer": null, "bias_regularizer": null, "activity_regularizer": null, "depthwise_constraint": null, "bias_constraint": null, "depth_multiplier": 1, "depthwise_initializer": {"class_name": "GlorotUniform", "config": {"seed": null}}, "pointwise_initializer": {"class_name": "GlorotUniform", "config": {"seed": null}}, "depthwise_regularizer": null, "pointwise_regularizer": null, "depthwise_constraint": null, "pointwise_constraint": null}, "name": "vargface_head_head_pooling_sep2_data", "inbound_nodes": [[["tf.compat.v1.pad_3_zero_padding2d_2", 0, 0, {}]]]}, {"class_name": "GlobalAveragePooling2D", "config": {"name": "vargface_head_head_pooling_se_pool1", "trainable": true, "dtype": "float32", "data_format": "channels_last", "keepdims": true}, "name": "vargface_head_head_pooling_se_pool1", "inbound_nodes": [[["vargface_head_head_pooling_sep2_data", 0, 0, {}]]]}, {"class_name": "Reshape", "config": {"name": "vargface_head_head_pooling_se_conv1_reshape", "trainable": true, "dtype": "float32", "target_shape": [1, 1, 40]}, "name": "vargface_head_head_pooling_se_conv1_reshape", "inbound_nodes": [[["vargface_head_head_pooling_se_pool1", 0, 0, {}]]]}, {"class_name": "Conv2D", "config": {"name": "vargface_head_head_pooling_se_conv1", "trainable": true, "dtype": "float32", "filters": 10, "kernel_size": [1, 1], "strides": [1, 1], "padding": "same", "data_format": "channels_last", "dilation_rate": [1, 1], "groups": 1, "activation": "linear", "use_bias": true, "depthwise_initializer": {"class_name": "GlorotUniform", "config": {"seed": null}}, "bias_initializer": {"class_name": "Zeros", "config": {}}, "depthwise_intializer": null, "bias_regularizer": null, "activity_regularizer": null, "depthwise_constraint": null, "bias_constraint": null}, "name": "vargface_head_head_pooling_se_conv1", "inbound_nodes": [[["vargface_head_head_pooling_se_conv1_reshape", 0, 0, {}]]]}, {"class_name": "LeakyReLU", "config": {"name": "vargface_head_head_pooling_se_act1", "trainable": true, "dtype": "float32", "alpha": 0.30000001192092896}, "name": "vargface_head_head_pooling_se_act1", "inbound_nodes": [[["vargface_head_head_pooling_se_conv1", 0, 0, {}]]]}, {"class_name": "Conv2D", "config": {"name": "vargface_head_head_pooling_se_conv2", "trainable": true, "dtype": "float32", "filters": 40, "kernel_size": [1, 1], "strides": [1, 1], "padding": "valid", "data_format": "channels_last", "dilation_rate": [1, 1], "groups": 1, "activation": "linear", "use_bias": true, "depthwise_initializer": {"class_name": "GlorotUniform", "config": {"seed": null}}, "bias_initializer": {"class_name": "Zeros", "config": {}}, "depthwise_intializer": null, "bias_regularizer": null, "activity_regularizer": null, "depthwise_constraint": null, "bias_constraint": null}, "name": "vargface_head_head_pooling_se_conv2", "inbound_nodes": [[["vargface_head_head_pooling_se_act1", 0, 0, {}]]]}, {"class_name": "Activation", "config": {"name": "vargface_head_head_pooling_se_sigmoid", "trainable": true, "dtype": "float32", "activation": "sigmoid"}, "name": "vargface_head_head_pooling_se_sigmoid", "inbound_nodes": [[["vargface_head_head_pooling_se_conv2", 0, 0, {}]]]}, {"class_name": "ZeroPadding2D", "config": {"name": "tf.compat.v1.pad_1_zero_padding2d_3", "trainable": true, "dtype": "float32", "padding": [[1, 1], [1, 1]], "data_format": "channels_last"}, "name": "tf.compat.v1.pad_1_zero_padding2d_3", "inbound_nodes": [[["vargface_head_conv1_act", 0, 0, {}]]]}, {"class_name": "Multiply", "config": {"name": "multiply", "trainable": true, "dtype": "float32"}, "name": "multiply", "inbound_nodes": [[["vargface_head_head_pooling_sep2_data", 0, 0, {}], ["vargface_head_head_pooling_se_sigmoid", 0, 0, {}]]]}, {"class_name": "SeparableConv2D", "config": {"name": "vargface_head_head_pooling_shortcut", "trainable": true, "dtype": "float32", "filters": 40, "kernel_size": [3, 3], "strides": [2, 2], "padding": "valid", "data_format": "channels_last", "dilation_rate": [1, 1], "groups": 1, "activation": {"class_name": "LeakyReLU", "config": {"name": "leaky_re_lu", "trainable": true, "dtype": "float32", "alpha": 0.30000001192092896}, "shared_object_id": 37}, "use_bias": false, "depthwise_initializer": {"class_name": "GlorotUniform", "config": {"seed": null}}, "bias_initializer": {"class_name": "Zeros", "config": {}, "shared_object_id": 40}, "depthwise_intializer": null, "bias_regularizer": null, "activity_regularizer": null, "depthwise_constraint": null, "bias_constraint": null, "depth_multiplier": 1, "depthwise_initializer": {"class_name": "GlorotUniform", "config": {"seed": null}}, "pointwise_initializer": {"class_name": "GlorotUniform", "config": {"seed": null}}, "depthwise_regularizer": null, "pointwise_regularizer": null, "depthwise_constraint": null, "pointwise_constraint": null}, "name": "vargface_head_head_pooling_shortcut", "inbound_nodes": [[["tf.compat.v1.pad_1_zero_padding2d_3", 0, 0, {}]]]}, {"class_name": "Add", "config": {"name": "add", "trainable": true, "dtype": "float32"}, "name": "add", "inbound_nodes": [[["multiply", 0, 0, {}], ["vargface_head_head_pooling_shortcut", 0, 0, {}]]]}, {"class_name": "LeakyReLU", "config": {"name": "vargface_head_head_pooling_out_data_act", "trainable": true, "dtype": "float32", "alpha": 0.30000001192092896}, "name": "vargface_head_head_pooling_out_data_act", "inbound_nodes": [[["add", 0, 0, {}]]]}, {"class_name": "ZeroPadding2D", "config": {"name": "tf.compat.v1.pad_5_zero_padding2d_4", "trainable": true, "dtype": "float32", "padding": [[1, 1], [1, 1]], "data_format": "channels_last"}, "name": "tf.compat.v1.pad_5_zero_padding2d_4", "inbound_nodes": [[["vargface_head_head_pooling_out_data_act", 0, 0, {}]]]}, {"class_name": "ZeroPadding2D", "config": {"name": "tf.compat.v1.pad_6_zero_padding2d_5", "trainable": true, "dtype": "float32", "padding": [[1, 1], [1, 1]], "data_format": "channels_last"}, "name": "tf.compat.v1.pad_6_zero_padding2d_5", "inbound_nodes": [[["vargface_head_head_pooling_out_data_act", 0, 0, {}]]]}, {"class_name": "SeparableConv2D", "config": {"name": "vargface_stage_2_unit_1_step1_data_branch", "trainable": true, "dtype": "float32", "filters": 80, "kernel_size": [3, 3], "strides": [2, 2], "padding": "valid", "data_format": "channels_last", "dilation_rate": [1, 1], "groups": 1, "activation": {"class_name": "LeakyReLU", "config": {"name": "leaky_re_lu_4", "trainable": true, "dtype": "float32", "alpha": 0.30000001192092896}, "shared_object_id": 47}, "use_bias": false, "depthwise_initializer": {"class_name": "GlorotUniform", "config": {"seed": null}}, "bias_initializer": {"class_name": "Zeros", "config": {}, "shared_object_id": 50}, "depthwise_intializer": null, "bias_regularizer": null, "activity_regularizer": null, "depthwise_constraint": null, "bias_constraint": null, "depth_multiplier": 2, "depthwise_initializer": {"class_name": "GlorotUniform", "config": {"seed": null}}, "pointwise_initializer": {"class_name": "GlorotUniform", "config": {"seed": null}}, "depthwise_regularizer": null, "pointwise_regularizer": null, "depthwise_constraint": null, "pointwise_constraint": null}, "name": "vargface_stage_2_unit_1_step1_data_branch", "inbound_nodes": [[["tf.compat.v1.pad_5_zero_padding2d_4", 0, 0, {}]]]}, {"class_name": "SeparableConv2D", "config": {"name": "vargface_stage_2_unit_1_step2_data_branch", "trainable": true, "dtype": "float32", "filters": 80, "kernel_size": [3, 3], "strides": [2, 2], "padding": "valid", "data_format": "channels_last", "dilation_rate": [1, 1], "groups": 1, "activation": {"class_name": "LeakyReLU", "config": {"name": "leaky_re_lu_5", "trainable": true, "dtype": "float32", "alpha": 0.30000001192092896}, "shared_object_id": 53}, "use_bias": false, "depthwise_initializer": {"class_name": "GlorotUniform", "config": {"seed": null}}, "bias_initializer": {"class_name": "Zeros", "config": {}, "shared_object_id": 56}, "depthwise_intializer": null, "bias_regularizer": null, "activity_regularizer": null, "depthwise_constraint": null, "bias_constraint": null, "depth_multiplier": 2, "depthwise_initializer": {"class_name": "GlorotUniform", "config": {"seed": null}}, "pointwise_initializer": {"class_name": "GlorotUniform", "config": {"seed": null}}, "depthwise_regularizer": null, "pointwise_regularizer": null, "depthwise_constraint": null, "pointwise_constraint": null}, "name": "vargface_stage_2_unit_1_step2_data_branch", "inbound_nodes": [[["tf.compat.v1.pad_6_zero_padding2d_5", 0, 0, {}]]]}, {"class_name": "Add", "config": {"name": "add_1", "trainable": true, "dtype": "float32"}, "name": "add_1", "inbound_nodes": [[["vargface_stage_2_unit_1_step1_data_branch", 0, 0, {}], ["vargface_stage_2_unit_1_step2_data_branch", 0, 0, {}]]]}, {"class_name": "LeakyReLU", "config": {"name": "vargface_stage_2_unit_1_step1_data_act", "trainable": true, "dtype": "float32", "alpha": 0.30000001192092896}, "name": "vargface_stage_2_unit_1_step1_data_act", "inbound_nodes": [[["add_1", 0, 0, {}]]]}, {"class_name": "ZeroPadding2D", "config": {"name": "tf.compat.v1.pad_7_zero_padding2d_6", "trainable": true, "dtype": "float32", "padding": [[1, 1], [1, 1]], "data_format": "channels_last"}, "name": "tf.compat.v1.pad_7_zero_padding2d_6", "inbound_nodes": [[["vargface_stage_2_unit_1_step1_data_act", 0, 0, {}]]]}, {"class_name": "ZeroPadding2D", "config": {"name": "tf.compat.v1.pad_4_zero_padding2d_7", "trainable": true, "dtype": "float32", "padding": [[1, 1], [1, 1]], "data_format": "channels_last"}, "name": "tf.compat.v1.pad_4_zero_padding2d_7", "inbound_nodes": [[["vargface_head_head_pooling_out_data_act", 0, 0, {}]]]}, {"class_name": "SeparableConv2D", "config": {"name": "vargface_stage_2_unit_1_step2_data", "trainable": true, "dtype": "float32", "filters": 80, "kernel_size": [3, 3], "strides": [1, 1], "padding": "valid", "data_format": "channels_last", "dilation_rate": [1, 1], "groups": 1, "activation": {"class_name": "LeakyReLU", "config": {"name": "leaky_re_lu_6", "trainable": true, "dtype": "float32", "alpha": 0.30000001192092896}, "shared_object_id": 63}, "use_bias": false, "depthwise_initializer": {"class_name": "GlorotUniform", "config": {"seed": null}}, "bias_initializer": {"class_name": "Zeros", "config": {}, "shared_object_id": 66}, "depthwise_intializer": null, "bias_regularizer": null, "activity_regularizer": null, "depthwise_constraint": null, "bias_constraint": null, "depth_multiplier": 2, "depthwise_initializer": {"class_name": "GlorotUniform", "config": {"seed": null}}, "pointwise_initializer": {"class_name": "GlorotUniform", "config": {"seed": null}}, "depthwise_regularizer": null, "pointwise_regularizer": null, "depthwise_constraint": null, "pointwise_constraint": null}, "name": "vargface_stage_2_unit_1_step2_data", "inbound_nodes": [[["tf.compat.v1.pad_7_zero_padding2d_6", 0, 0, {}]]]}, {"class_name": "SeparableConv2D", "config": {"name": "vargface_stage_2_unit_1_shortcut", "trainable": true, "dtype": "float32", "filters": 80, "kernel_size": [3, 3], "strides": [2, 2], "padding": "valid", "data_format": "channels_last", "dilation_rate": [1, 1], "groups": 1, "activation": {"class_name": "LeakyReLU", "config": {"name": "leaky_re_lu_3", "trainable": true, "dtype": "float32", "alpha": 0.30000001192092896}, "shared_object_id": 69}, "use_bias": false, "depthwise_initializer": {"class_name": "GlorotUniform", "config": {"seed": null}}, "bias_initializer": {"class_name": "Zeros", "config": {}, "shared_object_id": 72}, "depthwise_intializer": null, "bias_regularizer": null, "activity_regularizer": null, "depthwise_constraint": null, "bias_constraint": null, "depth_multiplier": 2, "depthwise_initializer": {"class_name": "GlorotUniform", "config": {"seed": null}}, "pointwise_initializer": {"class_name": "GlorotUniform", "config": {"seed": null}}, "depthwise_regularizer": null, "pointwise_regularizer": null, "depthwise_constraint": null, "pointwise_constraint": null}, "name": "vargface_stage_2_unit_1_shortcut", "inbound_nodes": [[["tf.compat.v1.pad_4_zero_padding2d_7", 0, 0, {}]]]}, {"class_name": "Add", "config": {"name": "add_2", "trainable": true, "dtype": "float32"}, "name": "add_2", "inbound_nodes": [[["vargface_stage_2_unit_1_step2_data", 0, 0, {}], ["vargface_stage_2_unit_1_shortcut", 0, 0, {}]]]}, {"class_name": "LeakyReLU", "config": {"name": "vargface_stage_2_unit_1_out_data_act", "trainable": true, "dtype": "float32", "alpha": 0.30000001192092896}, "name": "vargface_stage_2_unit_1_out_data_act", "inbound_nodes": [[["add_2", 0, 0, {}]]]}, {"class_name": "ZeroPadding2D", "config": {"name": "tf.compat.v1.pad_8_zero_padding2d_8", "trainable": true, "dtype": "float32", "padding": [[1, 1], [1, 1]], "data_format": "channels_last"}, "name": "tf.compat.v1.pad_8_zero_padding2d_8", "inbound_nodes": [[["vargface_stage_2_unit_1_out_data_act", 0, 0, {}]]]}, {"class_name": "SeparableConv2D", "config": {"name": "vargface_stage_2_unit_2_sep1_data", "trainable": true, "dtype": "float32", "filters": 80, "kernel_size": [3, 3], "strides": [1, 1], "padding": "valid", "data_format": "channels_last", "dilation_rate": [1, 1], "groups": 1, "activation": {"class_name": "LeakyReLU", "config": {"name": "leaky_re_lu_7", "trainable": true, "dtype": "float32", "alpha": 0.30000001192092896}, "shared_object_id": 78}, "use_bias": false, "depthwise_initializer": {"class_name": "GlorotUniform", "config": {"seed": null}}, "bias_initializer": {"class_name": "Zeros", "config": {}, "shared_object_id": 81}, "depthwise_intializer": null, "bias_regularizer": null, "activity_regularizer": null, "depthwise_constraint": null, "bias_constraint": null, "depth_multiplier": 2, "depthwise_initializer": {"class_name": "GlorotUniform", "config": {"seed": null}}, "pointwise_initializer": {"class_name": "GlorotUniform", "config": {"seed": null}}, "depthwise_regularizer": null, "pointwise_regularizer": null, "depthwise_constraint": null, "pointwise_constraint": null}, "name": "vargface_stage_2_unit_2_sep1_data", "inbound_nodes": [[["tf.compat.v1.pad_8_zero_padding2d_8", 0, 0, {}]]]}, {"class_name": "ZeroPadding2D", "config": {"name": "tf.compat.v1.pad_9_zero_padding2d_9", "trainable": true, "dtype": "float32", "padding": [[1, 1], [1, 1]], "data_format": "channels_last"}, "name": "tf.compat.v1.pad_9_zero_padding2d_9", "inbound_nodes": [[["vargface_stage_2_unit_2_sep1_data", 0, 0, {}]]]}, {"class_name": "SeparableConv2D", "config": {"name": "vargface_stage_2_unit_2_sep2_data", "trainable": true, "dtype": "float32", "filters": 80, "kernel_size": [3, 3], "strides": [1, 1], "padding": "valid", "data_format": "channels_last", "dilation_rate": [1, 1], "groups": 1, "activation": {"class_name": "LeakyReLU", "config": {"name": "leaky_re_lu_8", "trainable": true, "dtype": "float32", "alpha": 0.30000001192092896}, "shared_object_id": 85}, "use_bias": false, "depthwise_initializer": {"class_name": "GlorotUniform", "config": {"seed": null}}, "bias_initializer": {"class_name": "Zeros", "config": {}, "shared_object_id": 88}, "depthwise_intializer": null, "bias_regularizer": null, "activity_regularizer": null, "depthwise_constraint": null, "bias_constraint": null, "depth_multiplier": 2, "depthwise_initializer": {"class_name": "GlorotUniform", "config": {"seed": null}}, "pointwise_initializer": {"class_name": "GlorotUniform", "config": {"seed": null}}, "depthwise_regularizer": null, "pointwise_regularizer": null, "depthwise_constraint": null, "pointwise_constraint": null}, "name": "vargface_stage_2_unit_2_sep2_data", "inbound_nodes": [[["tf.compat.v1.pad_9_zero_padding2d_9", 0, 0, {}]]]}, {"class_name": "GlobalAveragePooling2D", "config": {"name": "vargface_stage_2_unit_2_se_pool1", "trainable": true, "dtype": "float32", "data_format": "channels_last", "keepdims": true}, "name": "vargface_stage_2_unit_2_se_pool1", "inbound_nodes": [[["vargface_stage_2_unit_2_sep2_data", 0, 0, {}]]]}, {"class_name": "Reshape", "config": {"name": "vargface_stage_2_unit_2_se_conv1_reshape_1", "trainable": true, "dtype": "float32", "target_shape": [1, 1, 80]}, "name": "vargface_stage_2_unit_2_se_conv1_reshape_1", "inbound_nodes": [[["vargface_stage_2_unit_2_se_pool1", 0, 0, {}]]]}, {"class_name": "Conv2D", "config": {"name": "vargface_stage_2_unit_2_se_conv1", "trainable": true, "dtype": "float32", "filters": 20, "kernel_size": [1, 1], "strides": [1, 1], "padding": "same", "data_format": "channels_last", "dilation_rate": [1, 1], "groups": 1, "activation": "linear", "use_bias": true, "depthwise_initializer": {"class_name": "GlorotUniform", "config": {"seed": null}}, "bias_initializer": {"class_name": "Zeros", "config": {}}, "depthwise_intializer": null, "bias_regularizer": null, "activity_regularizer": null, "depthwise_constraint": null, "bias_constraint": null}, "name": "vargface_stage_2_unit_2_se_conv1", "inbound_nodes": [[["vargface_stage_2_unit_2_se_conv1_reshape_1", 0, 0, {}]]]}, {"class_name": "LeakyReLU", "config": {"name": "vargface_stage_2_unit_2_se_act1", "trainable": true, "dtype": "float32", "alpha": 0.30000001192092896}, "name": "vargface_stage_2_unit_2_se_act1", "inbound_nodes": [[["vargface_stage_2_unit_2_se_conv1", 0, 0, {}]]]}, {"class_name": "Conv2D", "config": {"name": "vargface_stage_2_unit_2_se_conv2", "trainable": true, "dtype": "float32", "filters": 80, "kernel_size": [1, 1], "strides": [1, 1], "padding": "valid", "data_format": "channels_last", "dilation_rate": [1, 1], "groups": 1, "activation": "linear", "use_bias": true, "depthwise_initializer": {"class_name": "GlorotUniform", "config": {"seed": null}}, "bias_initializer": {"class_name": "Zeros", "config": {}}, "depthwise_intializer": null, "bias_regularizer": null, "activity_regularizer": null, "depthwise_constraint": null, "bias_constraint": null}, "name": "vargface_stage_2_unit_2_se_conv2", "inbound_nodes": [[["vargface_stage_2_unit_2_se_act1", 0, 0, {}]]]}, {"class_name": "Activation", "config": {"name": "vargface_stage_2_unit_2_se_sigmoid", "trainable": true, "dtype": "float32", "activation": "sigmoid"}, "name": "vargface_stage_2_unit_2_se_sigmoid", "inbound_nodes": [[["vargface_stage_2_unit_2_se_conv2", 0, 0, {}]]]}, {"class_name": "Multiply", "config": {"name": "multiply_1", "trainable": true, "dtype": "float32"}, "name": "multiply_1", "inbound_nodes": [[["vargface_stage_2_unit_2_sep2_data", 0, 0, {}], ["vargface_stage_2_unit_2_se_sigmoid", 0, 0, {}]]]}, {"class_name": "Add", "config": {"name": "add_3", "trainable": true, "dtype": "float32"}, "name": "add_3", "inbound_nodes": [[["vargface_stage_2_unit_1_out_data_act", 0, 0, {}], ["multiply_1", 0, 0, {}]]]}, {"class_name": "LeakyReLU", "config": {"name": "vargface_stage_2_unit_2_out_data_act", "trainable": true, "dtype": "float32", "alpha": 0.30000001192092896}, "name": "vargface_stage_2_unit_2_out_data_act", "inbound_nodes": [[["add_3", 0, 0, {}]]]}, {"class_name": "ZeroPadding2D", "config": {"name": "tf.compat.v1.pad_10_zero_padding2d_10", "trainable": true, "dtype": "float32", "padding": [[1, 1], [1, 1]], "data_format": "channels_last"}, "name": "tf.compat.v1.pad_10_zero_padding2d_10", "inbound_nodes": [[["vargface_stage_2_unit_2_out_data_act", 0, 0, {}]]]}, {"class_name": "SeparableConv2D", "config": {"name": "vargface_stage_2_unit_3_sep1_data", "trainable": true, "dtype": "float32", "filters": 80, "kernel_size": [3, 3], "strides": [1, 1], "padding": "valid", "data_format": "channels_last", "dilation_rate": [1, 1], "groups": 1, "activation": {"class_name": "LeakyReLU", "config": {"name": "leaky_re_lu_9", "trainable": true, "dtype": "float32", "alpha": 0.30000001192092896}, "shared_object_id": 105}, "use_bias": false, "depthwise_initializer": {"class_name": "GlorotUniform", "config": {"seed": null}}, "bias_initializer": {"class_name": "Zeros", "config": {}, "shared_object_id": 108}, "depthwise_intializer": null, "bias_regularizer": null, "activity_regularizer": null, "depthwise_constraint": null, "bias_constraint": null, "depth_multiplier": 2, "depthwise_initializer": {"class_name": "GlorotUniform", "config": {"seed": null}}, "pointwise_initializer": {"class_name": "GlorotUniform", "config": {"seed": null}}, "depthwise_regularizer": null, "pointwise_regularizer": null, "depthwise_constraint": null, "pointwise_constraint": null}, "name": "vargface_stage_2_unit_3_sep1_data", "inbound_nodes": [[["tf.compat.v1.pad_10_zero_padding2d_10", 0, 0, {}]]]}, {"class_name": "ZeroPadding2D", "config": {"name": "tf.compat.v1.pad_11_zero_padding2d_11", "trainable": true, "dtype": "float32", "padding": [[1, 1], [1, 1]], "data_format": "channels_last"}, "name": "tf.compat.v1.pad_11_zero_padding2d_11", "inbound_nodes": [[["vargface_stage_2_unit_3_sep1_data", 0, 0, {}]]]}, {"class_name": "SeparableConv2D", "config": {"name": "vargface_stage_2_unit_3_sep2_data", "trainable": true, "dtype": "float32", "filters": 80, "kernel_size": [3, 3], "strides": [1, 1], "padding": "valid", "data_format": "channels_last", "dilation_rate": [1, 1], "groups": 1, "activation": {"class_name": "LeakyReLU", "config": {"name": "leaky_re_lu_10", "trainable": true, "dtype": "float32", "alpha": 0.30000001192092896}, "shared_object_id": 112}, "use_bias": false, "depthwise_initializer": {"class_name": "GlorotUniform", "config": {"seed": null}}, "bias_initializer": {"class_name": "Zeros", "config": {}, "shared_object_id": 115}, "depthwise_intializer": null, "bias_regularizer": null, "activity_regularizer": null, "depthwise_constraint": null, "bias_constraint": null, "depth_multiplier": 2, "depthwise_initializer": {"class_name": "GlorotUniform", "config": {"seed": null}}, "pointwise_initializer": {"class_name": "GlorotUniform", "config": {"seed": null}}, "depthwise_regularizer": null, "pointwise_regularizer": null, "depthwise_constraint": null, "pointwise_constraint": null}, "name": "vargface_stage_2_unit_3_sep2_data", "inbound_nodes": [[["tf.compat.v1.pad_11_zero_padding2d_11", 0, 0, {}]]]}, {"class_name": "GlobalAveragePooling2D", "config": {"name": "vargface_stage_2_unit_3_se_pool1", "trainable": true, "dtype": "float32", "data_format": "channels_last", "keepdims": true}, "name": "vargface_stage_2_unit_3_se_pool1", "inbound_nodes": [[["vargface_stage_2_unit_3_sep2_data", 0, 0, {}]]]}, {"class_name": "Reshape", "config": {"name": "vargface_stage_2_unit_3_se_conv1_reshape_2", "trainable": true, "dtype": "float32", "target_shape": [1, 1, 80]}, "name": "vargface_stage_2_unit_3_se_conv1_reshape_2", "inbound_nodes": [[["vargface_stage_2_unit_3_se_pool1", 0, 0, {}]]]}, {"class_name": "Conv2D", "config": {"name": "vargface_stage_2_unit_3_se_conv1", "trainable": true, "dtype": "float32", "filters": 20, "kernel_size": [1, 1], "strides": [1, 1], "padding": "same", "data_format": "channels_last", "dilation_rate": [1, 1], "groups": 1, "activation": "linear", "use_bias": true, "depthwise_initializer": {"class_name": "GlorotUniform", "config": {"seed": null}}, "bias_initializer": {"class_name": "Zeros", "config": {}}, "depthwise_intializer": null, "bias_regularizer": null, "activity_regularizer": null, "depthwise_constraint": null, "bias_constraint": null}, "name": "vargface_stage_2_unit_3_se_conv1", "inbound_nodes": [[["vargface_stage_2_unit_3_se_conv1_reshape_2", 0, 0, {}]]]}, {"class_name": "LeakyReLU", "config": {"name": "vargface_stage_2_unit_3_se_act1", "trainable": true, "dtype": "float32", "alpha": 0.30000001192092896}, "name": "vargface_stage_2_unit_3_se_act1", "inbound_nodes": [[["vargface_stage_2_unit_3_se_conv1", 0, 0, {}]]]}, {"class_name": "Conv2D", "config": {"name": "vargface_stage_2_unit_3_se_conv2", "trainable": true, "dtype": "float32", "filters": 80, "kernel_size": [1, 1], "strides": [1, 1], "padding": "valid", "data_format": "channels_last", "dilation_rate": [1, 1], "groups": 1, "activation": "linear", "use_bias": true, "depthwise_initializer": {"class_name": "GlorotUniform", "config": {"seed": null}}, "bias_initializer": {"class_name": "Zeros", "config": {}}, "depthwise_intializer": null, "bias_regularizer": null, "activity_regularizer": null, "depthwise_constraint": null, "bias_constraint": null}, "name": "vargface_stage_2_unit_3_se_conv2", "inbound_nodes": [[["vargface_stage_2_unit_3_se_act1", 0, 0, {}]]]}, {"class_name": "Activation", "config": {"name": "vargface_stage_2_unit_3_se_sigmoid", "trainable": true, "dtype": "float32", "activation": "sigmoid"}, "name": "vargface_stage_2_unit_3_se_sigmoid", "inbound_nodes": [[["vargface_stage_2_unit_3_se_conv2", 0, 0, {}]]]}, {"class_name": "Multiply", "config": {"name": "multiply_2", "trainable": true, "dtype": "float32"}, "name": "multiply_2", "inbound_nodes": [[["vargface_stage_2_unit_3_sep2_data", 0, 0, {}], ["vargface_stage_2_unit_3_se_sigmoid", 0, 0, {}]]]}, {"class_name": "Add", "config": {"name": "add_4", "trainable": true, "dtype": "float32"}, "name": "add_4", "inbound_nodes": [[["vargface_stage_2_unit_2_out_data_act", 0, 0, {}], ["multiply_2", 0, 0, {}]]]}, {"class_name": "LeakyReLU", "config": {"name": "vargface_stage_2_unit_3_out_data_act", "trainable": true, "dtype": "float32", "alpha": 0.30000001192092896}, "name": "vargface_stage_2_unit_3_out_data_act", "inbound_nodes": [[["add_4", 0, 0, {}]]]}, {"class_name": "ZeroPadding2D", "config": {"name": "tf.compat.v1.pad_13_zero_padding2d_12", "trainable": true, "dtype": "float32", "padding": [[1, 1], [1, 1]], "data_format": "channels_last"}, "name": "tf.compat.v1.pad_13_zero_padding2d_12", "inbound_nodes": [[["vargface_stage_2_unit_3_out_data_act", 0, 0, {}]]]}, {"class_name": "ZeroPadding2D", "config": {"name": "tf.compat.v1.pad_14_zero_padding2d_13", "trainable": true, "dtype": "float32", "padding": [[1, 1], [1, 1]], "data_format": "channels_last"}, "name": "tf.compat.v1.pad_14_zero_padding2d_13", "inbound_nodes": [[["vargface_stage_2_unit_3_out_data_act", 0, 0, {}]]]}, {"class_name": "SeparableConv2D", "config": {"name": "vargface_stage_3_unit_1_step1_data_branch", "trainable": true, "dtype": "float32", "filters": 160, "kernel_size": [3, 3], "strides": [2, 2], "padding": "valid", "data_format": "channels_last", "dilation_rate": [1, 1], "groups": 1, "activation": {"class_name": "LeakyReLU", "config": {"name": "leaky_re_lu_12", "trainable": true, "dtype": "float32", "alpha": 0.30000001192092896}, "shared_object_id": 133}, "use_bias": false, "depthwise_initializer": {"class_name": "GlorotUniform", "config": {"seed": null}}, "bias_initializer": {"class_name": "Zeros", "config": {}, "shared_object_id": 136}, "depthwise_intializer": null, "bias_regularizer": null, "activity_regularizer": null, "depthwise_constraint": null, "bias_constraint": null, "depth_multiplier": 2, "depthwise_initializer": {"class_name": "GlorotUniform", "config": {"seed": null}}, "pointwise_initializer": {"class_name": "GlorotUniform", "config": {"seed": null}}, "depthwise_regularizer": null, "pointwise_regularizer": null, "depthwise_constraint": null, "pointwise_constraint": null}, "name": "vargface_stage_3_unit_1_step1_data_branch", "inbound_nodes": [[["tf.compat.v1.pad_13_zero_padding2d_12", 0, 0, {}]]]}, {"class_name": "SeparableConv2D", "config": {"name": "vargface_stage_3_unit_1_step2_data_branch", "trainable": true, "dtype": "float32", "filters": 160, "kernel_size": [3, 3], "strides": [2, 2], "padding": "valid", "data_format": "channels_last", "dilation_rate": [1, 1], "groups": 1, "activation": {"class_name": "LeakyReLU", "config": {"name": "leaky_re_lu_13", "trainable": true, "dtype": "float32", "alpha": 0.30000001192092896}, "shared_object_id": 139}, "use_bias": false, "depthwise_initializer": {"class_name": "GlorotUniform", "config": {"seed": null}}, "bias_initializer": {"class_name": "Zeros", "config": {}, "shared_object_id": 142}, "depthwise_intializer": null, "bias_regularizer": null, "activity_regularizer": null, "depthwise_constraint": null, "bias_constraint": null, "depth_multiplier": 2, "depthwise_initializer": {"class_name": "GlorotUniform", "config": {"seed": null}}, "pointwise_initializer": {"class_name": "GlorotUniform", "config": {"seed": null}}, "depthwise_regularizer": null, "pointwise_regularizer": null, "depthwise_constraint": null, "pointwise_constraint": null}, "name": "vargface_stage_3_unit_1_step2_data_branch", "inbound_nodes": [[["tf.compat.v1.pad_14_zero_padding2d_13", 0, 0, {}]]]}, {"class_name": "Add", "config": {"name": "add_5", "trainable": true, "dtype": "float32"}, "name": "add_5", "inbound_nodes": [[["vargface_stage_3_unit_1_step1_data_branch", 0, 0, {}], ["vargface_stage_3_unit_1_step2_data_branch", 0, 0, {}]]]}, {"class_name": "LeakyReLU", "config": {"name": "vargface_stage_3_unit_1_step1_data_act", "trainable": true, "dtype": "float32", "alpha": 0.30000001192092896}, "name": "vargface_stage_3_unit_1_step1_data_act", "inbound_nodes": [[["add_5", 0, 0, {}]]]}, {"class_name": "ZeroPadding2D", "config": {"name": "tf.compat.v1.pad_15_zero_padding2d_14", "trainable": true, "dtype": "float32", "padding": [[1, 1], [1, 1]], "data_format": "channels_last"}, "name": "tf.compat.v1.pad_15_zero_padding2d_14", "inbound_nodes": [[["vargface_stage_3_unit_1_step1_data_act", 0, 0, {}]]]}, {"class_name": "ZeroPadding2D", "config": {"name": "tf.compat.v1.pad_12_zero_padding2d_15", "trainable": true, "dtype": "float32", "padding": [[1, 1], [1, 1]], "data_format": "channels_last"}, "name": "tf.compat.v1.pad_12_zero_padding2d_15", "inbound_nodes": [[["vargface_stage_2_unit_3_out_data_act", 0, 0, {}]]]}, {"class_name": "SeparableConv2D", "config": {"name": "vargface_stage_3_unit_1_step2_data", "trainable": true, "dtype": "float32", "filters": 160, "kernel_size": [3, 3], "strides": [1, 1], "padding": "valid", "data_format": "channels_last", "dilation_rate": [1, 1], "groups": 1, "activation": {"class_name": "LeakyReLU", "config": {"name": "leaky_re_lu_14", "trainable": true, "dtype": "float32", "alpha": 0.30000001192092896}, "shared_object_id": 149}, "use_bias": false, "depthwise_initializer": {"class_name": "GlorotUniform", "config": {"seed": null}}, "bias_initializer": {"class_name": "Zeros", "config": {}, "shared_object_id": 152}, "depthwise_intializer": null, "bias_regularizer": null, "activity_regularizer": null, "depthwise_constraint": null, "bias_constraint": null, "depth_multiplier": 2, "depthwise_initializer": {"class_name": "GlorotUniform", "config": {"seed": null}}, "pointwise_initializer": {"class_name": "GlorotUniform", "config": {"seed": null}}, "depthwise_regularizer": null, "pointwise_regularizer": null, "depthwise_constraint": null, "pointwise_constraint": null}, "name": "vargface_stage_3_unit_1_step2_data", "inbound_nodes": [[["tf.compat.v1.pad_15_zero_padding2d_14", 0, 0, {}]]]}, {"class_name": "SeparableConv2D", "config": {"name": "vargface_stage_3_unit_1_shortcut", "trainable": true, "dtype": "float32", "filters": 160, "kernel_size": [3, 3], "strides": [2, 2], "padding": "valid", "data_format": "channels_last", "dilation_rate": [1, 1], "groups": 1, "activation": {"class_name": "LeakyReLU", "config": {"name": "leaky_re_lu_11", "trainable": true, "dtype": "float32", "alpha": 0.30000001192092896}, "shared_object_id": 155}, "use_bias": false, "depthwise_initializer": {"class_name": "GlorotUniform", "config": {"seed": null}}, "bias_initializer": {"class_name": "Zeros", "config": {}, "shared_object_id": 158}, "depthwise_intializer": null, "bias_regularizer": null, "activity_regularizer": null, "depthwise_constraint": null, "bias_constraint": null, "depth_multiplier": 2, "depthwise_initializer": {"class_name": "GlorotUniform", "config": {"seed": null}}, "pointwise_initializer": {"class_name": "GlorotUniform", "config": {"seed": null}}, "depthwise_regularizer": null, "pointwise_regularizer": null, "depthwise_constraint": null, "pointwise_constraint": null}, "name": "vargface_stage_3_unit_1_shortcut", "inbound_nodes": [[["tf.compat.v1.pad_12_zero_padding2d_15", 0, 0, {}]]]}, {"class_name": "Add", "config": {"name": "add_6", "trainable": true, "dtype": "float32"}, "name": "add_6", "inbound_nodes": [[["vargface_stage_3_unit_1_step2_data", 0, 0, {}], ["vargface_stage_3_unit_1_shortcut", 0, 0, {}]]]}, {"class_name": "LeakyReLU", "config": {"name": "vargface_stage_3_unit_1_out_data_act", "trainable": true, "dtype": "float32", "alpha": 0.30000001192092896}, "name": "vargface_stage_3_unit_1_out_data_act", "inbound_nodes": [[["add_6", 0, 0, {}]]]}, {"class_name": "ZeroPadding2D", "config": {"name": "tf.compat.v1.pad_16_zero_padding2d_16", "trainable": true, "dtype": "float32", "padding": [[1, 1], [1, 1]], "data_format": "channels_last"}, "name": "tf.compat.v1.pad_16_zero_padding2d_16", "inbound_nodes": [[["vargface_stage_3_unit_1_out_data_act", 0, 0, {}]]]}, {"class_name": "SeparableConv2D", "config": {"name": "vargface_stage_3_unit_2_sep1_data", "trainable": true, "dtype": "float32", "filters": 160, "kernel_size": [3, 3], "strides": [1, 1], "padding": "valid", "data_format": "channels_last", "dilation_rate": [1, 1], "groups": 1, "activation": {"class_name": "LeakyReLU", "config": {"name": "leaky_re_lu_15", "trainable": true, "dtype": "float32", "alpha": 0.30000001192092896}, "shared_object_id": 164}, "use_bias": false, "depthwise_initializer": {"class_name": "GlorotUniform", "config": {"seed": null}}, "bias_initializer": {"class_name": "Zeros", "config": {}, "shared_object_id": 167}, "depthwise_intializer": null, "bias_regularizer": null, "activity_regularizer": null, "depthwise_constraint": null, "bias_constraint": null, "depth_multiplier": 2, "depthwise_initializer": {"class_name": "GlorotUniform", "config": {"seed": null}}, "pointwise_initializer": {"class_name": "GlorotUniform", "config": {"seed": null}}, "depthwise_regularizer": null, "pointwise_regularizer": null, "depthwise_constraint": null, "pointwise_constraint": null}, "name": "vargface_stage_3_unit_2_sep1_data", "inbound_nodes": [[["tf.compat.v1.pad_16_zero_padding2d_16", 0, 0, {}]]]}, {"class_name": "ZeroPadding2D", "config": {"name": "tf.compat.v1.pad_17_zero_padding2d_17", "trainable": true, "dtype": "float32", "padding": [[1, 1], [1, 1]], "data_format": "channels_last"}, "name": "tf.compat.v1.pad_17_zero_padding2d_17", "inbound_nodes": [[["vargface_stage_3_unit_2_sep1_data", 0, 0, {}]]]}, {"class_name": "SeparableConv2D", "config": {"name": "vargface_stage_3_unit_2_sep2_data", "trainable": true, "dtype": "float32", "filters": 160, "kernel_size": [3, 3], "strides": [1, 1], "padding": "valid", "data_format": "channels_last", "dilation_rate": [1, 1], "groups": 1, "activation": {"class_name": "LeakyReLU", "config": {"name": "leaky_re_lu_16", "trainable": true, "dtype": "float32", "alpha": 0.30000001192092896}, "shared_object_id": 171}, "use_bias": false, "depthwise_initializer": {"class_name": "GlorotUniform", "config": {"seed": null}}, "bias_initializer": {"class_name": "Zeros", "config": {}, "shared_object_id": 174}, "depthwise_intializer": null, "bias_regularizer": null, "activity_regularizer": null, "depthwise_constraint": null, "bias_constraint": null, "depth_multiplier": 2, "depthwise_initializer": {"class_name": "GlorotUniform", "config": {"seed": null}}, "pointwise_initializer": {"class_name": "GlorotUniform", "config": {"seed": null}}, "depthwise_regularizer": null, "pointwise_regularizer": null, "depthwise_constraint": null, "pointwise_constraint": null}, "name": "vargface_stage_3_unit_2_sep2_data", "inbound_nodes": [[["tf.compat.v1.pad_17_zero_padding2d_17", 0, 0, {}]]]}, {"class_name": "GlobalAveragePooling2D", "config": {"name": "vargface_stage_3_unit_2_se_pool1", "trainable": true, "dtype": "float32", "data_format": "channels_last", "keepdims": true}, "name": "vargface_stage_3_unit_2_se_pool1", "inbound_nodes": [[["vargface_stage_3_unit_2_sep2_data", 0, 0, {}]]]}, {"class_name": "Reshape", "config": {"name": "vargface_stage_3_unit_2_se_conv1_reshape_3", "trainable": true, "dtype": "float32", "target_shape": [1, 1, 160]}, "name": "vargface_stage_3_unit_2_se_conv1_reshape_3", "inbound_nodes": [[["vargface_stage_3_unit_2_se_pool1", 0, 0, {}]]]}, {"class_name": "Conv2D", "config": {"name": "vargface_stage_3_unit_2_se_conv1", "trainable": true, "dtype": "float32", "filters": 40, "kernel_size": [1, 1], "strides": [1, 1], "padding": "same", "data_format": "channels_last", "dilation_rate": [1, 1], "groups": 1, "activation": "linear", "use_bias": true, "depthwise_initializer": {"class_name": "GlorotUniform", "config": {"seed": null}}, "bias_initializer": {"class_name": "Zeros", "config": {}}, "depthwise_intializer": null, "bias_regularizer": null, "activity_regularizer": null, "depthwise_constraint": null, "bias_constraint": null}, "name": "vargface_stage_3_unit_2_se_conv1", "inbound_nodes": [[["vargface_stage_3_unit_2_se_conv1_reshape_3", 0, 0, {}]]]}, {"class_name": "LeakyReLU", "config": {"name": "vargface_stage_3_unit_2_se_act1", "trainable": true, "dtype": "float32", "alpha": 0.30000001192092896}, "name": "vargface_stage_3_unit_2_se_act1", "inbound_nodes": [[["vargface_stage_3_unit_2_se_conv1", 0, 0, {}]]]}, {"class_name": "Conv2D", "config": {"name": "vargface_stage_3_unit_2_se_conv2", "trainable": true, "dtype": "float32", "filters": 160, "kernel_size": [1, 1], "strides": [1, 1], "padding": "valid", "data_format": "channels_last", "dilation_rate": [1, 1], "groups": 1, "activation": "linear", "use_bias": true, "depthwise_initializer": {"class_name": "GlorotUniform", "config": {"seed": null}}, "bias_initializer": {"class_name": "Zeros", "config": {}}, "depthwise_intializer": null, "bias_regularizer": null, "activity_regularizer": null, "depthwise_constraint": null, "bias_constraint": null}, "name": "vargface_stage_3_unit_2_se_conv2", "inbound_nodes": [[["vargface_stage_3_unit_2_se_act1", 0, 0, {}]]]}, {"class_name": "Activation", "config": {"name": "vargface_stage_3_unit_2_se_sigmoid", "trainable": true, "dtype": "float32", "activation": "sigmoid"}, "name": "vargface_stage_3_unit_2_se_sigmoid", "inbound_nodes": [[["vargface_stage_3_unit_2_se_conv2", 0, 0, {}]]]}, {"class_name": "Multiply", "config": {"name": "multiply_3", "trainable": true, "dtype": "float32"}, "name": "multiply_3", "inbound_nodes": [[["vargface_stage_3_unit_2_sep2_data", 0, 0, {}], ["vargface_stage_3_unit_2_se_sigmoid", 0, 0, {}]]]}, {"class_name": "Add", "config": {"name": "add_7", "trainable": true, "dtype": "float32"}, "name": "add_7", "inbound_nodes": [[["vargface_stage_3_unit_1_out_data_act", 0, 0, {}], ["multiply_3", 0, 0, {}]]]}, {"class_name": "LeakyReLU", "config": {"name": "vargface_stage_3_unit_2_out_data_act", "trainable": true, "dtype": "float32", "alpha": 0.30000001192092896}, "name": "vargface_stage_3_unit_2_out_data_act", "inbound_nodes": [[["add_7", 0, 0, {}]]]}, {"class_name": "ZeroPadding2D", "config": {"name": "tf.compat.v1.pad_18_zero_padding2d_18", "trainable": true, "dtype": "float32", "padding": [[1, 1], [1, 1]], "data_format": "channels_last"}, "name": "tf.compat.v1.pad_18_zero_padding2d_18", "inbound_nodes": [[["vargface_stage_3_unit_2_out_data_act", 0, 0, {}]]]}, {"class_name": "SeparableConv2D", "config": {"name": "vargface_stage_3_unit_3_sep1_data", "trainable": true, "dtype": "float32", "filters": 160, "kernel_size": [3, 3], "strides": [1, 1], "padding": "valid", "data_format": "channels_last", "dilation_rate": [1, 1], "groups": 1, "activation": {"class_name": "LeakyReLU", "config": {"name": "leaky_re_lu_17", "trainable": true, "dtype": "float32", "alpha": 0.30000001192092896}, "shared_object_id": 191}, "use_bias": false, "depthwise_initializer": {"class_name": "GlorotUniform", "config": {"seed": null}}, "bias_initializer": {"class_name": "Zeros", "config": {}, "shared_object_id": 194}, "depthwise_intializer": null, "bias_regularizer": null, "activity_regularizer": null, "depthwise_constraint": null, "bias_constraint": null, "depth_multiplier": 2, "depthwise_initializer": {"class_name": "GlorotUniform", "config": {"seed": null}}, "pointwise_initializer": {"class_name": "GlorotUniform", "config": {"seed": null}}, "depthwise_regularizer": null, "pointwise_regularizer": null, "depthwise_constraint": null, "pointwise_constraint": null}, "name": "vargface_stage_3_unit_3_sep1_data", "inbound_nodes": [[["tf.compat.v1.pad_18_zero_padding2d_18", 0, 0, {}]]]}, {"class_name": "ZeroPadding2D", "config": {"name": "tf.compat.v1.pad_19_zero_padding2d_19", "trainable": true, "dtype": "float32", "padding": [[1, 1], [1, 1]], "data_format": "channels_last"}, "name": "tf.compat.v1.pad_19_zero_padding2d_19", "inbound_nodes": [[["vargface_stage_3_unit_3_sep1_data", 0, 0, {}]]]}, {"class_name": "SeparableConv2D", "config": {"name": "vargface_stage_3_unit_3_sep2_data", "trainable": true, "dtype": "float32", "filters": 160, "kernel_size": [3, 3], "strides": [1, 1], "padding": "valid", "data_format": "channels_last", "dilation_rate": [1, 1], "groups": 1, "activation": {"class_name": "LeakyReLU", "config": {"name": "leaky_re_lu_18", "trainable": true, "dtype": "float32", "alpha": 0.30000001192092896}, "shared_object_id": 198}, "use_bias": false, "depthwise_initializer": {"class_name": "GlorotUniform", "config": {"seed": null}}, "bias_initializer": {"class_name": "Zeros", "config": {}, "shared_object_id": 201}, "depthwise_intializer": null, "bias_regularizer": null, "activity_regularizer": null, "depthwise_constraint": null, "bias_constraint": null, "depth_multiplier": 2, "depthwise_initializer": {"class_name": "GlorotUniform", "config": {"seed": null}}, "pointwise_initializer": {"class_name": "GlorotUniform", "config": {"seed": null}}, "depthwise_regularizer": null, "pointwise_regularizer": null, "depthwise_constraint": null, "pointwise_constraint": null}, "name": "vargface_stage_3_unit_3_sep2_data", "inbound_nodes": [[["tf.compat.v1.pad_19_zero_padding2d_19", 0, 0, {}]]]}, {"class_name": "GlobalAveragePooling2D", "config": {"name": "vargface_stage_3_unit_3_se_pool1", "trainable": true, "dtype": "float32", "data_format": "channels_last", "keepdims": true}, "name": "vargface_stage_3_unit_3_se_pool1", "inbound_nodes": [[["vargface_stage_3_unit_3_sep2_data", 0, 0, {}]]]}, {"class_name": "Reshape", "config": {"name": "vargface_stage_3_unit_3_se_conv1_reshape_4", "trainable": true, "dtype": "float32", "target_shape": [1, 1, 160]}, "name": "vargface_stage_3_unit_3_se_conv1_reshape_4", "inbound_nodes": [[["vargface_stage_3_unit_3_se_pool1", 0, 0, {}]]]}, {"class_name": "Conv2D", "config": {"name": "vargface_stage_3_unit_3_se_conv1", "trainable": true, "dtype": "float32", "filters": 40, "kernel_size": [1, 1], "strides": [1, 1], "padding": "same", "data_format": "channels_last", "dilation_rate": [1, 1], "groups": 1, "activation": "linear", "use_bias": true, "depthwise_initializer": {"class_name": "GlorotUniform", "config": {"seed": null}}, "bias_initializer": {"class_name": "Zeros", "config": {}}, "depthwise_intializer": null, "bias_regularizer": null, "activity_regularizer": null, "depthwise_constraint": null, "bias_constraint": null}, "name": "vargface_stage_3_unit_3_se_conv1", "inbound_nodes": [[["vargface_stage_3_unit_3_se_conv1_reshape_4", 0, 0, {}]]]}, {"class_name": "LeakyReLU", "config": {"name": "vargface_stage_3_unit_3_se_act1", "trainable": true, "dtype": "float32", "alpha": 0.30000001192092896}, "name": "vargface_stage_3_unit_3_se_act1", "inbound_nodes": [[["vargface_stage_3_unit_3_se_conv1", 0, 0, {}]]]}, {"class_name": "Conv2D", "config": {"name": "vargface_stage_3_unit_3_se_conv2", "trainable": true, "dtype": "float32", "filters": 160, "kernel_size": [1, 1], "strides": [1, 1], "padding": "valid", "data_format": "channels_last", "dilation_rate": [1, 1], "groups": 1, "activation": "linear", "use_bias": true, "depthwise_initializer": {"class_name": "GlorotUniform", "config": {"seed": null}}, "bias_initializer": {"class_name": "Zeros", "config": {}}, "depthwise_intializer": null, "bias_regularizer": null, "activity_regularizer": null, "depthwise_constraint": null, "bias_constraint": null}, "name": "vargface_stage_3_unit_3_se_conv2", "inbound_nodes": [[["vargface_stage_3_unit_3_se_act1", 0, 0, {}]]]}, {"class_name": "Activation", "config": {"name": "vargface_stage_3_unit_3_se_sigmoid", "trainable": true, "dtype": "float32", "activation": "sigmoid"}, "name": "vargface_stage_3_unit_3_se_sigmoid", "inbound_nodes": [[["vargface_stage_3_unit_3_se_conv2", 0, 0, {}]]]}, {"class_name": "Multiply", "config": {"name": "multiply_4", "trainable": true, "dtype": "float32"}, "name": "multiply_4", "inbound_nodes": [[["vargface_stage_3_unit_3_sep2_data", 0, 0, {}], ["vargface_stage_3_unit_3_se_sigmoid", 0, 0, {}]]]}, {"class_name": "Add", "config": {"name": "add_8", "trainable": true, "dtype": "float32"}, "name": "add_8", "inbound_nodes": [[["vargface_stage_3_unit_2_out_data_act", 0, 0, {}], ["multiply_4", 0, 0, {}]]]}, {"class_name": "LeakyReLU", "config": {"name": "vargface_stage_3_unit_3_out_data_act", "trainable": true, "dtype": "float32", "alpha": 0.30000001192092896}, "name": "vargface_stage_3_unit_3_out_data_act", "inbound_nodes": [[["add_8", 0, 0, {}]]]}, {"class_name": "ZeroPadding2D", "config": {"name": "tf.compat.v1.pad_20_zero_padding2d_20", "trainable": true, "dtype": "float32", "padding": [[1, 1], [1, 1]], "data_format": "channels_last"}, "name": "tf.compat.v1.pad_20_zero_padding2d_20", "inbound_nodes": [[["vargface_stage_3_unit_3_out_data_act", 0, 0, {}]]]}, {"class_name": "SeparableConv2D", "config": {"name": "vargface_stage_3_unit_4_sep1_data", "trainable": true, "dtype": "float32", "filters": 160, "kernel_size": [3, 3], "strides": [1, 1], "padding": "valid", "data_format": "channels_last", "dilation_rate": [1, 1], "groups": 1, "activation": {"class_name": "LeakyReLU", "config": {"name": "leaky_re_lu_19", "trainable": true, "dtype": "float32", "alpha": 0.30000001192092896}, "shared_object_id": 218}, "use_bias": false, "depthwise_initializer": {"class_name": "GlorotUniform", "config": {"seed": null}}, "bias_initializer": {"class_name": "Zeros", "config": {}, "shared_object_id": 221}, "depthwise_intializer": null, "bias_regularizer": null, "activity_regularizer": null, "depthwise_constraint": null, "bias_constraint": null, "depth_multiplier": 2, "depthwise_initializer": {"class_name": "GlorotUniform", "config": {"seed": null}}, "pointwise_initializer": {"class_name": "GlorotUniform", "config": {"seed": null}}, "depthwise_regularizer": null, "pointwise_regularizer": null, "depthwise_constraint": null, "pointwise_constraint": null}, "name": "vargface_stage_3_unit_4_sep1_data", "inbound_nodes": [[["tf.compat.v1.pad_20_zero_padding2d_20", 0, 0, {}]]]}, {"class_name": "ZeroPadding2D", "config": {"name": "tf.compat.v1.pad_21_zero_padding2d_21", "trainable": true, "dtype": "float32", "padding": [[1, 1], [1, 1]], "data_format": "channels_last"}, "name": "tf.compat.v1.pad_21_zero_padding2d_21", "inbound_nodes": [[["vargface_stage_3_unit_4_sep1_data", 0, 0, {}]]]}, {"class_name": "SeparableConv2D", "config": {"name": "vargface_stage_3_unit_4_sep2_data", "trainable": true, "dtype": "float32", "filters": 160, "kernel_size": [3, 3], "strides": [1, 1], "padding": "valid", "data_format": "channels_last", "dilation_rate": [1, 1], "groups": 1, "activation": {"class_name": "LeakyReLU", "config": {"name": "leaky_re_lu_20", "trainable": true, "dtype": "float32", "alpha": 0.30000001192092896}, "shared_object_id": 225}, "use_bias": false, "depthwise_initializer": {"class_name": "GlorotUniform", "config": {"seed": null}}, "bias_initializer": {"class_name": "Zeros", "config": {}, "shared_object_id": 228}, "depthwise_intializer": null, "bias_regularizer": null, "activity_regularizer": null, "depthwise_constraint": null, "bias_constraint": null, "depth_multiplier": 2, "depthwise_initializer": {"class_name": "GlorotUniform", "config": {"seed": null}}, "pointwise_initializer": {"class_name": "GlorotUniform", "config": {"seed": null}}, "depthwise_regularizer": null, "pointwise_regularizer": null, "depthwise_constraint": null, "pointwise_constraint": null}, "name": "vargface_stage_3_unit_4_sep2_data", "inbound_nodes": [[["tf.compat.v1.pad_21_zero_padding2d_21", 0, 0, {}]]]}, {"class_name": "GlobalAveragePooling2D", "config": {"name": "vargface_stage_3_unit_4_se_pool1", "trainable": true, "dtype": "float32", "data_format": "channels_last", "keepdims": true}, "name": "vargface_stage_3_unit_4_se_pool1", "inbound_nodes": [[["vargface_stage_3_unit_4_sep2_data", 0, 0, {}]]]}, {"class_name": "Reshape", "config": {"name": "vargface_stage_3_unit_4_se_conv1_reshape_5", "trainable": true, "dtype": "float32", "target_shape": [1, 1, 160]}, "name": "vargface_stage_3_unit_4_se_conv1_reshape_5", "inbound_nodes": [[["vargface_stage_3_unit_4_se_pool1", 0, 0, {}]]]}, {"class_name": "Conv2D", "config": {"name": "vargface_stage_3_unit_4_se_conv1", "trainable": true, "dtype": "float32", "filters": 40, "kernel_size": [1, 1], "strides": [1, 1], "padding": "same", "data_format": "channels_last", "dilation_rate": [1, 1], "groups": 1, "activation": "linear", "use_bias": true, "depthwise_initializer": {"class_name": "GlorotUniform", "config": {"seed": null}}, "bias_initializer": {"class_name": "Zeros", "config": {}}, "depthwise_intializer": null, "bias_regularizer": null, "activity_regularizer": null, "depthwise_constraint": null, "bias_constraint": null}, "name": "vargface_stage_3_unit_4_se_conv1", "inbound_nodes": [[["vargface_stage_3_unit_4_se_conv1_reshape_5", 0, 0, {}]]]}, {"class_name": "LeakyReLU", "config": {"name": "vargface_stage_3_unit_4_se_act1", "trainable": true, "dtype": "float32", "alpha": 0.30000001192092896}, "name": "vargface_stage_3_unit_4_se_act1", "inbound_nodes": [[["vargface_stage_3_unit_4_se_conv1", 0, 0, {}]]]}, {"class_name": "Conv2D", "config": {"name": "vargface_stage_3_unit_4_se_conv2", "trainable": true, "dtype": "float32", "filters": 160, "kernel_size": [1, 1], "strides": [1, 1], "padding": "valid", "data_format": "channels_last", "dilation_rate": [1, 1], "groups": 1, "activation": "linear", "use_bias": true, "depthwise_initializer": {"class_name": "GlorotUniform", "config": {"seed": null}}, "bias_initializer": {"class_name": "Zeros", "config": {}}, "depthwise_intializer": null, "bias_regularizer": null, "activity_regularizer": null, "depthwise_constraint": null, "bias_constraint": null}, "name": "vargface_stage_3_unit_4_se_conv2", "inbound_nodes": [[["vargface_stage_3_unit_4_se_act1", 0, 0, {}]]]}, {"class_name": "Activation", "config": {"name": "vargface_stage_3_unit_4_se_sigmoid", "trainable": true, "dtype": "float32", "activation": "sigmoid"}, "name": "vargface_stage_3_unit_4_se_sigmoid", "inbound_nodes": [[["vargface_stage_3_unit_4_se_conv2", 0, 0, {}]]]}, {"class_name": "Multiply", "config": {"name": "multiply_5", "trainable": true, "dtype": "float32"}, "name": "multiply_5", "inbound_nodes": [[["vargface_stage_3_unit_4_sep2_data", 0, 0, {}], ["vargface_stage_3_unit_4_se_sigmoid", 0, 0, {}]]]}, {"class_name": "Add", "config": {"name": "add_9", "trainable": true, "dtype": "float32"}, "name": "add_9", "inbound_nodes": [[["vargface_stage_3_unit_3_out_data_act", 0, 0, {}], ["multiply_5", 0, 0, {}]]]}, {"class_name": "LeakyReLU", "config": {"name": "vargface_stage_3_unit_4_out_data_act", "trainable": true, "dtype": "float32", "alpha": 0.30000001192092896}, "name": "vargface_stage_3_unit_4_out_data_act", "inbound_nodes": [[["add_9", 0, 0, {}]]]}, {"class_name": "ZeroPadding2D", "config": {"name": "tf.compat.v1.pad_22_zero_padding2d_22", "trainable": true, "dtype": "float32", "padding": [[1, 1], [1, 1]], "data_format": "channels_last"}, "name": "tf.compat.v1.pad_22_zero_padding2d_22", "inbound_nodes": [[["vargface_stage_3_unit_4_out_data_act", 0, 0, {}]]]}, {"class_name": "SeparableConv2D", "config": {"name": "vargface_stage_3_unit_5_sep1_data", "trainable": true, "dtype": "float32", "filters": 160, "kernel_size": [3, 3], "strides": [1, 1], "padding": "valid", "data_format": "channels_last", "dilation_rate": [1, 1], "groups": 1, "activation": {"class_name": "LeakyReLU", "config": {"name": "leaky_re_lu_21", "trainable": true, "dtype": "float32", "alpha": 0.30000001192092896}, "shared_object_id": 245}, "use_bias": false, "depthwise_initializer": {"class_name": "GlorotUniform", "config": {"seed": null}}, "bias_initializer": {"class_name": "Zeros", "config": {}, "shared_object_id": 248}, "depthwise_intializer": null, "bias_regularizer": null, "activity_regularizer": null, "depthwise_constraint": null, "bias_constraint": null, "depth_multiplier": 2, "depthwise_initializer": {"class_name": "GlorotUniform", "config": {"seed": null}}, "pointwise_initializer": {"class_name": "GlorotUniform", "config": {"seed": null}}, "depthwise_regularizer": null, "pointwise_regularizer": null, "depthwise_constraint": null, "pointwise_constraint": null}, "name": "vargface_stage_3_unit_5_sep1_data", "inbound_nodes": [[["tf.compat.v1.pad_22_zero_padding2d_22", 0, 0, {}]]]}, {"class_name": "ZeroPadding2D", "config": {"name": "tf.compat.v1.pad_23_zero_padding2d_23", "trainable": true, "dtype": "float32", "padding": [[1, 1], [1, 1]], "data_format": "channels_last"}, "name": "tf.compat.v1.pad_23_zero_padding2d_23", "inbound_nodes": [[["vargface_stage_3_unit_5_sep1_data", 0, 0, {}]]]}, {"class_name": "SeparableConv2D", "config": {"name": "vargface_stage_3_unit_5_sep2_data", "trainable": true, "dtype": "float32", "filters": 160, "kernel_size": [3, 3], "strides": [1, 1], "padding": "valid", "data_format": "channels_last", "dilation_rate": [1, 1], "groups": 1, "activation": {"class_name": "LeakyReLU", "config": {"name": "leaky_re_lu_22", "trainable": true, "dtype": "float32", "alpha": 0.30000001192092896}, "shared_object_id": 252}, "use_bias": false, "depthwise_initializer": {"class_name": "GlorotUniform", "config": {"seed": null}}, "bias_initializer": {"class_name": "Zeros", "config": {}, "shared_object_id": 255}, "depthwise_intializer": null, "bias_regularizer": null, "activity_regularizer": null, "depthwise_constraint": null, "bias_constraint": null, "depth_multiplier": 2, "depthwise_initializer": {"class_name": "GlorotUniform", "config": {"seed": null}}, "pointwise_initializer": {"class_name": "GlorotUniform", "config": {"seed": null}}, "depthwise_regularizer": null, "pointwise_regularizer": null, "depthwise_constraint": null, "pointwise_constraint": null}, "name": "vargface_stage_3_unit_5_sep2_data", "inbound_nodes": [[["tf.compat.v1.pad_23_zero_padding2d_23", 0, 0, {}]]]}, {"class_name": "GlobalAveragePooling2D", "config": {"name": "vargface_stage_3_unit_5_se_pool1", "trainable": true, "dtype": "float32", "data_format": "channels_last", "keepdims": true}, "name": "vargface_stage_3_unit_5_se_pool1", "inbound_nodes": [[["vargface_stage_3_unit_5_sep2_data", 0, 0, {}]]]}, {"class_name": "Reshape", "config": {"name": "vargface_stage_3_unit_5_se_conv1_reshape_6", "trainable": true, "dtype": "float32", "target_shape": [1, 1, 160]}, "name": "vargface_stage_3_unit_5_se_conv1_reshape_6", "inbound_nodes": [[["vargface_stage_3_unit_5_se_pool1", 0, 0, {}]]]}, {"class_name": "Conv2D", "config": {"name": "vargface_stage_3_unit_5_se_conv1", "trainable": true, "dtype": "float32", "filters": 40, "kernel_size": [1, 1], "strides": [1, 1], "padding": "same", "data_format": "channels_last", "dilation_rate": [1, 1], "groups": 1, "activation": "linear", "use_bias": true, "depthwise_initializer": {"class_name": "GlorotUniform", "config": {"seed": null}}, "bias_initializer": {"class_name": "Zeros", "config": {}}, "depthwise_intializer": null, "bias_regularizer": null, "activity_regularizer": null, "depthwise_constraint": null, "bias_constraint": null}, "name": "vargface_stage_3_unit_5_se_conv1", "inbound_nodes": [[["vargface_stage_3_unit_5_se_conv1_reshape_6", 0, 0, {}]]]}, {"class_name": "LeakyReLU", "config": {"name": "vargface_stage_3_unit_5_se_act1", "trainable": true, "dtype": "float32", "alpha": 0.30000001192092896}, "name": "vargface_stage_3_unit_5_se_act1", "inbound_nodes": [[["vargface_stage_3_unit_5_se_conv1", 0, 0, {}]]]}, {"class_name": "Conv2D", "config": {"name": "vargface_stage_3_unit_5_se_conv2", "trainable": true, "dtype": "float32", "filters": 160, "kernel_size": [1, 1], "strides": [1, 1], "padding": "valid", "data_format": "channels_last", "dilation_rate": [1, 1], "groups": 1, "activation": "linear", "use_bias": true, "depthwise_initializer": {"class_name": "GlorotUniform", "config": {"seed": null}}, "bias_initializer": {"class_name": "Zeros", "config": {}}, "depthwise_intializer": null, "bias_regularizer": null, "activity_regularizer": null, "depthwise_constraint": null, "bias_constraint": null}, "name": "vargface_stage_3_unit_5_se_conv2", "inbound_nodes": [[["vargface_stage_3_unit_5_se_act1", 0, 0, {}]]]}, {"class_name": "Activation", "config": {"name": "vargface_stage_3_unit_5_se_sigmoid", "trainable": true, "dtype": "float32", "activation": "sigmoid"}, "name": "vargface_stage_3_unit_5_se_sigmoid", "inbound_nodes": [[["vargface_stage_3_unit_5_se_conv2", 0, 0, {}]]]}, {"class_name": "Multiply", "config": {"name": "multiply_6", "trainable": true, "dtype": "float32"}, "name": "multiply_6", "inbound_nodes": [[["vargface_stage_3_unit_5_sep2_data", 0, 0, {}], ["vargface_stage_3_unit_5_se_sigmoid", 0, 0, {}]]]}, {"class_name": "Add", "config": {"name": "add_10", "trainable": true, "dtype": "float32"}, "name": "add_10", "inbound_nodes": [[["vargface_stage_3_unit_4_out_data_act", 0, 0, {}], ["multiply_6", 0, 0, {}]]]}, {"class_name": "LeakyReLU", "config": {"name": "vargface_stage_3_unit_5_out_data_act", "trainable": true, "dtype": "float32", "alpha": 0.30000001192092896}, "name": "vargface_stage_3_unit_5_out_data_act", "inbound_nodes": [[["add_10", 0, 0, {}]]]}, {"class_name": "ZeroPadding2D", "config": {"name": "tf.compat.v1.pad_24_zero_padding2d_24", "trainable": true, "dtype": "float32", "padding": [[1, 1], [1, 1]], "data_format": "channels_last"}, "name": "tf.compat.v1.pad_24_zero_padding2d_24", "inbound_nodes": [[["vargface_stage_3_unit_5_out_data_act", 0, 0, {}]]]}, {"class_name": "SeparableConv2D", "config": {"name": "vargface_stage_3_unit_6_sep1_data", "trainable": true, "dtype": "float32", "filters": 160, "kernel_size": [3, 3], "strides": [1, 1], "padding": "valid", "data_format": "channels_last", "dilation_rate": [1, 1], "groups": 1, "activation": {"class_name": "LeakyReLU", "config": {"name": "leaky_re_lu_23", "trainable": true, "dtype": "float32", "alpha": 0.30000001192092896}, "shared_object_id": 272}, "use_bias": false, "depthwise_initializer": {"class_name": "GlorotUniform", "config": {"seed": null}}, "bias_initializer": {"class_name": "Zeros", "config": {}, "shared_object_id": 275}, "depthwise_intializer": null, "bias_regularizer": null, "activity_regularizer": null, "depthwise_constraint": null, "bias_constraint": null, "depth_multiplier": 2, "depthwise_initializer": {"class_name": "GlorotUniform", "config": {"seed": null}}, "pointwise_initializer": {"class_name": "GlorotUniform", "config": {"seed": null}}, "depthwise_regularizer": null, "pointwise_regularizer": null, "depthwise_constraint": null, "pointwise_constraint": null}, "name": "vargface_stage_3_unit_6_sep1_data", "inbound_nodes": [[["tf.compat.v1.pad_24_zero_padding2d_24", 0, 0, {}]]]}, {"class_name": "ZeroPadding2D", "config": {"name": "tf.compat.v1.pad_25_zero_padding2d_25", "trainable": true, "dtype": "float32", "padding": [[1, 1], [1, 1]], "data_format": "channels_last"}, "name": "tf.compat.v1.pad_25_zero_padding2d_25", "inbound_nodes": [[["vargface_stage_3_unit_6_sep1_data", 0, 0, {}]]]}, {"class_name": "SeparableConv2D", "config": {"name": "vargface_stage_3_unit_6_sep2_data", "trainable": true, "dtype": "float32", "filters": 160, "kernel_size": [3, 3], "strides": [1, 1], "padding": "valid", "data_format": "channels_last", "dilation_rate": [1, 1], "groups": 1, "activation": {"class_name": "LeakyReLU", "config": {"name": "leaky_re_lu_24", "trainable": true, "dtype": "float32", "alpha": 0.30000001192092896}, "shared_object_id": 279}, "use_bias": false, "depthwise_initializer": {"class_name": "GlorotUniform", "config": {"seed": null}}, "bias_initializer": {"class_name": "Zeros", "config": {}, "shared_object_id": 282}, "depthwise_intializer": null, "bias_regularizer": null, "activity_regularizer": null, "depthwise_constraint": null, "bias_constraint": null, "depth_multiplier": 2, "depthwise_initializer": {"class_name": "GlorotUniform", "config": {"seed": null}}, "pointwise_initializer": {"class_name": "GlorotUniform", "config": {"seed": null}}, "depthwise_regularizer": null, "pointwise_regularizer": null, "depthwise_constraint": null, "pointwise_constraint": null}, "name": "vargface_stage_3_unit_6_sep2_data", "inbound_nodes": [[["tf.compat.v1.pad_25_zero_padding2d_25", 0, 0, {}]]]}, {"class_name": "GlobalAveragePooling2D", "config": {"name": "vargface_stage_3_unit_6_se_pool1", "trainable": true, "dtype": "float32", "data_format": "channels_last", "keepdims": true}, "name": "vargface_stage_3_unit_6_se_pool1", "inbound_nodes": [[["vargface_stage_3_unit_6_sep2_data", 0, 0, {}]]]}, {"class_name": "Reshape", "config": {"name": "vargface_stage_3_unit_6_se_conv1_reshape_7", "trainable": true, "dtype": "float32", "target_shape": [1, 1, 160]}, "name": "vargface_stage_3_unit_6_se_conv1_reshape_7", "inbound_nodes": [[["vargface_stage_3_unit_6_se_pool1", 0, 0, {}]]]}, {"class_name": "Conv2D", "config": {"name": "vargface_stage_3_unit_6_se_conv1", "trainable": true, "dtype": "float32", "filters": 40, "kernel_size": [1, 1], "strides": [1, 1], "padding": "same", "data_format": "channels_last", "dilation_rate": [1, 1], "groups": 1, "activation": "linear", "use_bias": true, "depthwise_initializer": {"class_name": "GlorotUniform", "config": {"seed": null}}, "bias_initializer": {"class_name": "Zeros", "config": {}}, "depthwise_intializer": null, "bias_regularizer": null, "activity_regularizer": null, "depthwise_constraint": null, "bias_constraint": null}, "name": "vargface_stage_3_unit_6_se_conv1", "inbound_nodes": [[["vargface_stage_3_unit_6_se_conv1_reshape_7", 0, 0, {}]]]}, {"class_name": "LeakyReLU", "config": {"name": "vargface_stage_3_unit_6_se_act1", "trainable": true, "dtype": "float32", "alpha": 0.30000001192092896}, "name": "vargface_stage_3_unit_6_se_act1", "inbound_nodes": [[["vargface_stage_3_unit_6_se_conv1", 0, 0, {}]]]}, {"class_name": "Conv2D", "config": {"name": "vargface_stage_3_unit_6_se_conv2", "trainable": true, "dtype": "float32", "filters": 160, "kernel_size": [1, 1], "strides": [1, 1], "padding": "valid", "data_format": "channels_last", "dilation_rate": [1, 1], "groups": 1, "activation": "linear", "use_bias": true, "depthwise_initializer": {"class_name": "GlorotUniform", "config": {"seed": null}}, "bias_initializer": {"class_name": "Zeros", "config": {}}, "depthwise_intializer": null, "bias_regularizer": null, "activity_regularizer": null, "depthwise_constraint": null, "bias_constraint": null}, "name": "vargface_stage_3_unit_6_se_conv2", "inbound_nodes": [[["vargface_stage_3_unit_6_se_act1", 0, 0, {}]]]}, {"class_name": "Activation", "config": {"name": "vargface_stage_3_unit_6_se_sigmoid", "trainable": true, "dtype": "float32", "activation": "sigmoid"}, "name": "vargface_stage_3_unit_6_se_sigmoid", "inbound_nodes": [[["vargface_stage_3_unit_6_se_conv2", 0, 0, {}]]]}, {"class_name": "Multiply", "config": {"name": "multiply_7", "trainable": true, "dtype": "float32"}, "name": "multiply_7", "inbound_nodes": [[["vargface_stage_3_unit_6_sep2_data", 0, 0, {}], ["vargface_stage_3_unit_6_se_sigmoid", 0, 0, {}]]]}, {"class_name": "Add", "config": {"name": "add_11", "trainable": true, "dtype": "float32"}, "name": "add_11", "inbound_nodes": [[["vargface_stage_3_unit_5_out_data_act", 0, 0, {}], ["multiply_7", 0, 0, {}]]]}, {"class_name": "LeakyReLU", "config": {"name": "vargface_stage_3_unit_6_out_data_act", "trainable": true, "dtype": "float32", "alpha": 0.30000001192092896}, "name": "vargface_stage_3_unit_6_out_data_act", "inbound_nodes": [[["add_11", 0, 0, {}]]]}, {"class_name": "ZeroPadding2D", "config": {"name": "tf.compat.v1.pad_26_zero_padding2d_26", "trainable": true, "dtype": "float32", "padding": [[1, 1], [1, 1]], "data_format": "channels_last"}, "name": "tf.compat.v1.pad_26_zero_padding2d_26", "inbound_nodes": [[["vargface_stage_3_unit_6_out_data_act", 0, 0, {}]]]}, {"class_name": "SeparableConv2D", "config": {"name": "vargface_stage_3_unit_7_sep1_data", "trainable": true, "dtype": "float32", "filters": 160, "kernel_size": [3, 3], "strides": [1, 1], "padding": "valid", "data_format": "channels_last", "dilation_rate": [1, 1], "groups": 1, "activation": {"class_name": "LeakyReLU", "config": {"name": "leaky_re_lu_25", "trainable": true, "dtype": "float32", "alpha": 0.30000001192092896}, "shared_object_id": 299}, "use_bias": false, "depthwise_initializer": {"class_name": "GlorotUniform", "config": {"seed": null}}, "bias_initializer": {"class_name": "Zeros", "config": {}, "shared_object_id": 302}, "depthwise_intializer": null, "bias_regularizer": null, "activity_regularizer": null, "depthwise_constraint": null, "bias_constraint": null, "depth_multiplier": 2, "depthwise_initializer": {"class_name": "GlorotUniform", "config": {"seed": null}}, "pointwise_initializer": {"class_name": "GlorotUniform", "config": {"seed": null}}, "depthwise_regularizer": null, "pointwise_regularizer": null, "depthwise_constraint": null, "pointwise_constraint": null}, "name": "vargface_stage_3_unit_7_sep1_data", "inbound_nodes": [[["tf.compat.v1.pad_26_zero_padding2d_26", 0, 0, {}]]]}, {"class_name": "ZeroPadding2D", "config": {"name": "tf.compat.v1.pad_27_zero_padding2d_27", "trainable": true, "dtype": "float32", "padding": [[1, 1], [1, 1]], "data_format": "channels_last"}, "name": "tf.compat.v1.pad_27_zero_padding2d_27", "inbound_nodes": [[["vargface_stage_3_unit_7_sep1_data", 0, 0, {}]]]}, {"class_name": "SeparableConv2D", "config": {"name": "vargface_stage_3_unit_7_sep2_data", "trainable": true, "dtype": "float32", "filters": 160, "kernel_size": [3, 3], "strides": [1, 1], "padding": "valid", "data_format": "channels_last", "dilation_rate": [1, 1], "groups": 1, "activation": {"class_name": "LeakyReLU", "config": {"name": "leaky_re_lu_26", "trainable": true, "dtype": "float32", "alpha": 0.30000001192092896}, "shared_object_id": 306}, "use_bias": false, "depthwise_initializer": {"class_name": "GlorotUniform", "config": {"seed": null}}, "bias_initializer": {"class_name": "Zeros", "config": {}, "shared_object_id": 309}, "depthwise_intializer": null, "bias_regularizer": null, "activity_regularizer": null, "depthwise_constraint": null, "bias_constraint": null, "depth_multiplier": 2, "depthwise_initializer": {"class_name": "GlorotUniform", "config": {"seed": null}}, "pointwise_initializer": {"class_name": "GlorotUniform", "config": {"seed": null}}, "depthwise_regularizer": null, "pointwise_regularizer": null, "depthwise_constraint": null, "pointwise_constraint": null}, "name": "vargface_stage_3_unit_7_sep2_data", "inbound_nodes": [[["tf.compat.v1.pad_27_zero_padding2d_27", 0, 0, {}]]]}, {"class_name": "GlobalAveragePooling2D", "config": {"name": "vargface_stage_3_unit_7_se_pool1", "trainable": true, "dtype": "float32", "data_format": "channels_last", "keepdims": true}, "name": "vargface_stage_3_unit_7_se_pool1", "inbound_nodes": [[["vargface_stage_3_unit_7_sep2_data", 0, 0, {}]]]}, {"class_name": "Reshape", "config": {"name": "vargface_stage_3_unit_7_se_conv1_reshape_8", "trainable": true, "dtype": "float32", "target_shape": [1, 1, 160]}, "name": "vargface_stage_3_unit_7_se_conv1_reshape_8", "inbound_nodes": [[["vargface_stage_3_unit_7_se_pool1", 0, 0, {}]]]}, {"class_name": "Conv2D", "config": {"name": "vargface_stage_3_unit_7_se_conv1", "trainable": true, "dtype": "float32", "filters": 40, "kernel_size": [1, 1], "strides": [1, 1], "padding": "same", "data_format": "channels_last", "dilation_rate": [1, 1], "groups": 1, "activation": "linear", "use_bias": true, "depthwise_initializer": {"class_name": "GlorotUniform", "config": {"seed": null}}, "bias_initializer": {"class_name": "Zeros", "config": {}}, "depthwise_intializer": null, "bias_regularizer": null, "activity_regularizer": null, "depthwise_constraint": null, "bias_constraint": null}, "name": "vargface_stage_3_unit_7_se_conv1", "inbound_nodes": [[["vargface_stage_3_unit_7_se_conv1_reshape_8", 0, 0, {}]]]}, {"class_name": "LeakyReLU", "config": {"name": "vargface_stage_3_unit_7_se_act1", "trainable": true, "dtype": "float32", "alpha": 0.30000001192092896}, "name": "vargface_stage_3_unit_7_se_act1", "inbound_nodes": [[["vargface_stage_3_unit_7_se_conv1", 0, 0, {}]]]}, {"class_name": "Conv2D", "config": {"name": "vargface_stage_3_unit_7_se_conv2", "trainable": true, "dtype": "float32", "filters": 160, "kernel_size": [1, 1], "strides": [1, 1], "padding": "valid", "data_format": "channels_last", "dilation_rate": [1, 1], "groups": 1, "activation": "linear", "use_bias": true, "depthwise_initializer": {"class_name": "GlorotUniform", "config": {"seed": null}}, "bias_initializer": {"class_name": "Zeros", "config": {}}, "depthwise_intializer": null, "bias_regularizer": null, "activity_regularizer": null, "depthwise_constraint": null, "bias_constraint": null}, "name": "vargface_stage_3_unit_7_se_conv2", "inbound_nodes": [[["vargface_stage_3_unit_7_se_act1", 0, 0, {}]]]}, {"class_name": "Activation", "config": {"name": "vargface_stage_3_unit_7_se_sigmoid", "trainable": true, "dtype": "float32", "activation": "sigmoid"}, "name": "vargface_stage_3_unit_7_se_sigmoid", "inbound_nodes": [[["vargface_stage_3_unit_7_se_conv2", 0, 0, {}]]]}, {"class_name": "Multiply", "config": {"name": "multiply_8", "trainable": true, "dtype": "float32"}, "name": "multiply_8", "inbound_nodes": [[["vargface_stage_3_unit_7_sep2_data", 0, 0, {}], ["vargface_stage_3_unit_7_se_sigmoid", 0, 0, {}]]]}, {"class_name": "Add", "config": {"name": "add_12", "trainable": true, "dtype": "float32"}, "name": "add_12", "inbound_nodes": [[["vargface_stage_3_unit_6_out_data_act", 0, 0, {}], ["multiply_8", 0, 0, {}]]]}, {"class_name": "LeakyReLU", "config": {"name": "vargface_stage_3_unit_7_out_data_act", "trainable": true, "dtype": "float32", "alpha": 0.30000001192092896}, "name": "vargface_stage_3_unit_7_out_data_act", "inbound_nodes": [[["add_12", 0, 0, {}]]]}, {"class_name": "ZeroPadding2D", "config": {"name": "tf.compat.v1.pad_29_zero_padding2d_28", "trainable": true, "dtype": "float32", "padding": [[1, 1], [1, 1]], "data_format": "channels_last"}, "name": "tf.compat.v1.pad_29_zero_padding2d_28", "inbound_nodes": [[["vargface_stage_3_unit_7_out_data_act", 0, 0, {}]]]}, {"class_name": "ZeroPadding2D", "config": {"name": "tf.compat.v1.pad_30_zero_padding2d_29", "trainable": true, "dtype": "float32", "padding": [[1, 1], [1, 1]], "data_format": "channels_last"}, "name": "tf.compat.v1.pad_30_zero_padding2d_29", "inbound_nodes": [[["vargface_stage_3_unit_7_out_data_act", 0, 0, {}]]]}, {"class_name": "SeparableConv2D", "config": {"name": "vargface_stage_4_unit_1_step1_data_branch", "trainable": true, "dtype": "float32", "filters": 320, "kernel_size": [3, 3], "strides": [2, 2], "padding": "valid", "data_format": "channels_last", "dilation_rate": [1, 1], "groups": 1, "activation": {"class_name": "LeakyReLU", "config": {"name": "leaky_re_lu_28", "trainable": true, "dtype": "float32", "alpha": 0.30000001192092896}, "shared_object_id": 327}, "use_bias": false, "depthwise_initializer": {"class_name": "GlorotUniform", "config": {"seed": null}}, "bias_initializer": {"class_name": "Zeros", "config": {}, "shared_object_id": 330}, "depthwise_intializer": null, "bias_regularizer": null, "activity_regularizer": null, "depthwise_constraint": null, "bias_constraint": null, "depth_multiplier": 2, "depthwise_initializer": {"class_name": "GlorotUniform", "config": {"seed": null}}, "pointwise_initializer": {"class_name": "GlorotUniform", "config": {"seed": null}}, "depthwise_regularizer": null, "pointwise_regularizer": null, "depthwise_constraint": null, "pointwise_constraint": null}, "name": "vargface_stage_4_unit_1_step1_data_branch", "inbound_nodes": [[["tf.compat.v1.pad_29_zero_padding2d_28", 0, 0, {}]]]}, {"class_name": "SeparableConv2D", "config": {"name": "vargface_stage_4_unit_1_step2_data_branch", "trainable": true, "dtype": "float32", "filters": 320, "kernel_size": [3, 3], "strides": [2, 2], "padding": "valid", "data_format": "channels_last", "dilation_rate": [1, 1], "groups": 1, "activation": {"class_name": "LeakyReLU", "config": {"name": "leaky_re_lu_29", "trainable": true, "dtype": "float32", "alpha": 0.30000001192092896}, "shared_object_id": 333}, "use_bias": false, "depthwise_initializer": {"class_name": "GlorotUniform", "config": {"seed": null}}, "bias_initializer": {"class_name": "Zeros", "config": {}, "shared_object_id": 336}, "depthwise_intializer": null, "bias_regularizer": null, "activity_regularizer": null, "depthwise_constraint": null, "bias_constraint": null, "depth_multiplier": 2, "depthwise_initializer": {"class_name": "GlorotUniform", "config": {"seed": null}}, "pointwise_initializer": {"class_name": "GlorotUniform", "config": {"seed": null}}, "depthwise_regularizer": null, "pointwise_regularizer": null, "depthwise_constraint": null, "pointwise_constraint": null}, "name": "vargface_stage_4_unit_1_step2_data_branch", "inbound_nodes": [[["tf.compat.v1.pad_30_zero_padding2d_29", 0, 0, {}]]]}, {"class_name": "Add", "config": {"name": "add_13", "trainable": true, "dtype": "float32"}, "name": "add_13", "inbound_nodes": [[["vargface_stage_4_unit_1_step1_data_branch", 0, 0, {}], ["vargface_stage_4_unit_1_step2_data_branch", 0, 0, {}]]]}, {"class_name": "LeakyReLU", "config": {"name": "vargface_stage_4_unit_1_step1_data_act", "trainable": true, "dtype": "float32", "alpha": 0.30000001192092896}, "name": "vargface_stage_4_unit_1_step1_data_act", "inbound_nodes": [[["add_13", 0, 0, {}]]]}, {"class_name": "ZeroPadding2D", "config": {"name": "tf.compat.v1.pad_31_zero_padding2d_30", "trainable": true, "dtype": "float32", "padding": [[1, 1], [1, 1]], "data_format": "channels_last"}, "name": "tf.compat.v1.pad_31_zero_padding2d_30", "inbound_nodes": [[["vargface_stage_4_unit_1_step1_data_act", 0, 0, {}]]]}, {"class_name": "ZeroPadding2D", "config": {"name": "tf.compat.v1.pad_28_zero_padding2d_31", "trainable": true, "dtype": "float32", "padding": [[1, 1], [1, 1]], "data_format": "channels_last"}, "name": "tf.compat.v1.pad_28_zero_padding2d_31", "inbound_nodes": [[["vargface_stage_3_unit_7_out_data_act", 0, 0, {}]]]}, {"class_name": "SeparableConv2D", "config": {"name": "vargface_stage_4_unit_1_step2_data", "trainable": true, "dtype": "float32", "filters": 320, "kernel_size": [3, 3], "strides": [1, 1], "padding": "valid", "data_format": "channels_last", "dilation_rate": [1, 1], "groups": 1, "activation": {"class_name": "LeakyReLU", "config": {"name": "leaky_re_lu_30", "trainable": true, "dtype": "float32", "alpha": 0.30000001192092896}, "shared_object_id": 343}, "use_bias": false, "depthwise_initializer": {"class_name": "GlorotUniform", "config": {"seed": null}}, "bias_initializer": {"class_name": "Zeros", "config": {}, "shared_object_id": 346}, "depthwise_intializer": null, "bias_regularizer": null, "activity_regularizer": null, "depthwise_constraint": null, "bias_constraint": null, "depth_multiplier": 2, "depthwise_initializer": {"class_name": "GlorotUniform", "config": {"seed": null}}, "pointwise_initializer": {"class_name": "GlorotUniform", "config": {"seed": null}}, "depthwise_regularizer": null, "pointwise_regularizer": null, "depthwise_constraint": null, "pointwise_constraint": null}, "name": "vargface_stage_4_unit_1_step2_data", "inbound_nodes": [[["tf.compat.v1.pad_31_zero_padding2d_30", 0, 0, {}]]]}, {"class_name": "SeparableConv2D", "config": {"name": "vargface_stage_4_unit_1_shortcut", "trainable": true, "dtype": "float32", "filters": 320, "kernel_size": [3, 3], "strides": [2, 2], "padding": "valid", "data_format": "channels_last", "dilation_rate": [1, 1], "groups": 1, "activation": {"class_name": "LeakyReLU", "config": {"name": "leaky_re_lu_27", "trainable": true, "dtype": "float32", "alpha": 0.30000001192092896}, "shared_object_id": 349}, "use_bias": false, "depthwise_initializer": {"class_name": "GlorotUniform", "config": {"seed": null}}, "bias_initializer": {"class_name": "Zeros", "config": {}, "shared_object_id": 352}, "depthwise_intializer": null, "bias_regularizer": null, "activity_regularizer": null, "depthwise_constraint": null, "bias_constraint": null, "depth_multiplier": 2, "depthwise_initializer": {"class_name": "GlorotUniform", "config": {"seed": null}}, "pointwise_initializer": {"class_name": "GlorotUniform", "config": {"seed": null}}, "depthwise_regularizer": null, "pointwise_regularizer": null, "depthwise_constraint": null, "pointwise_constraint": null}, "name": "vargface_stage_4_unit_1_shortcut", "inbound_nodes": [[["tf.compat.v1.pad_28_zero_padding2d_31", 0, 0, {}]]]}, {"class_name": "Add", "config": {"name": "add_14", "trainable": true, "dtype": "float32"}, "name": "add_14", "inbound_nodes": [[["vargface_stage_4_unit_1_step2_data", 0, 0, {}], ["vargface_stage_4_unit_1_shortcut", 0, 0, {}]]]}, {"class_name": "LeakyReLU", "config": {"name": "vargface_stage_4_unit_1_out_data_act", "trainable": true, "dtype": "float32", "alpha": 0.30000001192092896}, "name": "vargface_stage_4_unit_1_out_data_act", "inbound_nodes": [[["add_14", 0, 0, {}]]]}, {"class_name": "ZeroPadding2D", "config": {"name": "tf.compat.v1.pad_32_zero_padding2d_32", "trainable": true, "dtype": "float32", "padding": [[1, 1], [1, 1]], "data_format": "channels_last"}, "name": "tf.compat.v1.pad_32_zero_padding2d_32", "inbound_nodes": [[["vargface_stage_4_unit_1_out_data_act", 0, 0, {}]]]}, {"class_name": "SeparableConv2D", "config": {"name": "vargface_stage_4_unit_2_sep1_data", "trainable": true, "dtype": "float32", "filters": 320, "kernel_size": [3, 3], "strides": [1, 1], "padding": "valid", "data_format": "channels_last", "dilation_rate": [1, 1], "groups": 1, "activation": {"class_name": "LeakyReLU", "config": {"name": "leaky_re_lu_31", "trainable": true, "dtype": "float32", "alpha": 0.30000001192092896}, "shared_object_id": 358}, "use_bias": false, "depthwise_initializer": {"class_name": "GlorotUniform", "config": {"seed": null}}, "bias_initializer": {"class_name": "Zeros", "config": {}, "shared_object_id": 361}, "depthwise_intializer": null, "bias_regularizer": null, "activity_regularizer": null, "depthwise_constraint": null, "bias_constraint": null, "depth_multiplier": 2, "depthwise_initializer": {"class_name": "GlorotUniform", "config": {"seed": null}}, "pointwise_initializer": {"class_name": "GlorotUniform", "config": {"seed": null}}, "depthwise_regularizer": null, "pointwise_regularizer": null, "depthwise_constraint": null, "pointwise_constraint": null}, "name": "vargface_stage_4_unit_2_sep1_data", "inbound_nodes": [[["tf.compat.v1.pad_32_zero_padding2d_32", 0, 0, {}]]]}, {"class_name": "ZeroPadding2D", "config": {"name": "tf.compat.v1.pad_33_zero_padding2d_33", "trainable": true, "dtype": "float32", "padding": [[1, 1], [1, 1]], "data_format": "channels_last"}, "name": "tf.compat.v1.pad_33_zero_padding2d_33", "inbound_nodes": [[["vargface_stage_4_unit_2_sep1_data", 0, 0, {}]]]}, {"class_name": "SeparableConv2D", "config": {"name": "vargface_stage_4_unit_2_sep2_data", "trainable": true, "dtype": "float32", "filters": 320, "kernel_size": [3, 3], "strides": [1, 1], "padding": "valid", "data_format": "channels_last", "dilation_rate": [1, 1], "groups": 1, "activation": {"class_name": "LeakyReLU", "config": {"name": "leaky_re_lu_32", "trainable": true, "dtype": "float32", "alpha": 0.30000001192092896}, "shared_object_id": 365}, "use_bias": false, "depthwise_initializer": {"class_name": "GlorotUniform", "config": {"seed": null}}, "bias_initializer": {"class_name": "Zeros", "config": {}, "shared_object_id": 368}, "depthwise_intializer": null, "bias_regularizer": null, "activity_regularizer": null, "depthwise_constraint": null, "bias_constraint": null, "depth_multiplier": 2, "depthwise_initializer": {"class_name": "GlorotUniform", "config": {"seed": null}}, "pointwise_initializer": {"class_name": "GlorotUniform", "config": {"seed": null}}, "depthwise_regularizer": null, "pointwise_regularizer": null, "depthwise_constraint": null, "pointwise_constraint": null}, "name": "vargface_stage_4_unit_2_sep2_data", "inbound_nodes": [[["tf.compat.v1.pad_33_zero_padding2d_33", 0, 0, {}]]]}, {"class_name": "GlobalAveragePooling2D", "config": {"name": "vargface_stage_4_unit_2_se_pool1", "trainable": true, "dtype": "float32", "data_format": "channels_last", "keepdims": true}, "name": "vargface_stage_4_unit_2_se_pool1", "inbound_nodes": [[["vargface_stage_4_unit_2_sep2_data", 0, 0, {}]]]}, {"class_name": "Reshape", "config": {"name": "vargface_stage_4_unit_2_se_conv1_reshape_9", "trainable": true, "dtype": "float32", "target_shape": [1, 1, 320]}, "name": "vargface_stage_4_unit_2_se_conv1_reshape_9", "inbound_nodes": [[["vargface_stage_4_unit_2_se_pool1", 0, 0, {}]]]}, {"class_name": "Conv2D", "config": {"name": "vargface_stage_4_unit_2_se_conv1", "trainable": true, "dtype": "float32", "filters": 80, "kernel_size": [1, 1], "strides": [1, 1], "padding": "same", "data_format": "channels_last", "dilation_rate": [1, 1], "groups": 1, "activation": "linear", "use_bias": true, "depthwise_initializer": {"class_name": "GlorotUniform", "config": {"seed": null}}, "bias_initializer": {"class_name": "Zeros", "config": {}}, "depthwise_intializer": null, "bias_regularizer": null, "activity_regularizer": null, "depthwise_constraint": null, "bias_constraint": null}, "name": "vargface_stage_4_unit_2_se_conv1", "inbound_nodes": [[["vargface_stage_4_unit_2_se_conv1_reshape_9", 0, 0, {}]]]}, {"class_name": "LeakyReLU", "config": {"name": "vargface_stage_4_unit_2_se_act1", "trainable": true, "dtype": "float32", "alpha": 0.30000001192092896}, "name": "vargface_stage_4_unit_2_se_act1", "inbound_nodes": [[["vargface_stage_4_unit_2_se_conv1", 0, 0, {}]]]}, {"class_name": "Conv2D", "config": {"name": "vargface_stage_4_unit_2_se_conv2", "trainable": true, "dtype": "float32", "filters": 320, "kernel_size": [1, 1], "strides": [1, 1], "padding": "valid", "data_format": "channels_last", "dilation_rate": [1, 1], "groups": 1, "activation": "linear", "use_bias": true, "depthwise_initializer": {"class_name": "GlorotUniform", "config": {"seed": null}}, "bias_initializer": {"class_name": "Zeros", "config": {}}, "depthwise_intializer": null, "bias_regularizer": null, "activity_regularizer": null, "depthwise_constraint": null, "bias_constraint": null}, "name": "vargface_stage_4_unit_2_se_conv2", "inbound_nodes": [[["vargface_stage_4_unit_2_se_act1", 0, 0, {}]]]}, {"class_name": "Activation", "config": {"name": "vargface_stage_4_unit_2_se_sigmoid", "trainable": true, "dtype": "float32", "activation": "sigmoid"}, "name": "vargface_stage_4_unit_2_se_sigmoid", "inbound_nodes": [[["vargface_stage_4_unit_2_se_conv2", 0, 0, {}]]]}, {"class_name": "Multiply", "config": {"name": "multiply_9", "trainable": true, "dtype": "float32"}, "name": "multiply_9", "inbound_nodes": [[["vargface_stage_4_unit_2_sep2_data", 0, 0, {}], ["vargface_stage_4_unit_2_se_sigmoid", 0, 0, {}]]]}, {"class_name": "Add", "config": {"name": "add_15", "trainable": true, "dtype": "float32"}, "name": "add_15", "inbound_nodes": [[["vargface_stage_4_unit_1_out_data_act", 0, 0, {}], ["multiply_9", 0, 0, {}]]]}, {"class_name": "LeakyReLU", "config": {"name": "vargface_stage_4_unit_2_out_data_act", "trainable": true, "dtype": "float32", "alpha": 0.30000001192092896}, "name": "vargface_stage_4_unit_2_out_data_act", "inbound_nodes": [[["add_15", 0, 0, {}]]]}, {"class_name": "ZeroPadding2D", "config": {"name": "tf.compat.v1.pad_34_zero_padding2d_34", "trainable": true, "dtype": "float32", "padding": [[1, 1], [1, 1]], "data_format": "channels_last"}, "name": "tf.compat.v1.pad_34_zero_padding2d_34", "inbound_nodes": [[["vargface_stage_4_unit_2_out_data_act", 0, 0, {}]]]}, {"class_name": "SeparableConv2D", "config": {"name": "vargface_stage_4_unit_3_sep1_data", "trainable": true, "dtype": "float32", "filters": 320, "kernel_size": [3, 3], "strides": [1, 1], "padding": "valid", "data_format": "channels_last", "dilation_rate": [1, 1], "groups": 1, "activation": {"class_name": "LeakyReLU", "config": {"name": "leaky_re_lu_33", "trainable": true, "dtype": "float32", "alpha": 0.30000001192092896}, "shared_object_id": 385}, "use_bias": false, "depthwise_initializer": {"class_name": "GlorotUniform", "config": {"seed": null}}, "bias_initializer": {"class_name": "Zeros", "config": {}, "shared_object_id": 388}, "depthwise_intializer": null, "bias_regularizer": null, "activity_regularizer": null, "depthwise_constraint": null, "bias_constraint": null, "depth_multiplier": 2, "depthwise_initializer": {"class_name": "GlorotUniform", "config": {"seed": null}}, "pointwise_initializer": {"class_name": "GlorotUniform", "config": {"seed": null}}, "depthwise_regularizer": null, "pointwise_regularizer": null, "depthwise_constraint": null, "pointwise_constraint": null}, "name": "vargface_stage_4_unit_3_sep1_data", "inbound_nodes": [[["tf.compat.v1.pad_34_zero_padding2d_34", 0, 0, {}]]]}, {"class_name": "ZeroPadding2D", "config": {"name": "tf.compat.v1.pad_35_zero_padding2d_35", "trainable": true, "dtype": "float32", "padding": [[1, 1], [1, 1]], "data_format": "channels_last"}, "name": "tf.compat.v1.pad_35_zero_padding2d_35", "inbound_nodes": [[["vargface_stage_4_unit_3_sep1_data", 0, 0, {}]]]}, {"class_name": "SeparableConv2D", "config": {"name": "vargface_stage_4_unit_3_sep2_data", "trainable": true, "dtype": "float32", "filters": 320, "kernel_size": [3, 3], "strides": [1, 1], "padding": "valid", "data_format": "channels_last", "dilation_rate": [1, 1], "groups": 1, "activation": {"class_name": "LeakyReLU", "config": {"name": "leaky_re_lu_34", "trainable": true, "dtype": "float32", "alpha": 0.30000001192092896}, "shared_object_id": 392}, "use_bias": false, "depthwise_initializer": {"class_name": "GlorotUniform", "config": {"seed": null}}, "bias_initializer": {"class_name": "Zeros", "config": {}, "shared_object_id": 395}, "depthwise_intializer": null, "bias_regularizer": null, "activity_regularizer": null, "depthwise_constraint": null, "bias_constraint": null, "depth_multiplier": 2, "depthwise_initializer": {"class_name": "GlorotUniform", "config": {"seed": null}}, "pointwise_initializer": {"class_name": "GlorotUniform", "config": {"seed": null}}, "depthwise_regularizer": null, "pointwise_regularizer": null, "depthwise_constraint": null, "pointwise_constraint": null}, "name": "vargface_stage_4_unit_3_sep2_data", "inbound_nodes": [[["tf.compat.v1.pad_35_zero_padding2d_35", 0, 0, {}]]]}, {"class_name": "GlobalAveragePooling2D", "config": {"name": "vargface_stage_4_unit_3_se_pool1", "trainable": true, "dtype": "float32", "data_format": "channels_last", "keepdims": true}, "name": "vargface_stage_4_unit_3_se_pool1", "inbound_nodes": [[["vargface_stage_4_unit_3_sep2_data", 0, 0, {}]]]}, {"class_name": "Reshape", "config": {"name": "vargface_stage_4_unit_3_se_conv1_reshape_10", "trainable": true, "dtype": "float32", "target_shape": [1, 1, 320]}, "name": "vargface_stage_4_unit_3_se_conv1_reshape_10", "inbound_nodes": [[["vargface_stage_4_unit_3_se_pool1", 0, 0, {}]]]}, {"class_name": "Conv2D", "config": {"name": "vargface_stage_4_unit_3_se_conv1", "trainable": true, "dtype": "float32", "filters": 80, "kernel_size": [1, 1], "strides": [1, 1], "padding": "same", "data_format": "channels_last", "dilation_rate": [1, 1], "groups": 1, "activation": "linear", "use_bias": true, "depthwise_initializer": {"class_name": "GlorotUniform", "config": {"seed": null}}, "bias_initializer": {"class_name": "Zeros", "config": {}}, "depthwise_intializer": null, "bias_regularizer": null, "activity_regularizer": null, "depthwise_constraint": null, "bias_constraint": null}, "name": "vargface_stage_4_unit_3_se_conv1", "inbound_nodes": [[["vargface_stage_4_unit_3_se_conv1_reshape_10", 0, 0, {}]]]}, {"class_name": "LeakyReLU", "config": {"name": "vargface_stage_4_unit_3_se_act1", "trainable": true, "dtype": "float32", "alpha": 0.30000001192092896}, "name": "vargface_stage_4_unit_3_se_act1", "inbound_nodes": [[["vargface_stage_4_unit_3_se_conv1", 0, 0, {}]]]}, {"class_name": "Conv2D", "config": {"name": "vargface_stage_4_unit_3_se_conv2", "trainable": true, "dtype": "float32", "filters": 320, "kernel_size": [1, 1], "strides": [1, 1], "padding": "valid", "data_format": "channels_last", "dilation_rate": [1, 1], "groups": 1, "activation": "linear", "use_bias": true, "depthwise_initializer": {"class_name": "GlorotUniform", "config": {"seed": null}}, "bias_initializer": {"class_name": "Zeros", "config": {}}, "depthwise_intializer": null, "bias_regularizer": null, "activity_regularizer": null, "depthwise_constraint": null, "bias_constraint": null}, "name": "vargface_stage_4_unit_3_se_conv2", "inbound_nodes": [[["vargface_stage_4_unit_3_se_act1", 0, 0, {}]]]}, {"class_name": "Activation", "config": {"name": "vargface_stage_4_unit_3_se_sigmoid", "trainable": true, "dtype": "float32", "activation": "sigmoid"}, "name": "vargface_stage_4_unit_3_se_sigmoid", "inbound_nodes": [[["vargface_stage_4_unit_3_se_conv2", 0, 0, {}]]]}, {"class_name": "Multiply", "config": {"name": "multiply_10", "trainable": true, "dtype": "float32"}, "name": "multiply_10", "inbound_nodes": [[["vargface_stage_4_unit_3_sep2_data", 0, 0, {}], ["vargface_stage_4_unit_3_se_sigmoid", 0, 0, {}]]]}, {"class_name": "Add", "config": {"name": "add_16", "trainable": true, "dtype": "float32"}, "name": "add_16", "inbound_nodes": [[["vargface_stage_4_unit_2_out_data_act", 0, 0, {}], ["multiply_10", 0, 0, {}]]]}, {"class_name": "LeakyReLU", "config": {"name": "vargface_stage_4_unit_3_out_data_act", "trainable": true, "dtype": "float32", "alpha": 0.30000001192092896}, "name": "vargface_stage_4_unit_3_out_data_act", "inbound_nodes": [[["add_16", 0, 0, {}]]]}, {"class_name": "ZeroPadding2D", "config": {"name": "tf.compat.v1.pad_36_zero_padding2d_36", "trainable": true, "dtype": "float32", "padding": [[1, 1], [1, 1]], "data_format": "channels_last"}, "name": "tf.compat.v1.pad_36_zero_padding2d_36", "inbound_nodes": [[["vargface_stage_4_unit_3_out_data_act", 0, 0, {}]]]}, {"class_name": "SeparableConv2D", "config": {"name": "vargface_stage_4_unit_4_sep1_data", "trainable": true, "dtype": "float32", "filters": 320, "kernel_size": [3, 3], "strides": [1, 1], "padding": "valid", "data_format": "channels_last", "dilation_rate": [1, 1], "groups": 1, "activation": {"class_name": "LeakyReLU", "config": {"name": "leaky_re_lu_35", "trainable": true, "dtype": "float32", "alpha": 0.30000001192092896}, "shared_object_id": 412}, "use_bias": false, "depthwise_initializer": {"class_name": "GlorotUniform", "config": {"seed": null}}, "bias_initializer": {"class_name": "Zeros", "config": {}, "shared_object_id": 415}, "depthwise_intializer": null, "bias_regularizer": null, "activity_regularizer": null, "depthwise_constraint": null, "bias_constraint": null, "depth_multiplier": 2, "depthwise_initializer": {"class_name": "GlorotUniform", "config": {"seed": null}}, "pointwise_initializer": {"class_name": "GlorotUniform", "config": {"seed": null}}, "depthwise_regularizer": null, "pointwise_regularizer": null, "depthwise_constraint": null, "pointwise_constraint": null}, "name": "vargface_stage_4_unit_4_sep1_data", "inbound_nodes": [[["tf.compat.v1.pad_36_zero_padding2d_36", 0, 0, {}]]]}, {"class_name": "ZeroPadding2D", "config": {"name": "tf.compat.v1.pad_37_zero_padding2d_37", "trainable": true, "dtype": "float32", "padding": [[1, 1], [1, 1]], "data_format": "channels_last"}, "name": "tf.compat.v1.pad_37_zero_padding2d_37", "inbound_nodes": [[["vargface_stage_4_unit_4_sep1_data", 0, 0, {}]]]}, {"class_name": "SeparableConv2D", "config": {"name": "vargface_stage_4_unit_4_sep2_data", "trainable": true, "dtype": "float32", "filters": 320, "kernel_size": [3, 3], "strides": [1, 1], "padding": "valid", "data_format": "channels_last", "dilation_rate": [1, 1], "groups": 1, "activation": {"class_name": "LeakyReLU", "config": {"name": "leaky_re_lu_36", "trainable": true, "dtype": "float32", "alpha": 0.30000001192092896}, "shared_object_id": 419}, "use_bias": false, "depthwise_initializer": {"class_name": "GlorotUniform", "config": {"seed": null}}, "bias_initializer": {"class_name": "Zeros", "config": {}, "shared_object_id": 422}, "depthwise_intializer": null, "bias_regularizer": null, "activity_regularizer": null, "depthwise_constraint": null, "bias_constraint": null, "depth_multiplier": 2, "depthwise_initializer": {"class_name": "GlorotUniform", "config": {"seed": null}}, "pointwise_initializer": {"class_name": "GlorotUniform", "config": {"seed": null}}, "depthwise_regularizer": null, "pointwise_regularizer": null, "depthwise_constraint": null, "pointwise_constraint": null}, "name": "vargface_stage_4_unit_4_sep2_data", "inbound_nodes": [[["tf.compat.v1.pad_37_zero_padding2d_37", 0, 0, {}]]]}, {"class_name": "GlobalAveragePooling2D", "config": {"name": "vargface_stage_4_unit_4_se_pool1", "trainable": true, "dtype": "float32", "data_format": "channels_last", "keepdims": true}, "name": "vargface_stage_4_unit_4_se_pool1", "inbound_nodes": [[["vargface_stage_4_unit_4_sep2_data", 0, 0, {}]]]}, {"class_name": "Reshape", "config": {"name": "vargface_stage_4_unit_4_se_conv1_reshape_11", "trainable": true, "dtype": "float32", "target_shape": [1, 1, 320]}, "name": "vargface_stage_4_unit_4_se_conv1_reshape_11", "inbound_nodes": [[["vargface_stage_4_unit_4_se_pool1", 0, 0, {}]]]}, {"class_name": "Conv2D", "config": {"name": "vargface_stage_4_unit_4_se_conv1", "trainable": true, "dtype": "float32", "filters": 80, "kernel_size": [1, 1], "strides": [1, 1], "padding": "same", "data_format": "channels_last", "dilation_rate": [1, 1], "groups": 1, "activation": "linear", "use_bias": true, "depthwise_initializer": {"class_name": "GlorotUniform", "config": {"seed": null}}, "bias_initializer": {"class_name": "Zeros", "config": {}}, "depthwise_intializer": null, "bias_regularizer": null, "activity_regularizer": null, "depthwise_constraint": null, "bias_constraint": null}, "name": "vargface_stage_4_unit_4_se_conv1", "inbound_nodes": [[["vargface_stage_4_unit_4_se_conv1_reshape_11", 0, 0, {}]]]}, {"class_name": "LeakyReLU", "config": {"name": "vargface_stage_4_unit_4_se_act1", "trainable": true, "dtype": "float32", "alpha": 0.30000001192092896}, "name": "vargface_stage_4_unit_4_se_act1", "inbound_nodes": [[["vargface_stage_4_unit_4_se_conv1", 0, 0, {}]]]}, {"class_name": "Conv2D", "config": {"name": "vargface_stage_4_unit_4_se_conv2", "trainable": true, "dtype": "float32", "filters": 320, "kernel_size": [1, 1], "strides": [1, 1], "padding": "valid", "data_format": "channels_last", "dilation_rate": [1, 1], "groups": 1, "activation": "linear", "use_bias": true, "depthwise_initializer": {"class_name": "GlorotUniform", "config": {"seed": null}}, "bias_initializer": {"class_name": "Zeros", "config": {}}, "depthwise_intializer": null, "bias_regularizer": null, "activity_regularizer": null, "depthwise_constraint": null, "bias_constraint": null}, "name": "vargface_stage_4_unit_4_se_conv2", "inbound_nodes": [[["vargface_stage_4_unit_4_se_act1", 0, 0, {}]]]}, {"class_name": "Activation", "config": {"name": "vargface_stage_4_unit_4_se_sigmoid", "trainable": true, "dtype": "float32", "activation": "sigmoid"}, "name": "vargface_stage_4_unit_4_se_sigmoid", "inbound_nodes": [[["vargface_stage_4_unit_4_se_conv2", 0, 0, {}]]]}, {"class_name": "Multiply", "config": {"name": "multiply_11", "trainable": true, "dtype": "float32"}, "name": "multiply_11", "inbound_nodes": [[["vargface_stage_4_unit_4_sep2_data", 0, 0, {}], ["vargface_stage_4_unit_4_se_sigmoid", 0, 0, {}]]]}, {"class_name": "Add", "config": {"name": "add_17", "trainable": true, "dtype": "float32"}, "name": "add_17", "inbound_nodes": [[["vargface_stage_4_unit_3_out_data_act", 0, 0, {}], ["multiply_11", 0, 0, {}]]]}, {"class_name": "LeakyReLU", "config": {"name": "vargface_stage_4_unit_4_out_data_act", "trainable": true, "dtype": "float32", "alpha": 0.30000001192092896}, "name": "vargface_stage_4_unit_4_out_data_act", "inbound_nodes": [[["add_17", 0, 0, {}]]]}], "input_layers": [["input_1", 0, 0]], "output_layers": [["vargface_stage_4_unit_4_out_data_act", 0, 0]]}}, {"class_name": "Dropout", "config": {"name": "dropout", "trainable": true, "dtype": "float32", "rate": 0.5, "noise_shape": null, "seed": null}}, {"class_name": "LeakyReLU", "config": {"name": "leaky_re_lu_37", "trainable": true, "dtype": "float32", "alpha": 0.30000001192092896}}, {"class_name": "Dense", "config": {"name": "dense", "trainable": true, "dtype": "float32", "units": 64, "activation": "linear", "use_bias": true, "depthwise_initializer": {"class_name": "GlorotUniform", "config": {"seed": null}}, "bias_initializer": {"class_name": "Zeros", "config": {}}, "depthwise_intializer": null, "bias_regularizer": null, "activity_regularizer": null, "depthwise_constraint": null, "bias_constraint": null}}, {"class_name": "Dropout", "config": {"name": "dropout_1", "trainable": true, "dtype": "float32", "rate": 0.5, "noise_shape": null, "seed": null}}, {"class_name": "LeakyReLU", "config": {"name": "leaky_re_lu_38", "trainable": true, "dtype": "float32", "alpha": 0.30000001192092896}}, {"class_name": "Flatten", "config": {"name": "flatten", "trainable": true, "dtype": "float32", "data_format": "channels_last"}}, {"class_name": "Dense", "config": {"name": "dense_1", "trainable": true, "dtype": "float32", "units": 8, "activation": "linear", "use_bias": true, "depthwise_initializer": {"class_name": "GlorotUniform", "config": {"seed": null}}, "bias_initializer": {"class_name": "Zeros", "config": {}}, "depthwise_intializer": null, "bias_regularizer": null, "activity_regularizer": null, "depthwise_constraint": null, "bias_constraint": null}}, {"class_name": "Reshape", "config": {"name": "reshape_3", "trainable": true, "dtype": "float32", "target_shape": [4, 2]}}]}}}, "weightsManifest": [{"paths": ["group1-shard1of3.bin", "group1-shard2of3.bin", "group1-shard3of3.bin"], "weights": [{"name": "dense/kernel", "shape": [320, 64], "dtype": "float32"}, {"name": "dense/bias", "shape": [64], "dtype": "float32"}, {"name": "dense_1/kernel", "shape": [3136, 8], "dtype": "float32"}, {"name": "dense_1/bias", "shape": [8], "dtype": "float32"}, {"name": "vargface_head_conv1/kernel", "shape": [3, 3, 3, 40], "dtype": "float32"}, {"name": "vargface_head_conv1_bn/beta", "shape": [40], "dtype": "float32"}, {"name": "vargface_head_head_pooling_sep1_data/depthwise_kernel", "shape": [3, 3, 40, 1], "dtype": "float32"}, {"name": "vargface_head_head_pooling_sep1_data/pointwise_kernel", "shape": [1, 1, 40, 40], "dtype": "float32"}, {"name": "vargface_head_head_pooling_sep2_data/depthwise_kernel", "shape": [3, 3, 40, 1], "dtype": "float32"}, {"name": "vargface_head_head_pooling_sep2_data/pointwise_kernel", "shape": [1, 1, 40, 40], "dtype": "float32"}, {"name": "vargface_head_head_pooling_se_conv1/kernel", "shape": [1, 1, 40, 10], "dtype": "float32"}, {"name": "vargface_head_head_pooling_se_conv1/bias", "shape": [10], "dtype": "float32"}, {"name": "vargface_head_head_pooling_se_conv2/kernel", "shape": [1, 1, 10, 40], "dtype": "float32"}, {"name": "vargface_head_head_pooling_se_conv2/bias", "shape": [40], "dtype": "float32"}, {"name": "vargface_head_head_pooling_shortcut/depthwise_kernel", "shape": [3, 3, 40, 1], "dtype": "float32"}, {"name": "vargface_head_head_pooling_shortcut/pointwise_kernel", "shape": [1, 1, 40, 40], "dtype": "float32"}, {"name": "vargface_stage_2_unit_1_step1_data_branch/depthwise_kernel", "shape": [3, 3, 40, 2], "dtype": "float32"}, {"name": "vargface_stage_2_unit_1_step1_data_branch/pointwise_kernel", "shape": [1, 1, 80, 80], "dtype": "float32"}, {"name": "vargface_stage_2_unit_1_step2_data_branch/depthwise_kernel", "shape": [3, 3, 40, 2], "dtype": "float32"}, {"name": "vargface_stage_2_unit_1_step2_data_branch/pointwise_kernel", "shape": [1, 1, 80, 80], "dtype": "float32"}, {"name": "vargface_stage_2_unit_1_step2_data/depthwise_kernel", "shape": [3, 3, 80, 2], "dtype": "float32"}, {"name": "vargface_stage_2_unit_1_step2_data/pointwise_kernel", "shape": [1, 1, 160, 80], "dtype": "float32"}, {"name": "vargface_stage_2_unit_1_shortcut/depthwise_kernel", "shape": [3, 3, 40, 2], "dtype": "float32"}, {"name": "vargface_stage_2_unit_1_shortcut/pointwise_kernel", "shape": [1, 1, 80, 80], "dtype": "float32"}, {"name": "vargface_stage_2_unit_2_sep1_data/depthwise_kernel", "shape": [3, 3, 80, 2], "dtype": "float32"}, {"name": "vargface_stage_2_unit_2_sep1_data/pointwise_kernel", "shape": [1, 1, 160, 80], "dtype": "float32"}, {"name": "vargface_stage_2_unit_2_sep2_data/depthwise_kernel", "shape": [3, 3, 80, 2], "dtype": "float32"}, {"name": "vargface_stage_2_unit_2_sep2_data/pointwise_kernel", "shape": [1, 1, 160, 80], "dtype": "float32"}, {"name": "vargface_stage_2_unit_2_se_conv1/kernel", "shape": [1, 1, 80, 20], "dtype": "float32"}, {"name": "vargface_stage_2_unit_2_se_conv1/bias", "shape": [20], "dtype": "float32"}, {"name": "vargface_stage_2_unit_2_se_conv2/kernel", "shape": [1, 1, 20, 80], "dtype": "float32"}, {"name": "vargface_stage_2_unit_2_se_conv2/bias", "shape": [80], "dtype": "float32"}, {"name": "vargface_stage_2_unit_3_sep1_data/depthwise_kernel", "shape": [3, 3, 80, 2], "dtype": "float32"}, {"name": "vargface_stage_2_unit_3_sep1_data/pointwise_kernel", "shape": [1, 1, 160, 80], "dtype": "float32"}, {"name": "vargface_stage_2_unit_3_sep2_data/depthwise_kernel", "shape": [3, 3, 80, 2], "dtype": "float32"}, {"name": "vargface_stage_2_unit_3_sep2_data/pointwise_kernel", "shape": [1, 1, 160, 80], "dtype": "float32"}, {"name": "vargface_stage_2_unit_3_se_conv1/kernel", "shape": [1, 1, 80, 20], "dtype": "float32"}, {"name": "vargface_stage_2_unit_3_se_conv1/bias", "shape": [20], "dtype": "float32"}, {"name": "vargface_stage_2_unit_3_se_conv2/kernel", "shape": [1, 1, 20, 80], "dtype": "float32"}, {"name": "vargface_stage_2_unit_3_se_conv2/bias", "shape": [80], "dtype": "float32"}, {"name": "vargface_stage_3_unit_1_step1_data_branch/depthwise_kernel", "shape": [3, 3, 80, 2], "dtype": "float32"}, {"name": "vargface_stage_3_unit_1_step1_data_branch/pointwise_kernel", "shape": [1, 1, 160, 160], "dtype": "float32"}, {"name": "vargface_stage_3_unit_1_step2_data_branch/depthwise_kernel", "shape": [3, 3, 80, 2], "dtype": "float32"}, {"name": "vargface_stage_3_unit_1_step2_data_branch/pointwise_kernel", "shape": [1, 1, 160, 160], "dtype": "float32"}, {"name": "vargface_stage_3_unit_1_step2_data/depthwise_kernel", "shape": [3, 3, 160, 2], "dtype": "float32"}, {"name": "vargface_stage_3_unit_1_step2_data/pointwise_kernel", "shape": [1, 1, 320, 160], "dtype": "float32"}, {"name": "vargface_stage_3_unit_1_shortcut/depthwise_kernel", "shape": [3, 3, 80, 2], "dtype": "float32"}, {"name": "vargface_stage_3_unit_1_shortcut/pointwise_kernel", "shape": [1, 1, 160, 160], "dtype": "float32"}, {"name": "vargface_stage_3_unit_2_sep1_data/depthwise_kernel", "shape": [3, 3, 160, 2], "dtype": "float32"}, {"name": "vargface_stage_3_unit_2_sep1_data/pointwise_kernel", "shape": [1, 1, 320, 160], "dtype": "float32"}, {"name": "vargface_stage_3_unit_2_sep2_data/depthwise_kernel", "shape": [3, 3, 160, 2], "dtype": "float32"}, {"name": "vargface_stage_3_unit_2_sep2_data/pointwise_kernel", "shape": [1, 1, 320, 160], "dtype": "float32"}, {"name": "vargface_stage_3_unit_2_se_conv1/kernel", "shape": [1, 1, 160, 40], "dtype": "float32"}, {"name": "vargface_stage_3_unit_2_se_conv1/bias", "shape": [40], "dtype": "float32"}, {"name": "vargface_stage_3_unit_2_se_conv2/kernel", "shape": [1, 1, 40, 160], "dtype": "float32"}, {"name": "vargface_stage_3_unit_2_se_conv2/bias", "shape": [160], "dtype": "float32"}, {"name": "vargface_stage_3_unit_3_sep1_data/depthwise_kernel", "shape": [3, 3, 160, 2], "dtype": "float32"}, {"name": "vargface_stage_3_unit_3_sep1_data/pointwise_kernel", "shape": [1, 1, 320, 160], "dtype": "float32"}, {"name": "vargface_stage_3_unit_3_sep2_data/depthwise_kernel", "shape": [3, 3, 160, 2], "dtype": "float32"}, {"name": "vargface_stage_3_unit_3_sep2_data/pointwise_kernel", "shape": [1, 1, 320, 160], "dtype": "float32"}, {"name": "vargface_stage_3_unit_3_se_conv1/kernel", "shape": [1, 1, 160, 40], "dtype": "float32"}, {"name": "vargface_stage_3_unit_3_se_conv1/bias", "shape": [40], "dtype": "float32"}, {"name": "vargface_stage_3_unit_3_se_conv2/kernel", "shape": [1, 1, 40, 160], "dtype": "float32"}, {"name": "vargface_stage_3_unit_3_se_conv2/bias", "shape": [160], "dtype": "float32"}, {"name": "vargface_stage_3_unit_4_sep1_data/depthwise_kernel", "shape": [3, 3, 160, 2], "dtype": "float32"}, {"name": "vargface_stage_3_unit_4_sep1_data/pointwise_kernel", "shape": [1, 1, 320, 160], "dtype": "float32"}, {"name": "vargface_stage_3_unit_4_sep2_data/depthwise_kernel", "shape": [3, 3, 160, 2], "dtype": "float32"}, {"name": "vargface_stage_3_unit_4_sep2_data/pointwise_kernel", "shape": [1, 1, 320, 160], "dtype": "float32"}, {"name": "vargface_stage_3_unit_4_se_conv1/kernel", "shape": [1, 1, 160, 40], "dtype": "float32"}, {"name": "vargface_stage_3_unit_4_se_conv1/bias", "shape": [40], "dtype": "float32"}, {"name": "vargface_stage_3_unit_4_se_conv2/kernel", "shape": [1, 1, 40, 160], "dtype": "float32"}, {"name": "vargface_stage_3_unit_4_se_conv2/bias", "shape": [160], "dtype": "float32"}, {"name": "vargface_stage_3_unit_5_sep1_data/depthwise_kernel", "shape": [3, 3, 160, 2], "dtype": "float32"}, {"name": "vargface_stage_3_unit_5_sep1_data/pointwise_kernel", "shape": [1, 1, 320, 160], "dtype": "float32"}, {"name": "vargface_stage_3_unit_5_sep2_data/depthwise_kernel", "shape": [3, 3, 160, 2], "dtype": "float32"}, {"name": "vargface_stage_3_unit_5_sep2_data/pointwise_kernel", "shape": [1, 1, 320, 160], "dtype": "float32"}, {"name": "vargface_stage_3_unit_5_se_conv1/kernel", "shape": [1, 1, 160, 40], "dtype": "float32"}, {"name": "vargface_stage_3_unit_5_se_conv1/bias", "shape": [40], "dtype": "float32"}, {"name": "vargface_stage_3_unit_5_se_conv2/kernel", "shape": [1, 1, 40, 160], "dtype": "float32"}, {"name": "vargface_stage_3_unit_5_se_conv2/bias", "shape": [160], "dtype": "float32"}, {"name": "vargface_stage_3_unit_6_sep1_data/depthwise_kernel", "shape": [3, 3, 160, 2], "dtype": "float32"}, {"name": "vargface_stage_3_unit_6_sep1_data/pointwise_kernel", "shape": [1, 1, 320, 160], "dtype": "float32"}, {"name": "vargface_stage_3_unit_6_sep2_data/depthwise_kernel", "shape": [3, 3, 160, 2], "dtype": "float32"}, {"name": "vargface_stage_3_unit_6_sep2_data/pointwise_kernel", "shape": [1, 1, 320, 160], "dtype": "float32"}, {"name": "vargface_stage_3_unit_6_se_conv1/kernel", "shape": [1, 1, 160, 40], "dtype": "float32"}, {"name": "vargface_stage_3_unit_6_se_conv1/bias", "shape": [40], "dtype": "float32"}, {"name": "vargface_stage_3_unit_6_se_conv2/kernel", "shape": [1, 1, 40, 160], "dtype": "float32"}, {"name": "vargface_stage_3_unit_6_se_conv2/bias", "shape": [160], "dtype": "float32"}, {"name": "vargface_stage_3_unit_7_sep1_data/depthwise_kernel", "shape": [3, 3, 160, 2], "dtype": "float32"}, {"name": "vargface_stage_3_unit_7_sep1_data/pointwise_kernel", "shape": [1, 1, 320, 160], "dtype": "float32"}, {"name": "vargface_stage_3_unit_7_sep2_data/depthwise_kernel", "shape": [3, 3, 160, 2], "dtype": "float32"}, {"name": "vargface_stage_3_unit_7_sep2_data/pointwise_kernel", "shape": [1, 1, 320, 160], "dtype": "float32"}, {"name": "vargface_stage_3_unit_7_se_conv1/kernel", "shape": [1, 1, 160, 40], "dtype": "float32"}, {"name": "vargface_stage_3_unit_7_se_conv1/bias", "shape": [40], "dtype": "float32"}, {"name": "vargface_stage_3_unit_7_se_conv2/kernel", "shape": [1, 1, 40, 160], "dtype": "float32"}, {"name": "vargface_stage_3_unit_7_se_conv2/bias", "shape": [160], "dtype": "float32"}, {"name": "vargface_stage_4_unit_1_step1_data_branch/depthwise_kernel", "shape": [3, 3, 160, 2], "dtype": "float32"}, {"name": "vargface_stage_4_unit_1_step1_data_branch/pointwise_kernel", "shape": [1, 1, 320, 320], "dtype": "float32"}, {"name": "vargface_stage_4_unit_1_step2_data_branch/depthwise_kernel", "shape": [3, 3, 160, 2], "dtype": "float32"}, {"name": "vargface_stage_4_unit_1_step2_data_branch/pointwise_kernel", "shape": [1, 1, 320, 320], "dtype": "float32"}, {"name": "vargface_stage_4_unit_1_step2_data/depthwise_kernel", "shape": [3, 3, 320, 2], "dtype": "float32"}, {"name": "vargface_stage_4_unit_1_step2_data/pointwise_kernel", "shape": [1, 1, 640, 320], "dtype": "float32"}, {"name": "vargface_stage_4_unit_1_shortcut/depthwise_kernel", "shape": [3, 3, 160, 2], "dtype": "float32"}, {"name": "vargface_stage_4_unit_1_shortcut/pointwise_kernel", "shape": [1, 1, 320, 320], "dtype": "float32"}, {"name": "vargface_stage_4_unit_2_sep1_data/depthwise_kernel", "shape": [3, 3, 320, 2], "dtype": "float32"}, {"name": "vargface_stage_4_unit_2_sep1_data/pointwise_kernel", "shape": [1, 1, 640, 320], "dtype": "float32"}, {"name": "vargface_stage_4_unit_2_sep2_data/depthwise_kernel", "shape": [3, 3, 320, 2], "dtype": "float32"}, {"name": "vargface_stage_4_unit_2_sep2_data/pointwise_kernel", "shape": [1, 1, 640, 320], "dtype": "float32"}, {"name": "vargface_stage_4_unit_2_se_conv1/kernel", "shape": [1, 1, 320, 80], "dtype": "float32"}, {"name": "vargface_stage_4_unit_2_se_conv1/bias", "shape": [80], "dtype": "float32"}, {"name": "vargface_stage_4_unit_2_se_conv2/kernel", "shape": [1, 1, 80, 320], "dtype": "float32"}, {"name": "vargface_stage_4_unit_2_se_conv2/bias", "shape": [320], "dtype": "float32"}, {"name": "vargface_stage_4_unit_3_sep1_data/depthwise_kernel", "shape": [3, 3, 320, 2], "dtype": "float32"}, {"name": "vargface_stage_4_unit_3_sep1_data/pointwise_kernel", "shape": [1, 1, 640, 320], "dtype": "float32"}, {"name": "vargface_stage_4_unit_3_sep2_data/depthwise_kernel", "shape": [3, 3, 320, 2], "dtype": "float32"}, {"name": "vargface_stage_4_unit_3_sep2_data/pointwise_kernel", "shape": [1, 1, 640, 320], "dtype": "float32"}, {"name": "vargface_stage_4_unit_3_se_conv1/kernel", "shape": [1, 1, 320, 80], "dtype": "float32"}, {"name": "vargface_stage_4_unit_3_se_conv1/bias", "shape": [80], "dtype": "float32"}, {"name": "vargface_stage_4_unit_3_se_conv2/kernel", "shape": [1, 1, 80, 320], "dtype": "float32"}, {"name": "vargface_stage_4_unit_3_se_conv2/bias", "shape": [320], "dtype": "float32"}, {"name": "vargface_stage_4_unit_4_sep1_data/depthwise_kernel", "shape": [3, 3, 320, 2], "dtype": "float32"}, {"name": "vargface_stage_4_unit_4_sep1_data/pointwise_kernel", "shape": [1, 1, 640, 320], "dtype": "float32"}, {"name": "vargface_stage_4_unit_4_sep2_data/depthwise_kernel", "shape": [3, 3, 320, 2], "dtype": "float32"}, {"name": "vargface_stage_4_unit_4_sep2_data/pointwise_kernel", "shape": [1, 1, 640, 320], "dtype": "float32"}, {"name": "vargface_stage_4_unit_4_se_conv1/kernel", "shape": [1, 1, 320, 80], "dtype": "float32"}, {"name": "vargface_stage_4_unit_4_se_conv1/bias", "shape": [80], "dtype": "float32"}, {"name": "vargface_stage_4_unit_4_se_conv2/kernel", "shape": [1, 1, 80, 320], "dtype": "float32"}, {"name": "vargface_stage_4_unit_4_se_conv2/bias", "shape": [320], "dtype": "float32"}, {"name": "vargface_head_conv1_bn/moving_mean", "shape": [40], "dtype": "float32"}, {"name": "vargface_head_conv1_bn/moving_variance", "shape": [40], "dtype": "float32"}]}]}